snapshots/first_level/best_snapshot_fc_0.pth (torch_old, 197013 bytes, 24 tensors)

batch_norm.weight f4 [100]
0	0x3faf2f6c	1.3686347
1	0x3fe8abbc	1.8177409
2	0x40114a42	2.2701573
3	0x3fe0d9d3	1.7566475
4	0x3fc9a442	1.5753253
5	0x401952dd	2.3956826
6	0x40324700	2.7855835
7	0x404fb637	3.2454965
8	0x405f30ea	3.4873605
9	0x403ab2b4	2.9171572
10	0x40109f91	2.2597392
11	0x404e88a0	3.227089
12	0x404c1b6c	3.1891737
13	0x4021e7ef	2.529781
14	0x40004d92	2.0047345
15	0x4001ecd9	2.030081
16	0x3fc81d50	1.5633945
17	0x3fab08c7	1.3362054
18	0x3ff92e8d	1.9467331
19	0x4034e7df	2.8266523
20	0x4024e507	2.5764787
21	0x401cdbd9	2.4509184
22	0x3f846c71	1.0345594
23	0x3fb154c4	1.3853993
24	0x3fccd24f	1.6001681
25	0x3f33f715	0.7029889
26	0x3f8232c2	1.017174
27	0x3f89dfd2	1.077143
28	0x3f84c80b	1.0373548
29	0x3fb32ed2	1.3998663
30	0x3f459d64	0.77193284
31	0x3f9ee358	1.241313
32	0x3fc76975	1.5579058
33	0x3fdf6fa0	1.745594
34	0x3f90760c	1.1286025
35	0x3f7c46c8	0.98545504
36	0x3f8b527e	1.088455
37	0x3f3fe1f8	0.74954176
38	0x3efb6bbe	0.49105638
39	0x3fa91cb7	1.3211888
40	0x3f8d8992	1.1057608
41	0x3fa7f233	1.3120788
42	0x3f7189d5	0.9435094
43	0x3fc4fe67	1.5390137
44	0x3f9a0a14	1.2034326
45	0x3f1141a9	0.56740814
46	0x3f46c45b	0.77643365
47	0x3fb0abdb	1.3802446
48	0x3fa2e49d	1.2726017
49	0x4015d879	2.3413374
50	0x3fd44596	1.6583736
51	0x400a469f	2.1605604
52	0x3f27bfcb	0.6552703
53	0x3fafec94	1.3744073
54	0x3f88fe28	1.0702562
55	0x3f8d6a4f	1.1048068
56	0x3fdfd4c1	1.7486802
57	0x3ff6538b	1.9244245
58	0x3fa9c132	1.3262084
59	0x40106d58	2.2566738
60	0x3ffdf39a	1.9839966
61	0x3fed729a	1.8550599
62	0x40300206	2.7501235
63	0x400052cb	2.0050533
64	0x3f2ceff2	0.6755363
65	0x3ef4c1dd	0.47804156
66	0x3e9c034a	0.3047126
67	0x3f92daac	1.1472983
68	0x3fd5b88d	1.6696945
69	0x3fd10bfa	1.633178
70	0x3fd399b3	1.653128
71	0x3fcd1910	1.6023273
72	0x3f2b02bc	0.6680105
73	0x3f65c459	0.8975273
74	0x3f5c256d	0.8599461
75	0x3f70bcf7	0.9403834
76	0x3f93ad0b	1.1537184
77	0x3f778eca	0.96702254
78	0x3f035215	0.5129712
79	0x3f56ca10	0.8390207
80	0x3f7f9ed3	0.9985172
81	0x3f815608	1.010438
82	0x3f70bc27	0.940371
83	0x3f502d2c	0.81318927
84	0x3fad19a8	1.3523455
85	0x3fc839b0	1.5642605
86	0x3fc446bc	1.5334086
87	0x3fa24a36	1.2678897
88	0x3f9c7aac	1.2224936
89	0x3fd58b21	1.6683084
90	0x3fdf724d	1.7456757
91	0x4030a525	2.7600796
92	0x4020e924	2.5142298
93	0x3ff15886	1.885514
94	0x3fa10580	1.2579803
95	0x3f81e5b1	1.0148221
96	0x3f9ac3ef	1.2091044
97	0x3fe1fdf4	1.7655625
98	0x3fb70077	1.4297017
99	0x3f8c8732	1.0978758

batch_norm.bias f4 [100]
0	0x3d54d460	0.05196035
1	0xbcb1ace7	-0.021688892
2	0xbc9491ce	-0.018135931
3	0xbc8de071	-0.017318936
4	0x3b81358a	0.00394315
5	0xbc50b973	-0.012739527
6	0xbc6469e2	-0.01394126
7	0x3bfcb391	0.0077118357
8	0xbcf0d146	-0.029396664
9	0xbd8d9823	-0.069137834
10	0x3c0610d8	0.008182727
11	0xbd27e1dc	-0.04098688
12	0x3acc9a17	0.0015609887
13	0x3d17d706	0.037070297
14	0x3c900945	0.017582545
15	0xbc9e9dc8	-0.019362345
16	0xbc574fa6	-0.013141548
17	0xbcc17a6e	-0.02361795
18	0x3b010c3f	0.0019691137
19	0xbcf822d8	-0.030290052
20	0x3d17231f	0.03689873
21	0xbc98c87b	-0.018650284
22	0xbadcb1c1	-0.0016837643
23	0x3d25063c	0.04028915
24	0xbd45fce0	-0.048336864
25	0xbc91e272	-0.017808173
26	0xbd518c07	-0.05115893
27	0xbd14168d	-0.03615432
28	0xba390e43	-0.0007059315
29	0xbd6642e9	-0.056216154
30	0x3ca66127	0.020309998
31	0xbd1d0d06	-0.0383425
32	0xbcc87340	-0.024469018
33	0xbcaf3936	-0.021389585
34	0x3d3bd106	0.045853637
35	0xbc819d1a	-0.015821982
36	0x3b21e77d	0.0024704628
37	0xbc9ba24b	-0.018998286
38	0xbc454410	-0.012040153
39	0x3cb194b8	0.02167736
40	0xbd01a7ed	-0.031654287
41	0x3d03195a	0.0320066
42	0x3c33ad47	0.0109666055
43	0xbd915ccb	-0.07097777
44	0xbd404851	-0.046943966
45	0xbca926fb	-0.02064847
46	0xbc269823	-0.010168108
47	0xbd4528a6	-0.04813447
48	0xbca24c35	-0.019811729
49	0x3b95737c	0.004560886
50	0xbc6b6d54	-0.014369328
51	0xbc5543a3	-0.013016614
52	0x3afc8587	0.0019265868
53	0xbd3447cb	-0.04401378
54	0x3b52e771	0.0032181407
55	0x3a15a3f3	0.0005708329
56	0xbc5fc068	-0.013656713
57	0xbd56b0fb	-0.052414875
58	0xbc94d5a2	-0.018168274
59	0xbbf5bcb4	-0.007499302
60	0xbc2453ed	-0.010029775
61	0xbd0ebb00	-0.034846306
62	0xbd778fd1	-0.06043989
63	0xbdb2ddab	-0.08733686
64	0xbd763c00	-0.060115814
65	0xbcf3d0dc	-0.029762678
66	0xbc2fa4b4	-0.010720421
67	0x3c933253	0.017968332
68	0xbc953662	-0.018214408
69	0xbdb80b19	-0.08986492
70	0xbd179db7	-0.037015643
71	0xbd14444f	-0.036197957
72	0x3b9546c1	0.0045555537
73	0x3c4bbb34	0.012434769
74	0xbaa69278	-0.0012708446
75	0x3d0722d3	0.032992195
76	0xbc18da3a	-0.009329373
77	0xbd41dbd9	-0.047328804
78	0xbc8c8fee	-0.017158475
79	0xbcee49bf	-0.0290879
80	0xbd54778e	-0.05187183
81	0xbc51dd2d	-0.01280908
82	0xbc7b5136	-0.015339186
83	0xbd5b0509	-0.0534716
84	0xbc7d7875	-0.015470614
85	0xbcf70b75	-0.03015683
86	0xbd002c47	-0.031292226
87	0x3d0ac987	0.033883598
88	0xbb0d99b4	-0.0021606507
89	0xbd51c8ed	-0.05121701
90	0xbd1c8d2f	-0.03822058
91	0xbc328eb8	-0.010898285
92	0xbce1e8c5	-0.027576813
93	0xbd23fe06	-0.040037178
94	0xbd0057ee	-0.031333856
95	0xbbd7cc0c	-0.0065856036
96	0x3cb4dd94	0.022078313
97	0x3cd40194	0.025879659
98	0x3d5e0016	0.0541993
99	0x3d0088f3	0.031380605

batch_norm.running_mean f4 [100]
0	0x432aa765	170.65388
1	0x432a8796	170.52963
2	0x432a9116	170.56674
3	0x432aa075	170.62679
4	0x432add5e	170.86472
5	0x432ac83f	170.78221
6	0x432accdb	170.80022
7	0x432aa4d9	170.64394
8	0x432a92ff	170.5742
9	0x432aae02	170.67972
10	0x432abbe3	170.73393
11	0x432a9d47	170.61436
12	0x432abcfe	170.73825
13	0x432a9d40	170.61426
14	0x432ac558	170.77087
15	0x432adca0	170.86182
16	0x432aae39	170.68056
17	0x432a98e9	170.5973
18	0x432ab93f	170.72362
19	0x432a81be	170.5068
20	0x432ab04e	170.68869
21	0x432aa335	170.63753
22	0x432ab841	170.71974
23	0x432ab1c1	170.69435
24	0x432ab6bf	170.71385
25	0x432a958e	170.5842
26	0x432a9d63	170.61479
27	0x432aaac4	170.66705
28	0x432a991e	170.59811
29	0x432aa153	170.63017
30	0x432ab7ba	170.71768
31	0x432a9849	170.59486
32	0x432a9b6a	170.60709
33	0x432aa555	170.64583
34	0x432ab05f	170.68895
35	0x432abdfc	170.74213
36	0x432aae79	170.68153
37	0x432a9ece	170.62033
38	0x432a998f	170.59984
39	0x432aa348	170.63782
40	0x432a99cd	170.60078
41	0x432a98ec	170.59735
42	0x432a8d95	170.55305
43	0x432aa014	170.6253
44	0x432a9211	170.57057
45	0x432abf4b	170.74724
46	0x432ac16c	170.75555
47	0x432a9e71	170.61891
48	0x432ab32c	170.69989
49	0x432a9f52	170.62234
50	0x432a9898	170.59607
51	0x432aa75d	170.65376
52	0x432ab00f	170.68773
53	0x432aaf8b	170.68571
54	0x432aa207	170.63292
55	0x432aa24d	170.63399
56	0x432a9da4	170.61578
57	0x432a99b3	170.60039
58	0x432ab1db	170.69475
59	0x432abd54	170.73956
60	0x432a8e0d	170.55489
61	0x432aab2f	170.66869
62	0x432abb54	170.73175
63	0x432ab607	170.71104
64	0x432a9ad4	170.6048
65	0x432ab27a	170.69717
66	0x432aaa7a	170.66592
67	0x432ad143	170.81743
68	0x432aa900	170.66016
69	0x432ab7af	170.71751
70	0x432aaf7f	170.68553
71	0x432a927f	170.57225
72	0x432aa41d	170.64107
73	0x432ab2cc	170.69843
74	0x432a8553	170.5208
75	0x432a988a	170.59586
76	0x432a751c	170.45746
77	0x432aa8b5	170.65901
78	0x432ac15b	170.7553
79	0x432a981a	170.59415
80	0x432aa4bc	170.6435
81	0x432aaa70	170.66577
82	0x432aadf2	170.67947
83	0x432a8892	170.53348
84	0x432a8b61	170.54445
85	0x432a9687	170.588
86	0x432a99c0	170.60059
87	0x432ad387	170.82628
88	0x432a86a5	170.52596
89	0x432a80b9	170.50282
90	0x432aaadc	170.66742
91	0x432ab0ea	170.69107
92	0x432aa72e	170.65305
93	0x432a88ee	170.53488
94	0x432a81c7	170.50694
95	0x432a99a8	170.60022
96	0x432a9930	170.59839
97	0x432a854e	170.52072
98	0x432aba41	170.72755
99	0x432a8e2d	170.55537

batch_norm.running_var f4 [100]
0	0x45223895	2595.5364
1	0x45222c02	2594.7505
2	0x45236615	2614.3801
3	0x4522ac02	2602.7505
4	0x4522776a	2599.4634
5	0x45215ec1	2581.922
6	0x4521f8b1	2591.5432
7	0x4522443a	2596.2642
8	0x45225d6d	2597.839
9	0x4522ffb5	2607.9817
10	0x452307ab	2608.4792
11	0x4521cb7f	2588.7185
12	0x45227371	2599.215
13	0x452296bf	2601.4216
14	0x45246cbd	2630.7961
15	0x4521f2cc	2591.1748
16	0x45248b75	2632.716
17	0x4522d569	2605.3381
18	0x45245c4c	2629.7686
19	0x45233db3	2611.8562
20	0x4522f1a9	2607.1038
21	0x4523a834	2618.5127
22	0x45229cd4	2601.8018
23	0x45231790	2609.4727
24	0x452288a5	2600.5403
25	0x4522ec1c	2606.7568
26	0x4522ae70	2602.9023
27	0x45239493	2617.286
28	0x45232587	2610.3455
29	0x45230656	2608.396
30	0x4523e0f0	2622.0586
31	0x4522a104	2602.0635
32	0x45238b7d	2616.718
33	0x4522f94b	2607.5808
34	0x4523522f	2613.1365
35	0x45232e89	2610.9084
36	0x452227d2	2594.4888
37	0x4522e2b4	2606.169
38	0x45226d66	2598.8374
39	0x4522d98c	2605.5967
40	0x45229ffc	2601.999
41	0x45223187	2595.0955
42	0x45242bcd	2626.7375
43	0x45242cb3	2626.7937
44	0x4524258b	2626.3464
45	0x4524fa53	2639.6453
46	0x4523172c	2609.4482
47	0x452336ed	2611.4329
48	0x45231777	2609.4666
49	0x45227f8c	2599.9717
50	0x452319c1	2609.6096
51	0x4523635e	2614.2104
52	0x4523c261	2620.1487
53	0x452332aa	2611.1665
54	0x45233cd5	2611.802
55	0x4522c660	2604.3984
56	0x4522b18a	2603.0962
57	0x452361de	2614.1167
58	0x4524ad56	2634.8335
59	0x45227e61	2599.8987
60	0x4522f357	2607.2087
61	0x4523451e	2612.3198
62	0x4522b7eb	2603.4949
63	0x4523eb95	2622.7239
64	0x45225e8d	2597.9094
65	0x4524efdb	2638.991
66	0x45241c14	2625.755
67	0x452251b9	2597.1077
68	0x45236a3a	2614.6392
69	0x4522c4e6	2604.3062
70	0x45234763	2612.4617
71	0x45243f81	2627.969
72	0x4523ea2a	2622.6353
73	0x45238052	2616.02
74	0x4522e228	2606.1348
75	0x4523a24a	2618.143
76	0x45233bde	2611.7417
77	0x4523bacd	2619.675
78	0x45245c0a	2629.7524
79	0x4522e727	2606.447
80	0x45230223	2608.1335
81	0x452397a8	2617.4785
82	0x452399d7	2617.615
83	0x4523ba12	2619.6294
84	0x4523acbd	2618.7961
85	0x4522e76f	2606.4646
86	0x45235d8b	2613.8464
87	0x4522d111	2605.0667
88	0x45243fb2	2627.981
89	0x4522f6db	2607.4285
90	0x4522f3d2	2607.2388
91	0x45231f87	2609.9705
92	0x4522d666	2605.4
93	0x4523756b	2615.3386
94	0x45234ba9	2612.7288
95	0x4522c9e5	2604.6184
96	0x452492d1	2633.176
97	0x452440cf	2628.0505
98	0x45239557	2617.3337
99	0x452346f4	2612.4346

batch_norm_2.weight f4 [128]
0	0x3f9fc8a5	1.2483107
1	0x3feb109d	1.8364445
2	0x3fbb5d64	1.4637876
3	0x3f999e0e	1.200136
4	0x400686c1	2.1019747
5	0x3feab443	1.8336262
6	0x3fea999d	1.8328129
7	0x3f8ddde0	1.1083336
8	0x3f1181f2	0.56838906
9	0x3eda2d70	0.4261279
10	0x3fcb651a	1.5890229
11	0x3fe34a7b	1.7757105
12	0x400e2780	2.221161
13	0x3ff75b84	1.9324803
14	0x3fefe976	1.8743122
15	0x3fd29747	1.6452416
16	0x3fba875d	1.457256
17	0x3fd8c582	1.6935275
18	0x3fabdd5e	1.3426931
19	0x3f9c3ea8	1.2206621
20	0x3f87c563	1.0607113
21	0x3ea32868	0.31866765
22	0x3f98e911	1.1946126
23	0x401310c1	2.2978976
24	0x3fce3021	1.6108438
25	0x3d183c95	0.03716715
26	0x3fec1a30	1.8445492
27	0x3ff49106	1.9106758
28	0x401697d6	2.3530173
29	0x3f207017	0.62671036
30	0x3fd4b044	1.6616292
31	0x3fe7d2fc	1.8111262
32	0x3fa2f758	1.2731733
33	0x3fc8dbaf	1.5692042
34	0x3fc6578e	1.549547
35	0x3fe27756	1.7692668
36	0x3fbc5da4	1.4716077
37	0x3ffa711d	1.956577
38	0x3ed98a72	0.42488438
39	0x3fbcc8d6	1.474879
40	0x3fa4ca18	1.2874174
41	0x3ff9254b	1.9464506
42	0x3fd0b6cb	1.6305784
43	0x3fe537e6	1.7907684
44	0x3f9fe608	1.2492075
45	0x3fd20576	1.6407917
46	0x3fe64e71	1.7992688
47	0x3fa65746	1.2995384
48	0x3f934487	1.1505288
49	0x3faa68fc	1.3313289
50	0x3f8b48a4	1.0881543
51	0x3fdfb2f4	1.7476487
52	0x3fc68531	1.5509397
53	0x3fe582ff	1.7930602
54	0x40172bc5	2.3620465
55	0x3f5300ca	0.8242308
56	0x40053cb4	2.08183
57	0x3fbf260c	1.4933486
58	0x3fb6f4a0	1.4293404
59	0x3fe1b3d6	1.7633007
60	0x3ea5e9bd	0.3240489
61	0x3fd4cc52	1.6624854
62	0x3fea3c95	1.8299738
63	0x3fd87766	1.6911438
64	0x3fd5213c	1.6650767
65	0x3e1180c6	0.1420928
66	0x3f726b68	0.9469514
67	0x3fb8327c	1.4390407
68	0x3fea2b95	1.829455
69	0x3fa6b936	1.3025272
70	0x3fcda5f5	1.6066271
71	0x3fd38b76	1.6526935
72	0x3fc43ed0	1.5331669
73	0x3fc1806e	1.5117319
74	0x3f8e76b1	1.1129972
75	0x40084f02	2.1298223
76	0x3f785731	0.97008044
77	0x3fd34f01	1.6508485
78	0x3fc31f05	1.5243841
79	0x3ed914f5	0.423988
80	0x3ff73906	1.9314277
81	0x3f994b9a	1.1976197
82	0x3f92bb95	1.1463495
83	0x3ea15b27	0.31514856
84	0x3fd07326	1.628514
85	0x3fc12573	1.5089554
86	0x3fca36c6	1.5797966
87	0x3fd28cae	1.6449182
88	0x3f693d01	0.9110871
89	0x3f9db7f4	1.2321763
90	0x3f7c16da	0.9847237
91	0x3fea6f11	1.8315145
92	0x3fe5ec7d	1.7962795
93	0x3fd9ad75	1.700606
94	0x3ff1c493	1.8888115
95	0x3fd8eff8	1.6948233
96	0x3fc076b8	1.503623
97	0x3fc0d202	1.5064089
98	0x3f9a0833	1.2033752
99	0x3f2a65bb	0.6656148
100	0x3f9f1b3f	1.243019
101	0x3fc5c7e3	1.5451626
102	0x3f891d86	1.0712135
103	0x3fd8167b	1.688186
104	0x3ed5d370	0.41762877
105	0x3fa531b5	1.2905794
106	0x3f9ee53b	1.2413706
107	0x3fd9d1f3	1.7017196
108	0x3fa3af8a	1.2787945
109	0x3ff5ed5a	1.9213059
110	0x4014c105	2.324281
111	0x3f9f58d5	1.2448984
112	0x3fcec8e3	1.6155056
113	0x3f982b8a	1.1888287
114	0x3fc60ff4	1.5473619
115	0x3fc8dcba	1.569236
116	0x3f5d928b	0.8655173
117	0x3fc2846b	1.5196661
118	0x3f99f931	1.2029172
119	0x3e83c340	0.257349
120	0x3f81b072	1.0131972
121	0x3e369569	0.17830433
122	0x40025887	2.0366533
123	0x3fb33817	1.4001492
124	0x3ea0a0ab	0.3137258
125	0x40173aff	2.3629758
126	0x3fb254f6	1.3932178
127	0x3feb1014	1.8364282

batch_norm_2.bias f4 [128]
0	0xbeb01236	-0.34388894
1	0xbf49663d	-0.7867163
2	0xbecb619c	-0.39722908
3	0xbea32c22	-0.31869608
4	0xbf7cd86d	-0.9876774
5	0xbf63a37d	-0.8892134
6	0xbf463e14	-0.77438474
7	0xbea272f4	-0.31728327
8	0xbf8cf3b9	-1.1011878
9	0xbf2ce7a4	-0.67540956
10	0xbed6e21b	-0.4196938
11	0xbf651abb	-0.8949391
12	0xbf214c34	-0.630069
13	0xbf63431f	-0.88774294
14	0xbf5074db	-0.8142831
15	0xbf23e43e	-0.64020145
16	0xbedd1d26	-0.431863
17	0xbf3a0f9b	-0.7268006
18	0xbebfbe94	-0.37450087
19	0xbebd6fa5	-0.3699924
20	0xbe626482	-0.22108653
21	0xbf4347cd	-0.76281434
22	0xbea23c16	-0.31686467
23	0xbf88a21d	-1.0674473
24	0xbf3cca76	-0.7374643
25	0xbf660f67	-0.8986725
26	0xbf4d44ea	-0.8018328
27	0xbf1f1555	-0.62141925
28	0xbf97a185	-1.1846167
29	0xbf10f85a	-0.56628954
30	0xbf43ae72	-0.7643806
31	0xbf55324e	-0.83279884
32	0xbe983e20	-0.29734898
33	0xbedcd93f	-0.43134496
34	0xbf277b18	-0.654222
35	0xbf6013f7	-0.87530464
36	0xbecc4d54	-0.39902747
37	0xbf0b01d0	-0.5429964
38	0xbf2f4ec2	-0.6847955
39	0xbeb33890	-0.3500409
40	0xbed2f001	-0.41198733
41	0xbf6d253c	-0.9263494
42	0xbf2f087e	-0.68372333
43	0xbf71b33d	-0.9441412
44	0xbebd68c0	-0.3699398
45	0xbf3d9d14	-0.7406781
46	0xbf097023	-0.5368673
47	0xbe6256dd	-0.22103448
48	0xbe7d0e4e	-0.24712488
49	0xbec07366	-0.37588042
50	0xbe52b78a	-0.20577827
51	0xbf3dcee2	-0.74143803
52	0xbed5c0e5	-0.4174873
53	0xbf449700	-0.7679291
54	0xbf9e0bd2	-1.2347357
55	0xbf0afc3d	-0.54291135
56	0xbf8f40e7	-1.1191682
57	0xbf04e04c	-0.5190475
58	0xbec2d3ac	-0.38052118
59	0xbf1519b6	-0.58242357
60	0xbf37c695	-0.7178739
61	0xbf07e6db	-0.5308663
62	0xbf507b76	-0.81438386
63	0xbf32a1ec	-0.69778323
64	0xbf0556d4	-0.52085614
65	0xbf4b0b60	-0.7931423
66	0xbe791d48	-0.24327576
67	0xbf21f188	-0.6325917
68	0xbf5dd408	-0.8665166
69	0xbe9ee2a3	-0.31032285
70	0xbf091f8b	-0.53563756
71	0xbebbb737	-0.3666322
72	0xbee304e5	-0.44339672
73	0xbf2acf5f	-0.66722673
74	0xbe72c436	-0.23707661
75	0xbf82249e	-1.0167425
76	0xbe85f42f	-0.2616286
77	0xbf42fb38	-0.7616458
78	0xbee10a38	-0.4395311
79	0xbf55cf29	-0.83519226
80	0xbf5683dd	-0.8379496
81	0xbe9dcb0d	-0.30818978
82	0xbe5e0e39	-0.21685113
83	0xbf3cddfe	-0.73776233
84	0xbf39658e	-0.72420585
85	0xbf0fae4a	-0.5612532
86	0xbf0eb0f5	-0.55738765
87	0xbf423c75	-0.758735
88	0xbee45205	-0.44593826
89	0xbe4000fc	-0.18750376
90	0xbe5810ad	-0.21100111
91	0xbf654a43	-0.8956644
92	0xbf64eaef	-0.8942098
93	0xbf403b6a	-0.7509066
94	0xbf5754e9	-0.8411394
95	0xbf502d7d	-0.8131941
96	0xbf293d56	-0.66109216
97	0xbeda5f0e	-0.42650646
98	0xbe9f632d	-0.31130353
99	0xbdbbede9	-0.09176237
100	0xbea94f06	-0.33068103
101	0xbeec35ce	-0.461348
102	0xbe87dc8a	-0.26535445
103	0xbf39976e	-0.7249669
104	0xbf2f1b06	-0.6840061
105	0xbee38e60	-0.4444456
106	0xbe988d7e	-0.2979545
107	0xbf04e6c1	-0.519146
108	0xbe6f683b	-0.23379605
109	0xbf8074f3	-1.003569
110	0xbf826882	-1.0188143
111	0xbea1841b	-0.315461
112	0xbef17799	-0.47161558
113	0xbe9d2210	-0.3069005
114	0xbeeeb5e8	-0.46623158
115	0xbf3aca92	-0.7296535
116	0xbecfb5cc	-0.40568388
117	0xbed74912	-0.42047936
118	0xbea0c0eb	-0.31397185
119	0xbf59fd39	-0.8515201
120	0xbe6c1380	-0.23054314
121	0xbec0d3e8	-0.37661672
122	0xbf79f284	-0.97635674
123	0xbf000f8f	-0.5002374
124	0xbf48ab68	-0.78386545
125	0xbf45fca9	-0.77338654
126	0xbeb4361a	-0.35197526
127	0xbf717ea3	-0.9433386

batch_norm_2.running_mean f4 [128]
0	0xbf21b801	-0.6317139
1	0x3f87ebc7	1.0618829
2	0xbf382047	-0.7192425
3	0xbf6fa76e	-0.9361485
4	0xbdf75a9f	-0.120778315
5	0xbc150ea2	-0.009097727
6	0x3ebf5ff8	0.37377906
7	0xbf7a0ece	-0.9767884
8	0xbf1a0850	-0.60168934
9	0x3ede5123	0.43421277
10	0x3f679fd9	0.90478283
11	0x3e40c76a	0.1882607
12	0xbf5bd3f5	-0.85870296
13	0x3e40fb0b	0.18845765
14	0x3e98d410	0.2984929
15	0x3e9ffaa7	0.3124592
16	0x3f60207e	0.8754958
17	0x3e2e2e89	0.17009939
18	0xbf632264	-0.8872435
19	0xbf7cef34	-0.98802495
20	0xbf6641dc	-0.89944243
21	0xbf2facef	-0.6862325
22	0xbf404073	-0.7509834
23	0x3eda4bbe	0.42635912
24	0x3eb19390	0.34682894
25	0x3f74eec3	0.9567682
26	0xbe66585b	-0.22494642
27	0xbf5b8aed	-0.8575886
28	0x3ddd5293	0.108067654
29	0xbf0454ae	-0.5169171
30	0x3f5ec7bb	0.87023515
31	0xbe4407fc	-0.19143671
32	0xbf6f2965	-0.9342254
33	0xbf64614e	-0.89210975
34	0x3e73b5af	0.23799776
35	0x3f172b43	0.5905039
36	0x3f813b78	1.0096273
37	0xbf3245b3	-0.696376
38	0x3f3121a9	0.69191986
39	0x3f5d54fe	0.8645781
40	0xbf4dd6e2	-0.8040601
41	0x3e3d4f7c	0.18487352
42	0xbd6f1cb2	-0.058376975
43	0x3f0bb663	0.54575175
44	0xbf5783e4	-0.84185624
45	0x3e2ccd00	0.16875076
46	0xbf61cdb7	-0.8820452
47	0xbf22bba9	-0.63567597
48	0xbf505d17	-0.81392044
49	0xbf5c88c6	-0.861462
50	0xbf61287a	-0.8795239
51	0x3f0f1d03	0.55903643
52	0xbf148784	-0.5801928
53	0xbe27b808	-0.16378796
54	0xbe01887a	-0.12649718
55	0xbf7daf1a	-0.9909531
56	0xbec638f0	-0.38715315
57	0xbf193a51	-0.5985461
58	0xbf7415e1	-0.95345885
59	0x3f80d3d4	1.0064645
60	0xbf1ffc24	-0.6249411
61	0xbf45701d	-0.77124196
62	0x3f19dd7a	0.6010357
63	0xbf408d28	-0.7521539
64	0xbf634e6b	-0.8879153
65	0x3f1d9862	0.6156064
66	0xbf651194	-0.8947995
67	0xbf726c39	-0.94696385
68	0xbe629296	-0.2212623
69	0xbf2d4ea8	-0.67698145
70	0x3f6670a2	0.90015614
71	0xbf6ae611	-0.91757303
72	0xbf99abbe	-1.2005537
73	0xbc83ff97	-0.016113086
74	0xbf59ad09	-0.85029656
75	0xbdf29c1c	-0.11846182
76	0xbf6aff96	-0.91796243
77	0xbebaddbd	-0.36497298
78	0x3f4870e0	0.78297234
79	0x3f57d1f1	0.8430472
80	0x3eabce42	0.335558
81	0xbf4195aa	-0.75618994
82	0xbf8d5155	-1.1040446
83	0xbf1b6cac	-0.60712695
84	0x3fa3c5a1	1.2794687
85	0x3f32e432	0.6987945
86	0x3f1f3c85	0.6220172
87	0x3f33d36f	0.702445
88	0xbf171668	-0.59018564
89	0xbf5042eb	-0.8135211
90	0xbf3ed2f0	-0.74540615
91	0xbe57dd29	-0.2108046
92	0x3ed4702c	0.4149183
93	0x3f28ef9f	0.6599063
94	0xbee03034	-0.43786776
95	0xbdf8713f	-0.12130975
96	0x3eb9adf1	0.3626552
97	0x3f7ffea7	0.99997944
98	0xbf201d91	-0.62545115
99	0xbf8b0ceb	-1.0863317
100	0xbf4ac4cb	-0.7920653
101	0x3f65c341	0.8975106
102	0xbf3c0979	-0.73451954
103	0xbe9b277d	-0.30303565
104	0x3e83a2bb	0.2571009
105	0x3de360c9	0.11102445
106	0xbf3ad1a5	-0.7297614
107	0xbf350a3d	-0.7071875
108	0xbf848b26	-1.0354965
109	0x3f1b91d1	0.60769373
110	0x3d86606a	0.06561358
111	0xbf2c8835	-0.67395335
112	0x3f7cc8e9	0.98744065
113	0xbf831d2c	-1.0243278
114	0x3f84c005	1.03711
115	0xbf21f62d	-0.6326626
116	0xbf12e80b	-0.5738532
117	0x3f54077a	0.8282391
118	0xbf19f9ef	-0.60146993
119	0x3f231b05	0.63713104
120	0xbf734cac	-0.95038867
121	0x3f47ff19	0.78123623
122	0xbe965ee6	-0.29369277
123	0x3ed533e0	0.4164114
124	0xbf333c9d	-0.70014364
125	0xbf53c8ba	-0.8272816
126	0x3f6474ce	0.8924073
127	0xbe08772f	-0.13326715

batch_norm_2.running_var f4 [128]
0	0x459932b9	4902.3403
1	0x43b52bf4	362.34338
2	0x45cdc7ee	6584.991
3	0x45a263a3	5196.4546
4	0x4404a0cf	530.51263
5	0x43d4a687	425.301
6	0x43b8bac2	369.45905
7	0x459ca831	5013.024
8	0x44d7eb67	1727.3563
9	0x453475b2	2887.356
10	0x4598e444	4892.533
11	0x43ee8138	477.00952
12	0x45ae21af	5572.2104
13	0x443f591c	765.39233
14	0x43b090b3	353.13046
15	0x43ec6b23	472.837
16	0x45a86705	5388.8774
17	0x42ac9e84	86.3096
18	0x45a0d2e6	5146.3623
19	0x45a645f5	5320.7446
20	0x4598db0f	4891.3823
21	0x453c2d8a	3010.8462
22	0x45a2a3c1	5204.469
23	0x43bf9aab	383.20834
24	0x43a8870c	337.05505
25	0x456f6a79	3830.6545
26	0x43b0f1ad	353.8881
27	0x45aae001	5468.0005
28	0x43a84a5d	336.58096
29	0x44fc6266	2019.075
30	0x43d069b6	416.82587
31	0x43edc45f	475.53415
32	0x45ae8b9e	5585.452
33	0x45a414dd	5250.608
34	0x442da0f7	694.5151
35	0x4409748a	549.8209
36	0x458e9a20	4563.2656
37	0x459f213c	5092.1543
38	0x454f9f20	3321.9453
39	0x45afeb3b	5629.404
40	0x4591eb44	4669.408
41	0x4407f2bc	543.7927
42	0x43d03877	416.44113
43	0x43d3827d	423.01944
44	0x45c0a6ec	6164.865
45	0x43d37619	422.92264
46	0x45a91dc2	5411.7197
47	0x4581804a	4144.036
48	0x459d80f5	5040.1196
49	0x459f33a0	5094.453
50	0x45b46cd5	5773.604
51	0x440adb4e	555.42664
52	0x45910057	4640.0425
53	0x43875b3b	270.71274
54	0x43dc1f73	440.2457
55	0x458e574a	4554.911
56	0x43f16b18	482.83667
57	0x441bcc1c	623.1892
58	0x459d9feb	5043.9897
59	0x45aae09b	5468.0757
60	0x444462ce	785.5438
61	0x457770b4	3959.044
62	0x43f1ad94	483.35608
63	0x43a284da	325.0379
64	0x45b35b60	5739.422
65	0x45868cfc	4305.623
66	0x459561d6	4780.2295
67	0x43e095eb	449.17123
68	0x43addcc1	347.72464
69	0x4592a209	4692.2544
70	0x45a9bdd0	5431.7266
71	0x45c0a16a	6164.177
72	0x45cb51c1	6506.219
73	0x43b5d296	363.6452
74	0x459e6ffb	5069.9976
75	0x43b61323	364.1495
76	0x4579bb2e	3995.6987
77	0x43de5bad	444.71622
78	0x4593247e	4708.5615
79	0x45899fe5	4403.987
80	0x43efa12c	479.25916
81	0x459072d6	4622.3545
82	0x45a3c560	5240.672
83	0x44a2600c	1299.0015
84	0x43f82e45	496.36148
85	0x43f940ad	498.50528
86	0x44944a8d	1186.3297
87	0x43c58f84	395.12122
88	0x44b23027	1425.5048
89	0x45a013c9	5122.473
90	0x4599fc5f	4927.5464
91	0x4401e7d2	519.6222
92	0x439dc50e	315.5395
93	0x4390466f	288.55026
94	0x43e2b581	453.418
95	0x43b15e84	354.7384
96	0x43703a27	240.22716
97	0x45ce240d	6596.5063
98	0x45a271e5	5198.237
99	0x45ab95dc	5490.7324
100	0x45b4a10f	5780.1323
101	0x45a51c2a	5283.5205
102	0x45b26a43	5709.2827
103	0x43c96305	402.7736
104	0x452c39cd	2755.6125
105	0x43a85b32	336.71246
106	0x4594b9d6	4759.2295
107	0x45cb076c	6496.9277
108	0x459d9209	5042.2544
109	0x44021d57	520.45844
110	0x439ad9f0	309.70264
111	0x45ac0299	5504.3247
112	0x456dd30d	3805.1907
113	0x45977353	4846.4155
114	0x45af3724	5606.8926
115	0x43cd3917	410.446
116	0x4502f5eb	2095.3699
117	0x45aa3a72	5447.3057
118	0x457edb1c	4077.6943
119	0x451cc999	2508.5999
120	0x45a4ce7c	5273.8105
121	0x4590afc5	4629.971
122	0x43bcbbb3	377.4664
123	0x4392e8cc	293.81873
124	0x45724405	3876.2512
125	0x45a3bf3f	5239.906
126	0x45a106b4	5152.838
127	0x43f85c5d	496.7216

batch_norm_3.weight f4 [128]
0	0x3fffc41e	1.9981725
1	0x3f98430e	1.1895463
2	0x3e9a5a3c	0.30146968
3	0x3eef7783	0.46770868
4	0x40068ef5	2.1024754
5	0x3f387131	0.72047716
6	0x3fc6cd73	1.5531448
7	0x3de57e4c	0.1120573
8	0x3e7223ed	0.23646517
9	0x3ff2184b	1.8913664
10	0x3f202f6e	0.6257237
11	0x40232e3e	2.5496974
12	0x3e704b71	0.23466279
13	0x3feee713	1.8664268
14	0x3e70c1b2	0.23511389
15	0x3fc48a74	1.5354753
16	0x401a9fa6	2.4159942
17	0x40273023	2.612313
18	0x4008f6d9	2.1400664
19	0x3ecf51e7	0.40492174
20	0x3e01e7da	0.126861
21	0x402ca660	2.6976547
22	0x3ea036a0	0.31291676
23	0x3e863060	0.26208782
24	0x3ea9ae7b	0.3314093
25	0x40099b2f	2.1500967
26	0x3e8e1845	0.2775289
27	0x3eda54b3	0.42642745
28	0x3ff37f9c	1.9023318
29	0x402a9724	2.665475
30	0x3fed8b2d	1.8558098
31	0x3deefdd2	0.11669506
32	0x4006249e	2.095985
33	0x40003794	2.0033922
34	0x3f4696ac	0.7757366
35	0x40008773	2.0082672
36	0x40127b22	2.2887654
37	0x3e0fd90d	0.14047642
38	0x3fe9ed45	1.8275534
39	0x4011b54c	2.2766905
40	0x3fcc8104	1.5976872
41	0x400c3d9d	2.1912606
42	0x400e8fed	2.2275345
43	0x4000e4ec	2.0139723
44	0x4029061a	2.6409974
45	0x402264c1	2.5373995
46	0x3ffc6184	1.971726
47	0x3ffc6328	1.971776
48	0x3ff3e6b0	1.9054775
49	0x401adf50	2.41988
50	0x3eb22164	0.347911
51	0x400f087e	2.2348933
52	0x3ffb7b1d	1.9646946
53	0x3f046a34	0.51724553
54	0x3ec74fb3	0.38927993
55	0x3ff25571	1.8932325
56	0x3e6f2aa0	0.23356104
57	0x3ff66095	1.9248224
58	0x40084c23	2.129647
59	0x3ee8f403	0.45498666
60	0x3fc7bf97	1.5605344
61	0x4000e8f1	2.0142176
62	0x40186afe	2.3815303
63	0x3e9f9cba	0.3117426
64	0x4007c6a4	2.121499
65	0x3f27672b	0.65391797
66	0x3eebb7fd	0.4603881
67	0x3f1fcc7d	0.624214
68	0x4004cda0	2.0750504
69	0x4010daea	2.2633615
70	0x3fd6a6b7	1.6769627
71	0xbcd8246c	-0.026384555
72	0x3ee56139	0.44800738
73	0x3fcf9616	1.6217678
74	0x3ea440aa	0.32080585
75	0x3fe6ec83	1.8040928
76	0x3feeeef9	1.8666679
77	0x3efd1fbb	0.4943827
78	0x3ff60680	1.9220734
79	0x3fef9d87	1.8719949
80	0x402e2fa7	2.7216585
81	0x3ff69fe3	1.9267544
82	0x3e9255a3	0.2858096
83	0x3fec37ff	1.8454589
84	0x400ed4d5	2.2317402
85	0x3d76cd62	0.060254462
86	0x3f79bd5d	0.9755457
87	0x3f0cea1a	0.5504471
88	0x400b9c31	2.1814082
89	0xbe87d269	-0.26527718
90	0x3fdeb3ef	1.7398661
91	0x402a7d74	2.663907
92	0x3ea6355f	0.32462594
93	0x3dca05a8	0.0986436
94	0x3fc996ad	1.5749108
95	0x3ffe60c8	1.9873285
96	0x3e08d226	0.13361415
97	0x3e8b6f7a	0.27233487
98	0x4003bd12	2.058415
99	0x3fdcaf97	1.7241086
100	0x401655b0	2.34898
101	0x4006d005	2.1064465
102	0x3e729719	0.23690452
103	0x3ff6c00e	1.927736
104	0x3fda5e88	1.7060099
105	0x4007f327	2.1242158
106	0x3fe1d593	1.7643303
107	0x3f8f3c42	1.1190264
108	0x3f13eafb	0.57780427
109	0x3fdf9520	1.7467384
110	0x401399a2	2.306252
111	0x3f00607f	0.5014724
112	0x3fd3c4f3	1.6544479
113	0x3fe4af92	1.786608
114	0x401b1255	2.422994
115	0x3e9abe98	0.30223536
116	0x3e3b516e	0.18292782
117	0x3ff6cf52	1.9282019
118	0x3df710e6	0.1206377
119	0x3f03b86f	0.514533
120	0x3f12fa0b	0.57412785
121	0x40117de4	2.2733088
122	0x3ff21b70	1.8914623
123	0x3fe081e4	1.753964
124	0x3ea02d8f	0.31284758
125	0x3eedc64e	0.46440357
126	0x3ff7cdad	1.9359642
127	0x3fe6e71e	1.8039281

batch_norm_3.bias f4 [128]
0	0x3ea0e651	0.31425717
1	0xbfe8ccae	-1.8187463
2	0xbf48c609	-0.7842718
3	0xbf75e75a	-0.9605614
4	0x3e536371	0.20643403
5	0xbf89d634	-1.0768495
6	0xbf49b23a	-0.7878758
7	0xbf735868	-0.9505677
8	0xbf266341	-0.649952
9	0x3eb16b12	0.34652
10	0xbf04bebb	-0.5185353
11	0xbe5f3174	-0.21796209
12	0xbf490558	-0.7852378
13	0x3eb6b6b9	0.3568628
14	0xbf5d60c0	-0.86475754
15	0xbc933738	-0.017970666
16	0x3ec8ab35	0.3919312
17	0xbf0e377c	-0.5555341
18	0x3e69f963	0.2284904
19	0xbf366096	-0.7124113
20	0xbf1b4412	-0.6065074
21	0x3efd3f2f	0.49462268
22	0xbf444f2c	-0.76683307
23	0xbf3d54c7	-0.73957485
24	0xbf450141	-0.7695504
25	0x3e3e0608	0.18556988
26	0xbf5e8d23	-0.8693411
27	0xbf265de1	-0.64987
28	0x3e8c5c4f	0.27414176
29	0xbf248554	-0.6426594
30	0x3e6b60b4	0.22986108
31	0xbf7fdb25	-0.99943763
32	0x3e2aa75c	0.16665405
33	0x3e4f26be	0.20229623
34	0xbf38e969	-0.72231156
35	0x3db9ced5	0.09072653
36	0x3e4e0103	0.20117573
37	0xbf642c80	-0.891304
38	0x3e1873ad	0.14887877
39	0x3e55ad0e	0.20866796
40	0x3d890e66	0.066921994
41	0xbf05bdce	-0.52242744
42	0xbe658f60	-0.22417974
43	0x3db4db05	0.08830837
44	0xbe3c06b0	-0.18361926
45	0xbd4fc31c	-0.05072318
46	0xbbb7dccc	-0.005611038
47	0x3ee8543e	0.45376772
48	0x3df05789	0.11735446
49	0x3da0e359	0.07855863
50	0xbf42139b	-0.75811166
51	0x3e79fecb	0.24413602
52	0x3db9cea8	0.0907262
53	0xbf33be3b	-0.70212144
54	0xbf3755e7	-0.7161545
55	0x3e629353	0.22126512
56	0xbf521982	-0.8207017
57	0x3d9ccfff	0.076568596
58	0x3d9f70e9	0.07785208
59	0xbf898b0c	-1.0745559
60	0x3e72fc98	0.2372917
61	0xbe89912b	-0.26868567
62	0x3e621356	0.22077689
63	0xbf5474f4	-0.82990956
64	0x3ea97406	0.3309633
65	0xbf7b0341	-0.9805184
66	0xbf26061f	-0.6485309
67	0xbfa6339d	-1.2984501
68	0x3ea78ef0	0.3272624
69	0xbd434372	-0.047671743
70	0x3e121c24	0.14268547
71	0xbf8c3e39	-1.0956489
72	0xbf4df11b	-0.8044602
73	0x3e3e7031	0.18597485
74	0xbf526b8f	-0.8219537
75	0x3e97c4c3	0.29642305
76	0xbdb60461	-0.08887554
77	0xbf2bf63c	-0.671726
78	0xbeb05631	-0.3444076
79	0x3e5064d1	0.20350958
80	0xbf1a1bd8	-0.60198736
81	0x3eb117c4	0.34588444
82	0xbf033aa3	-0.5126135
83	0x3cc62bf4	0.02419088
84	0x3e39c6d7	0.18142258
85	0xbf4dde49	-0.80417305
86	0xbe51d46c	-0.20491189
87	0xbf4a3822	-0.789919
88	0x3b15e37d	0.002287119
89	0xbf7b528b	-0.98172826
90	0x3e80eb5f	0.25179574
91	0xbf2925ad	-0.66073114
92	0xbf441c2c	-0.76605487
93	0xbf3ee219	-0.7456375
94	0x3d1c5e30	0.03817576
95	0xbdc6a0f9	-0.09698672
96	0xbf7b101e	-0.9807147
97	0xbf1c9231	-0.6116057
98	0x3e298a8d	0.16556759
99	0x3e2f82eb	0.17139785
100	0x3eb78b9f	0.3584871
101	0x3e5f3d2b	0.21800677
102	0xbf69e56b	-0.9136569
103	0x3e453057	0.19256721
104	0x3e8840cc	0.26611936
105	0xbebbd260	-0.3668394
106	0x3e998d71	0.29990724
107	0x3d57ac0a	0.052654304
108	0xbf246823	-0.642214
109	0x3e77b068	0.24188387
110	0xbf175ebf	-0.59128946
111	0xbf4b1c14	-0.7933972
112	0x3ea2dc81	0.31808856
113	0x3e766d6d	0.2406518
114	0xbdd98970	-0.10621917
115	0xbf50ea71	-0.8160773
116	0xbf5bd816	-0.85876596
117	0x3e4bd263	0.19904475
118	0xbf6ef898	-0.93348074
119	0xbf46c715	-0.77647525
120	0xbf096f79	-0.5368572
121	0x3aa3dea8	0.001250227
122	0x3de7d29a	0.11319466
123	0x3e9fb2d5	0.31191126
124	0xbf591555	-0.84798175
125	0xbf1e91ce	-0.6194123
126	0x3eab95ce	0.3351273
127	0x3e967f37	0.29393932

batch_norm_3.running_mean f4 [128]
0	0x40a2aa70	5.0833054
1	0x41401aac	12.006512
2	0xbf4abbbe	-0.7919272
3	0x410900d4	8.562702
4	0x4058156e	3.376308
5	0x4165bea3	14.359042
6	0x41b100f1	22.12546
7	0x3ffa63ac	1.9561667
8	0x3fe5b8fd	1.7947079
9	0x40d8dcc1	6.7769475
10	0x4098ed84	4.7789936
11	0xc07c0c24	-3.938241
12	0xc02608e5	-2.5942929
13	0x40d3f730	6.6239243
14	0x3e9792e3	0.29604253
15	0xbf9a684b	-1.2063078
16	0x40a44174	5.13299
17	0xc11d0638	-9.814018
18	0x406ecef2	3.731381
19	0x3fd00bb1	1.6253568
20	0x40071c4a	2.1111016
21	0x40c23e0b	6.0700736
22	0x40a843b6	5.2582655
23	0xbff0dc61	-1.8817254
24	0x402ace09	2.6688254
25	0x405763e3	3.3654716
26	0xbf60c814	-0.87805295
27	0x3f9fa23f	1.2471389
28	0x40785d2b	3.8806865
29	0xc11b132a	-9.692179
30	0x408a1571	4.3151174
31	0x3fcd9bbb	1.606315
32	0x402d37e3	2.706536
33	0x400062d9	2.0060332
34	0x3fa511d9	1.2896072
35	0x3fa348ff	1.2756652
36	0x40561548	3.345049
37	0xc0f0d25e	-7.5256796
38	0x3e7458dc	0.23862022
39	0x403e4c36	2.9734015
40	0x4138912e	11.535444
41	0xc1091a1e	-8.568876
42	0xc0999f6f	-4.800712
43	0x3f9f954a	1.2467434
44	0xc070333a	-3.7531266
45	0xbff566fd	-1.9172055
46	0xbfb563ca	-1.4171078
47	0x40df5b11	6.9798665
48	0x401a86d2	2.4144788
49	0xbe2ec8a8	-0.17068732
50	0x40dbe1ed	6.871329
51	0x3fbf2cb1	1.4935514
52	0x400290c4	2.0400858
53	0x40d9c98e	6.805854
54	0x3fa8ed96	1.3197505
55	0x40898193	4.297067
56	0xc14f265c	-12.946865
57	0x4009c6ee	2.1527667
58	0x3fb05c95	1.3778254
59	0x40a311b6	5.095912
60	0x40aa8cad	5.3296723
61	0xc0fc88a6	-7.8916807
62	0x4031b361	2.7765734
63	0x4062ce26	3.5438323
64	0x40a1b350	5.0531387
65	0x411949a2	9.580477
66	0x40d66104	6.6993427
67	0x4157eb69	13.494973
68	0x40ad6d7f	5.419616
69	0xbfe921bb	-1.8213419
70	0x4056542f	3.3488882
71	0x418bb449	17.46303
72	0x40562d10	3.3465004
73	0x4046f1db	3.1085117
74	0x3f42a944	0.7603953
75	0x40921bd9	4.5658994
76	0xc021d76f	-2.528774
77	0x409aa9b4	4.8332157
78	0xc0cc8cd0	-6.392189
79	0x4075c525	3.8401577
80	0xc119a614	-9.603046
81	0x40bbcb40	5.868561
82	0xbfa7d13e	-1.3110731
83	0x3e402152	0.1876271
84	0x4046ded7	3.107351
85	0x40c66ac9	6.2005353
86	0x4116a444	9.415104
87	0x40c0a58e	6.0202093
88	0x3e3e1d4d	0.18565865
89	0x4022fdab	2.5467327
90	0x409b84cf	4.859962
91	0xc130cdfa	-11.050287
92	0x408c2f48	4.3807716
93	0x3e1bfae5	0.15232427
94	0x3f956e2d	1.1674248
95	0xc03cee5c	-2.9520483
96	0xbdfce4d9	-0.12348337
97	0x3fd82ca9	1.6888629
98	0x4050a886	3.2602859
99	0x40516352	3.271687
100	0x40978ace	4.735694
101	0x406721a0	3.6114273
102	0x3fdbc65a	1.7169907
103	0x4025ead0	2.5924568
104	0x409d6f88	4.9198647
105	0xc0c72c17	-6.224132
106	0x40a5cd55	5.181315
107	0xbf1b242e	-0.6060208
108	0x40c4c199	6.1486325
109	0x40992872	4.786187
110	0xc13b6532	-11.712206
111	0x40f8ff55	7.7811685
112	0x40b602c9	5.68784
113	0x40992b37	4.7865252
114	0xc069db8f	-3.6540258
115	0x404f5ede	3.2401652
116	0x3d136b2c	0.03599088
117	0x404ff847	3.2495286
118	0x3e8be244	0.27321064
119	0x409897dd	4.768538
120	0x40a68452	5.2036524
121	0x3f035b88	0.5131154
122	0x400c2759	2.1899016
123	0x40b8601b	5.7617316
124	0x406c2810	3.6899452
125	0x40b41b42	5.6283274
126	0x40b702f4	5.7191105
127	0x4095becd	4.679541

batch_norm_3.running_var f4 [128]
0	0x4474f744	979.8635
1	0x43e23866	452.4406
2	0x43bd4be3	378.59286
3	0x4436d4cd	731.325
4	0x44840cd1	1056.4005
5	0x4384fc7d	265.97256
6	0x43a561bd	330.76358
7	0x4473b444	974.81665
8	0x445f57a4	893.3694
9	0x44888ab0	1092.334
10	0x446c0cd9	944.20074
11	0x44640b92	912.1808
12	0x44367cf7	729.9526
13	0x4486882c	1076.2554
14	0x442db5c6	694.8402
15	0x442020bc	640.5115
16	0x447c045e	1008.06824
17	0x44a876b3	1347.7094
18	0x447debf3	1015.6867
19	0x4320093b	160.03606
20	0x44659658	918.3491
21	0x44c398b3	1564.7719
22	0x43db540f	438.6567
23	0x4400e66d	515.6004
24	0x44634e0f	909.21967
25	0x448d2060	1129.0117
26	0x4423e4ce	655.5751
27	0x445d677f	885.6171
28	0x446cd4c9	947.32477
29	0x447b1ae2	1004.42004
30	0x448c470d	1122.2203
31	0x441f302f	636.75287
32	0x44965024	1202.5044
33	0x4465c25f	919.03705
34	0x438c9d54	281.22913
35	0x448d9f28	1132.9736
36	0x447a3e4b	1000.9733
37	0x440cca0f	563.15717
38	0x448322a8	1049.083
39	0x448c5634	1122.6938
40	0x440e22e2	568.54504
41	0x447002f8	960.0464
42	0x445a1f78	872.4917
43	0x448d02bd	1128.0856
44	0x447bffbb	1007.9958
45	0x4490bfff	1157.9999
46	0x4461f824	903.8772
47	0x4476c783	987.1174
48	0x4493046a	1176.138
49	0x447e2547	1016.58246
50	0x4416e489	603.57086
51	0x44a797b7	1340.7411
52	0x44825d5e	1042.9177
53	0x4457881f	862.1269
54	0x43e70326	462.0246
55	0x448341fc	1050.062
56	0x438d2f91	282.3716
57	0x448b8761	1116.2306
58	0x4452670d	841.61017
59	0x4474883a	978.12854
60	0x4490568c	1154.7046
61	0x449873bb	1219.6166
62	0x4488e5c5	1095.1803
63	0x4447d732	799.3624
64	0x44878218	1084.0654
65	0x4405ffee	535.9989
66	0x4446965b	794.3493
67	0x43a260f4	324.75745
68	0x4481ba24	1037.8169
69	0x4465037c	916.05444
70	0x448f7877	1147.7645
71	0x4362be21	226.74269
72	0x4466a7fa	922.62463
73	0x441b757d	621.83575
74	0x433e45f4	190.27325
75	0x448940f8	1098.0303
76	0x44594cf1	869.2022
77	0x44718cb6	966.1986
78	0x4443cc02	783.1876
79	0x4483d376	1054.6082
80	0x44926252	1171.0725
81	0x4481d7e0	1038.7461
82	0x444b7840	813.8789
83	0x44325d5e	713.45886
84	0x448dfef9	1135.9679
85	0x434a8a64	202.54059
86	0x43eaa999	469.32498
87	0x44633e15	908.97003
88	0x448fc808	1150.251
89	0x4484cd44	1062.4146
90	0x448d13f2	1128.6233
91	0x448e56bf	1138.7108
92	0x444f14e2	828.3263
93	0x43bd3fd1	378.49857
94	0x4497c117	1214.034
95	0x448a8c67	1108.3876
96	0x432339df	163.22606
97	0x43e474c0	456.9121
98	0x4494830f	1188.0956
99	0x442c4baf	689.18256
100	0x4477d9a1	991.40045
101	0x448d28af	1129.2714
102	0x44254df3	661.21796
103	0x44679276	926.28845
104	0x448c2196	1121.0496
105	0x4453ec41	847.69147
106	0x447bb73b	1006.863
107	0x43b3788d	358.9418
108	0x445b352b	876.83075
109	0x448b9d53	1116.9164
110	0x448fdc51	1150.8849
111	0x4407c9fe	543.1561
112	0x44776357	989.5522
113	0x448ce7a7	1127.2391
114	0x4485c7f9	1070.2491
115	0x444e706e	825.7567
116	0x4453577e	845.36707
117	0x448e6814	1139.2524
118	0x44527e95	841.97784
119	0x4468238c	928.5554
120	0x445c640f	881.5634
121	0x44610cc1	900.1993
122	0x44976f53	1211.4789
123	0x448c6fd8	1123.4951
124	0x4433e7ce	719.62195
125	0x438c12d7	280.1472
126	0x44831259	1048.5734
127	0x44631c5d	908.4432

batch_norm_4.weight f4 [128]
0	0x3f570e8e	0.84006584
1	0x3c4720bc	0.012153801
2	0xbc9d2fa4	-0.019187756
3	0x3f74a1be	0.955593
4	0x3f71bc83	0.9442827
5	0x3ecdaf88	0.40172982
6	0x3f68d8a3	0.9095556
7	0x3dab8102	0.08374216
8	0x3edad11a	0.42737657
9	0x3f7d679b	0.98986214
10	0x3f782f0f	0.96946806
11	0x3fb09c4e	1.37977
12	0x3b953ef3	0.0045546233
13	0x3f75fee3	0.9609205
14	0x3fa5fcc1	1.2967759
15	0xbcb3df49	-0.021957057
16	0x3f03d607	0.51498455
17	0xbf18cc8c	-0.59687114
18	0xbcff8e1a	-0.031195689
19	0xbd0efa96	-0.034906946
20	0x3ead06f7	0.33794376
21	0xbcbf94aa	-0.023386318
22	0x3c91f373	0.017816281
23	0x3f62751e	0.88459957
24	0x3f0ba09c	0.54541945
25	0x3f70e267	0.9409546
26	0x3fa539df	1.2908286
27	0x3f61562c	0.8802211
28	0x3eab5336	0.33461922
29	0x3f63225d	0.8872431
30	0x3f71560e	0.94271934
31	0x3f5bccd3	0.8585941
32	0x3f8227bd	1.0168377
33	0xbd0a490c	-0.03376107
34	0x3ece85f9	0.40336588
35	0x3f6bc797	0.92101425
36	0x3f7090a0	0.9397068
37	0xbc39dde9	-0.011344411
38	0x3ec2cf8e	0.38048977
39	0xbd5c2e02	-0.053754814
40	0x3f64a5c9	0.8931547
41	0x3f54fab6	0.83195055
42	0x3e8d5f38	0.2761171
43	0x3f81be5b	1.0136217
44	0x3f5defef	0.86694235
45	0x3d8d0c50	0.06887114
46	0xbd3b24be	-0.045689337
47	0x3ec8928e	0.39174312
48	0x3f5e6292	0.86869156
49	0x3e75fb9d	0.24021764
50	0x3d8b3ab9	0.0679831
51	0x3f17bfb1	0.5927687
52	0x3f59e36a	0.8511263
53	0x3faab50a	1.3336499
54	0x3e5a132d	0.21296377
55	0x3e032e77	0.12810694
56	0x3ed9f970	0.42573118
57	0x3e346f87	0.1762067
58	0x3ec20433	0.3789383
59	0x3f663759	0.89928204
60	0x3f795ffa	0.97412074
61	0x3e09604f	0.13415645
62	0x3f6bebaf	0.921565
63	0x3fb563b5	1.4171053
64	0x3dad6b90	0.084677815
65	0x3de7f909	0.113267966
66	0x3f87d655	1.0612284
67	0x3ec25c93	0.37961254
68	0x3c4f244c	0.012642931
69	0x3f6e2552	0.93025696
70	0x3f59e8e8	0.8512101
71	0x3f6f6f75	0.93529445
72	0x3f7795f0	0.9671316
73	0x3e130257	0.14356361
74	0xbda8e41b	-0.08246633
75	0x3dc64cbb	0.09682604
76	0x3e50be5b	0.20385115
77	0x3e03c8b1	0.12869526
78	0xbe0d75fe	-0.13814542
79	0x3f5379d9	0.826078
80	0x3c11e057	0.008903584
81	0x3fabfea8	1.343709
82	0x3f6b0b1d	0.9181383
83	0x3f5ac06d	0.8544987
84	0xbd32ceb5	-0.043654162
85	0x3f771695	0.9651883
86	0x3faab1c0	1.3335495
87	0x3f780917	0.9688887
88	0x3fa9b0c5	1.3257071
89	0x3dcda067	0.1004036
90	0xbd17772f	-0.036978897
91	0x3f65c548	0.8975415
92	0x3fb44c79	1.4085838
93	0xbbcdcf2b	-0.0062808
94	0x3fa7a3f8	1.3096914
95	0x3bc0a996	0.005879591
96	0x3f637ae2	0.8885938
97	0x3fa3a846	1.2785728
98	0x3f3d7975	0.74013454
99	0x3f55469c	0.83310866
100	0x3f6cb81d	0.92468435
101	0x3fc4e489	1.5382243
102	0x3d60cef5	0.05488487
103	0xbc2bbed0	-0.010482505
104	0x3e9c36ec	0.30510652
105	0x3f9c0300	1.2188416
106	0x3bff7580	0.0077959895
107	0x3ef78c6b	0.48349318
108	0xbd188e28	-0.037244946
109	0x3c17eaac	0.009272259
110	0x3bd1de18	0.0064046495
111	0xbbb95c49	-0.005656753
112	0x3ec2a30e	0.38015026
113	0x3d704b32	0.05866546
114	0x3e89e77e	0.26934427
115	0x3f65dba7	0.8978829
116	0x3c364e5f	0.011127084
117	0xbcb61d9f	-0.022230921
118	0x3fce2554	1.6105142
119	0xbdcc6ce1	-0.099817045
120	0x3f9a621d	1.2061192
121	0x3f7517a1	0.9573918
122	0x3fb93bd8	1.4471388
123	0xbc606617	-0.013696215
124	0x3fa8e569	1.319501
125	0x3f750e0f	0.95724577
126	0x3e8de089	0.2771037
127	0x3b642f97	0.0034818405

batch_norm_4.bias f4 [128]
0	0x3e4e9c2c	0.20176762
1	0xbf7849bf	-0.9698753
2	0xbf7a4692	-0.9776393
3	0x3d2113ba	0.039325453
4	0x3d9f9289	0.07791621
5	0xbf0b131f	-0.5432605
6	0x3dfbf0c5	0.123017825
7	0xbf6fa4d0	-0.9361086
8	0xbf04a4de	-0.5181407
9	0x3d0f5309	0.034991298
10	0x3d9f0ab3	0.077657126
11	0xbe87de2e	-0.26536697
12	0xbf7a8454	-0.97858167
13	0x3da53d8e	0.08068381
14	0xbe7743ce	-0.24146959
15	0xbf7f1b93	-0.9965145
16	0xbecffa35	-0.4062058
17	0xbf737e02	-0.9511415
18	0xbf834482	-1.0255282
19	0xbf858c2b	-1.0433401
20	0xbefdb29d	-0.49550334
21	0xbf823c2c	-1.0174613
22	0xbf81e811	-1.0148946
23	0x3e4f756b	0.20259635
24	0xbec9930c	-0.3937
25	0x3de7edad	0.1132463
26	0xbe89d956	-0.26923627
27	0x3dd7f8cd	0.10545502
28	0xbf1cef25	-0.61302406
29	0x3e49b775	0.1969889
30	0x3db679d2	0.08909954
31	0x3e5106fb	0.20412819
32	0x3d8bb6d9	0.06821985
33	0xbf81ee03	-1.015076
34	0xbf0d7040	-0.55249405
35	0x3e9e2b55	0.30892435
36	0x3dfebfbe	0.12438916
37	0xbf7eb49e	-0.9949435
38	0xbefbc31c	-0.49172294
39	0xbf81b44e	-1.013315
40	0x3e3bd763	0.18343882
41	0x3dbfb49e	0.09360622
42	0xbf1a97eb	-0.6038806
43	0x3d9199bc	0.07109401
44	0x3e81c532	0.2534576
45	0xbf6f63ed	-0.9351185
46	0xbf8113e7	-1.0084199
47	0xbf088319	-0.5332504
48	0x3e31e926	0.17374095
49	0xbf23dfdb	-0.6401345
50	0xbf711e79	-0.9418712
51	0xbe663d9d	-0.22484441
52	0x3e367de4	0.17821461
53	0xbe45153d	-0.19246383
54	0xbf13388b	-0.5750815
55	0xbf65815e	-0.89650524
56	0xbecd9abd	-0.40157118
57	0xbf250ab1	-0.6446944
58	0xbf01822c	-0.5058925
59	0x3e207284	0.15668684
60	0x3e2ff911	0.17184855
61	0xbf68d68d	-0.9095238
62	0x3e04b537	0.12959753
63	0xbe8b092d	-0.27155438
64	0xbf679c1b	-0.90472573
65	0xbf66b6d9	-0.90122753
66	0xbe82c472	-0.255405
67	0xbf17d6db	-0.5931222
68	0xbf7b9bf7	-0.9828486
69	0x3e2966d8	0.16543138
70	0x3d59d702	0.053183563
71	0x3e01e9aa	0.12686792
72	0x3dc51001	0.09622193
73	0xbf6a26ae	-0.9146527
74	0xbf8c90b3	-1.0981659
75	0xbf66eb8c	-0.90203166
76	0xbf4db36b	-0.80351895
77	0xbf62236f	-0.8833532
78	0xbf873a17	-1.0564603
79	0x3e453a97	0.19260632
80	0xbf81bcd1	-1.0135747
81	0xbe29eaa0	-0.16593409
82	0x3e3f9856	0.18710455
83	0x3ddb2c37	0.10701793
84	0xbf8675c7	-1.0504693
85	0x3da7b8f7	0.08189576
86	0xbe211288	-0.15729725
87	0x3dc85780	0.09782314
88	0xbe6683c5	-0.22511204
89	0xbf661d18	-0.89888144
90	0xbf7ea0e7	-0.9946427
91	0x3e53daf4	0.20688993
92	0xbe8ab894	-0.27093947
93	0xbf8050be	-1.002464
94	0xbe7dac8d	-0.24772854
95	0xbf7ac8fa	-0.97962916
96	0x3dcf697d	0.10127542
97	0xbe8cad4e	-0.2747597
98	0xbddab072	-0.106781855
99	0x3e0a3ac0	0.13498974
100	0x3d359107	0.044327762
101	0xbe8a5203	-0.27015695
102	0xbf75e02f	-0.960452
103	0xbf814b7d	-1.0101162
104	0xbf06c7c0	-0.52648544
105	0xbe52ff16	-0.2060512
106	0xbf7c919a	-0.9865967
107	0xbe4a49df	-0.19754742
108	0xbf81959b	-1.0123781
109	0xbf7f2e73	-0.9968025
110	0xbf7aaa48	-0.9791608
111	0xbf803bb5	-1.0018221
112	0xbeb26a48	-0.3484671
113	0xbf71ccb0	-0.94452953
114	0xbf17e9bb	-0.5934102
115	0x3e46f56c	0.19429559
116	0xbf80b9c5	-1.0056692
117	0xbf829112	-1.0200522
118	0xbe90ce19	-0.2828224
119	0xbf874150	-1.0566807
120	0xbe71e857	-0.23623787
121	0x3df6fbe7	0.12059765
122	0xbe0ada53	-0.13559847
123	0xbf808ab1	-1.0042325
124	0xbd540f65	-0.051772494
125	0x3e09712c	0.13422078
126	0xbf17e6f1	-0.59336764
127	0xbf7f24f1	-0.99665743

batch_norm_4.running_mean f4 [128]
0	0x411cc4e0	9.798065
1	0xc112fba5	-9.186437
2	0x41089429	8.536172
3	0x3e6050d2	0.2190583
4	0x4029e24e	2.6544375
5	0x40a9667c	5.2937603
6	0x40484b1a	3.1295838
7	0xc0b14052	-5.5391016
8	0x40ca399d	6.319533
9	0x3ebdfe27	0.37107965
10	0x3f394e16	0.72384775
11	0xc182d138	-16.352158
12	0xc141aa7a	-12.10412
13	0x40154fd5	2.3329976
14	0xc180b53d	-16.088495
15	0xc13162d3	-11.086627
16	0x41351268	11.316994
17	0xc02f0cf6	-2.735166
18	0xc0cfcafd	-6.493529
19	0xc17435ed	-15.263165
20	0x412726db	10.446986
21	0xc17275a7	-15.153724
22	0xbfdf5ba2	-1.7449839
23	0x40f92cd1	7.7867208
24	0x41410567	12.063819
25	0x405c9c47	3.4470384
26	0xc183290f	-16.395048
27	0x4068e79a	3.6391358
28	0x41494095	12.578267
29	0x40cbb07b	6.365293
30	0x402bafc9	2.682604
31	0x40f53cf1	7.663689
32	0x3f971374	1.1802812
33	0xc11e8aac	-9.908855
34	0x41a00d5f	20.006529
35	0x415889c1	13.533631
36	0x40b18ead	5.5486665
37	0xc1262c77	-10.385856
38	0x417af5e5	15.685033
39	0xc11fd3ee	-9.989241
40	0x40e1879e	7.047805
41	0x4043cf85	3.059541
42	0x416fccbd	14.987485
43	0x3f06b86a	0.52625144
44	0x413e94cb	11.911326
45	0xc02c7769	-2.6947882
46	0xc111a7ec	-9.103497
47	0x4140f1a6	12.058996
48	0x40e9f9a8	7.3117256
49	0x4129bfe3	10.609347
50	0xc1452a6e	-12.322859
51	0x41250340	10.313293
52	0x40ca7ca8	6.327717
53	0xc1696d82	-14.589235
54	0x402bef2a	2.6864724
55	0x415b9c3f	13.725646
56	0x40819b59	4.0502133
57	0x40f7f9b7	7.749233
58	0x41486896	12.525534
59	0x40d17669	6.5457044
60	0x40de58f1	6.948357
61	0xc0dab93d	-6.835112
62	0x408191cf	4.049049
63	0xc174e70f	-15.306411
64	0xc11e68eb	-9.900615
65	0xc17034b9	-15.012872
66	0xc1a9bdf2	-21.217747
67	0x40bc78cd	5.889746
68	0xc1749abe	-15.287779
69	0x40c5c270	6.179985
70	0x3f241d78	0.64107466
71	0x40ad760b	5.4206595
72	0x4018827f	2.3829648
73	0xc0ad9d54	-5.425455
74	0xc0ba4a14	-5.8215427
75	0xc10b9467	-8.723731
76	0xc1956f42	-18.679325
77	0xc18799af	-16.95004
78	0xc1060c8d	-8.378064
79	0x41181fc6	9.507757
80	0xc141426b	-12.078715
81	0xc126c605	-10.423345
82	0x41041f61	8.257661
83	0x406e9614	3.72791
84	0xc1683b28	-14.514442
85	0x3f8673a0	1.0504036
86	0xc1288213	-10.531756
87	0x4027ebe0	2.6237717
88	0xc15a6049	-13.648507
89	0xc1582ed7	-13.5114355
90	0xc06b0a77	-3.6725137
91	0x40fcf1ea	7.9045305
92	0xc17d857b	-15.845088
93	0xc1135927	-9.209266
94	0xc16adc13	-14.678729
95	0xc0d6d0fe	-6.7130117
96	0x400c571c	2.1928167
97	0xc190a960	-18.082703
98	0xc09c4d6b	-4.8844504
99	0x40d3fd47	6.6246676
100	0x3f44a006	0.76806676
101	0xc16b9104	-14.722904
102	0xc074790d	-3.8198884
103	0xc0bed19f	-5.9630885
104	0x410f6633	8.962451
105	0xc170418e	-15.016005
106	0xc17932ea	-15.57493
107	0x413c8f15	11.784932
108	0xc1a5ac96	-20.70927
109	0xc14e282d	-12.884809
110	0xc1324192	-11.141008
111	0xc04c9aed	-3.196956
112	0x41ac09a0	21.5047
113	0xc14205b4	-12.126392
114	0x41766f73	15.402209
115	0x41286b4a	10.526194
116	0xc1409f06	-12.038824
117	0xc1bb2d6d	-23.39718
118	0xc1540d25	-13.253209
119	0xc063f8d1	-3.5620615
120	0xc17e5b9b	-15.897365
121	0x4087708f	4.23249
122	0xc0ecf1dc	-7.404524
123	0xc0ba9686	-5.8308744
124	0xc0a284c8	-5.0787086
125	0x40ad24cb	5.4107413
126	0x412f4c32	10.956102
127	0xc19b7a5c	-19.434746

batch_norm_4.running_var f4 [128]
0	0x451704c6	2416.2983
1	0x43ff38f7	510.44504
2	0x44edb4f1	1901.6544
3	0x455cd0ce	3533.0503
4	0x454b73a8	3255.2285
5	0x448ddb26	1134.8484
6	0x45292b4f	2706.7068
7	0x43df80bf	447.00583
8	0x448485a5	1060.1764
9	0x454a29ce	3234.6128
10	0x45326d0f	2854.8162
11	0x45875feb	4331.9897
12	0x43992491	306.28568
13	0x4552e17c	3374.0928
14	0x45921bb6	4675.464
15	0x43b28dc6	357.1076
16	0x44bd4bbf	1514.3671
17	0x43b52453	362.28378
18	0x43f52442	490.28326
19	0x43d06314	416.77405
20	0x445e29b3	888.65155
21	0x43b0df25	353.74332
22	0x440c1b4a	560.4264
23	0x450d6fec	2262.995
24	0x44bef689	1527.7042
25	0x44f9a7bd	1997.2418
26	0x4582da8c	4187.3184
27	0x453ae330	2990.1992
28	0x448cd267	1126.5751
29	0x44fcb95d	2021.7926
30	0x4518ef09	2446.9397
31	0x45275f30	2677.9492
32	0x45596b8e	3478.7222
33	0x439c3e9b	312.4891
34	0x449e552c	1266.6616
35	0x45169fea	2409.9946
36	0x45686160	3718.086
37	0x4444da70	787.4131
38	0x44e21f8d	1808.986
39	0x43d05b4c	416.71326
40	0x45117fed	2327.9954
41	0x44c89307	1604.5946
42	0x44c055a6	1538.6765
43	0x4553fea6	3391.9155
44	0x450b2742	2226.4536
45	0x44177b88	605.9302
46	0x44607a65	897.9124
47	0x44abcb8b	1374.3607
48	0x452a4618	2724.3809
49	0x4486be52	1077.9475
50	0x43b866d9	368.8035
51	0x4481709e	1035.5193
52	0x452b1ef9	2737.9358
53	0x4592a115	4692.1353
54	0x4480b230	1029.5684
55	0x44ce7f4a	1651.9778
56	0x448208bb	1040.2728
57	0x441c0135	624.01886
58	0x44ce2d9b	1649.4252
59	0x450b436d	2228.214
60	0x4531d895	2845.5364
61	0x43c035a2	384.419
62	0x451621a7	2402.1033
63	0x457e43ea	4068.2446
64	0x439d9d74	315.2301
65	0x440ece99	571.2281
66	0x459f0404	5088.502
67	0x449496e0	1188.7148
68	0x43c3926f	391.144
69	0x451d52f4	2517.1846
70	0x450ba572	2234.3403
71	0x453c9806	3017.5015
72	0x456ed591	3821.348
73	0x4403220d	524.53204
74	0x43b31020	358.12598
75	0x43c27a0f	388.95358
76	0x4477e4a2	991.5724
77	0x443bd921	751.39264
78	0x4466589d	921.3846
79	0x4517c069	2428.0256
80	0x43b1a97f	355.3242
81	0x45800f2f	4097.898
82	0x4519fd53	2463.8328
83	0x44eb0cf1	1880.4044
84	0x44025bb3	521.4328
85	0x452a38f3	2723.5593
86	0x4585407e	4264.0615
87	0x45235b1f	2613.695
88	0x45586dc7	3462.861
89	0x43a89043	337.12704
90	0x4482ef9d	1047.4879
91	0x452d67be	2774.484
92	0x4590bdf8	4631.746
93	0x43bbf909	375.9456
94	0x45795de4	3989.8682
95	0x438da39b	283.27817
96	0x451a9869	2473.5256
97	0x459d1bfa	5027.497
98	0x4446234b	792.55145
99	0x45667f98	3687.9746
100	0x4511ec40	2334.7656
101	0x458592b6	4274.339
102	0x439b8d84	311.1056
103	0x438371c6	262.88885
104	0x4494836a	1188.1067
105	0x45892161	4388.1724
106	0x43a7a1c1	335.2637
107	0x44acd68f	1382.705
108	0x43e96685	466.80093
109	0x43b26a6e	356.83148
110	0x439cb6cd	313.42813
111	0x44149b80	594.4297
112	0x44cad368	1622.6064
113	0x442322e8	652.5454
114	0x44a345a2	1306.176
115	0x454aadb8	3242.8574
116	0x43e580a3	459.00497
117	0x44103be7	576.936
118	0x45600c43	3584.7664
119	0x440a1e69	552.47516
120	0x458f5a09	4587.2544
121	0x4526c8ca	2668.5493
122	0x451995ea	2457.3696
123	0x43fe6efe	508.86713
124	0x454e952d	3305.3235
125	0x457d99ad	4057.6047
126	0x44930193	1176.0492
127	0x43ea8d9d	469.10635
