snapshots/first_level/best_snapshot_0.pth (torch_old, 197013 bytes, 24 tensors)

batch_norm.weight f4 [100]
0	0x40228658	2.5394497
1	0x401e54da	2.473929
2	0x4051fca7	3.2810457
3	0x40120a6c	2.281886
4	0x401408e2	2.3130422
5	0x3faa9cc7	1.3329095
6	0x401b69f9	2.428343
7	0x40334ed6	2.8016868
8	0x3f8c42f9	1.0957938
9	0x3fcf2892	1.6184256
10	0x4055b323	3.3390586
11	0x4039edc4	2.905137
12	0x4044a89d	3.0727913
13	0x406e6cea	3.7253976
14	0x401dd95f	2.4663923
15	0x3fb5ecf7	1.4212941
16	0x3fceb4a9	1.6148883
17	0x3fecba10	1.8494282
18	0x3fb4986d	1.4109017
19	0x40004e19	2.0047667
20	0x4002419c	2.0352545
21	0x3f8c2e1f	1.0951575
22	0x3f8d5298	1.1040831
23	0x3faf2a90	1.3684864
24	0x3ffabc89	1.9588786
25	0x402acff7	2.6689432
26	0x40495e0c	3.1463652
27	0x4003f50a	2.061831
28	0x3fd2050b	1.6407789
29	0x3fb3eacf	1.4056033
30	0x3fdab4e9	1.7086459
31	0x3f13c98d	0.5772942
32	0x3f6aa281	0.9165421
33	0x3f4d879c	0.8028505
34	0x3f960ea3	1.1723217
35	0x3fa41466	1.2818725
36	0x3fbcb69f	1.4743232
37	0x3f67b844	0.9051554
38	0x3f030137	0.5117373
39	0x3f48e4d4	0.78474164
40	0x3fc64bf8	1.5491934
41	0x40030ad3	2.0475357
42	0x401a3a2a	2.4098
43	0x3f9dc4bf	1.2325667
44	0x3f5f9954	0.87343335
45	0x3f5d9dcb	0.865689
46	0x3f6fdf57	0.93700165
47	0x3fa45455	1.2838236
48	0x3fc48ca7	1.5355424
49	0x3f946f37	1.159644
50	0x3f96c82d	1.1779839
51	0x4000faa2	2.0152974
52	0x3ff652f5	1.9244066
53	0x3f90b9cc	1.1306701
54	0x3f72e128	0.9487481
55	0x3f8b880f	1.0900897
56	0x3f93033f	1.1485366
57	0x3f84a166	1.0361755
58	0x3fffdcb4	1.9989228
59	0x3e4581f0	0.19287848
60	0x3f47f9c1	0.7811547
61	0x3f13433a	0.57524455
62	0x401b3165	2.4248898
63	0x401411c9	2.3135855
64	0x405594f6	3.3372169
65	0x3fee90a2	1.8637888
66	0x3fafc4be	1.3731916
67	0x3f307dcf	0.6894197
68	0x3f4eb106	0.80738866
69	0x400422b3	2.0646179
70	0x4015bdc6	2.3397079
71	0x4004c057	2.0742395
72	0x3f3491d1	0.70535
73	0x3ece8302	0.40334326
74	0x3f653656	0.89536035
75	0x3f48c2b6	0.78422105
76	0x3fb2601e	1.3935583
77	0x3f51ce1b	0.81955117
78	0x3f865454	1.0494485
79	0x3f9729aa	1.180959
80	0x3f5d3cfd	0.86421186
81	0x3f5b90e2	0.8576795
82	0x3f8c851a	1.0978119
83	0x3fc24ce5	1.5179716
84	0x3f9d37ab	1.2282614
85	0x3ff23364	1.8921933
86	0x3fb8115f	1.4380301
87	0x3f7df7bb	0.9920613
88	0x3fa4804e	1.2851655
89	0x3f14fd49	0.5819898
90	0x3f70d3b7	0.9407305
91	0x3f5edeff	0.87059015
92	0x3f85a638	1.0441351
93	0x3f87092b	1.0549673
94	0x3fbe1d0d	1.4852616
95	0x3fcb66d8	1.589076
96	0x3f946c8a	1.1595623
97	0x40069e74	2.1034212
98	0x400b2be8	2.1745548
99	0x4010c058	2.2617397

batch_norm.bias f4 [100]
0	0x3b7aa2ae	0.0038243937
1	0xbd052b29	-0.032511864
2	0xbd114e8e	-0.035475306
3	0xbd28a695	-0.04117449
4	0xbcd4a93c	-0.025959603
5	0xbd5758bd	-0.05257486
6	0xbd7afd93	-0.061276983
7	0x3c7921cd	0.015205813
8	0xba40bcb5	-0.0007352338
9	0xbd4dc46e	-0.050236158
10	0xbdddeded	-0.10836396
11	0xbd00ee92	-0.03147752
12	0x3d285836	0.04109975
13	0x3d3c641a	0.0459939
14	0xbd84a64f	-0.06477033
15	0x3b6830a9	0.0035429394
16	0xbd71ee77	-0.05906531
17	0xbc8e73be	-0.017389175
18	0x3da4437d	0.08020685
19	0x3d35f627	0.044424202
20	0xbc4ac9e0	-0.012377232
21	0x3c4ae961	0.012384743
22	0x3b72ebaf	0.0037066748
23	0xbce9a0bb	-0.028519025
24	0xbd1557e6	-0.03646078
25	0xbd0fe5c0	-0.035131216
26	0x3c7a8bb8	0.015292101
27	0x3bc73252	0.0060789967
28	0xbce1a755	-0.02754561
29	0xbd78e866	-0.060768507
30	0x3d1bd8e1	0.03804863
31	0xbc511ebb	-0.012763674
32	0x3d550e37	0.05201551
33	0x3afc592c	0.001925265
34	0xbc8bb374	-0.017053343
35	0x3d5d5189	0.054032836
36	0x3c3e667b	0.011621113
37	0x3d21d81f	0.03951275
38	0x3d00dec6	0.031462453
39	0xbcbaaac4	-0.022786506
40	0x3d8240eb	0.06360038
41	0xbc9062fa	-0.01762532
42	0x3cdae279	0.026719319
43	0xbb86c8eb	-0.0041133068
44	0xbc247483	-0.010037544
45	0x3cef2080	0.029190302
46	0xbd576c89	-0.05259374
47	0xbc84cc2d	-0.01621064
48	0x3c9a1417	0.018808408
49	0xbca0e88e	-0.01964214
50	0x3bdb39f5	0.0066902586
51	0xbd11bbc7	-0.03557947
52	0x3c4aa513	0.012368458
53	0xbc945da9	-0.018111067
54	0xbce6f49e	-0.028192814
55	0xbdae6be4	-0.08516672
56	0x3d97bf3b	0.07409521
57	0x3c9fb7c0	0.019496799
58	0x3d68489b	0.056709867
59	0xbd1eecff	-0.038800236
60	0x3d0e78bf	0.03478312
61	0x3d328670	0.04358524
62	0xbd80a84e	-0.062821016
63	0xbca9e626	-0.020739626
64	0xba5756e6	-0.0008214548
65	0xbb717e1a	-0.0036848844
66	0x3c7df917	0.015501282
67	0x3d5920df	0.053009864
68	0xbcb83860	-0.02248782
69	0xbd1cd568	-0.038289458
70	0xbcff1e04	-0.031142242
71	0xbd7b64b1	-0.061375324
72	0x3cc462ee	0.023972955
73	0x3cc0cb8c	0.023534559
74	0x3d805c2c	0.062675804
75	0x3c327c61	0.010893912
76	0x3d0604d0	0.032719433
77	0x3d964d05	0.07338909
78	0xbba5fb1c	-0.005065335
79	0x3cd7c2cc	0.026338004
80	0xbd178f89	-0.03700212
81	0xbd97169c	-0.07377359
82	0x3d1869ac	0.03721015
83	0x3b5371e8	0.0032263938
84	0x3a579ca7	0.0008224942
85	0xbd4f5a64	-0.050623313
86	0x3cd69ce4	0.026197858
87	0xbc3bbb85	-0.011458282
88	0x3d2bc315	0.04193409
89	0x3c88c6f1	0.016696425
90	0x3c7cdbb4	0.015433241
91	0xbd3ca0f4	-0.046051934
92	0x3d10530d	0.035235453
93	0x3d4241e0	0.047426105
94	0x3c30b8e9	0.0107862735
95	0x3c3f4c72	0.011675941
96	0x3bd65c11	0.006541737
97	0xbca5e30a	-0.020249862
98	0xba736903	-0.00092853623
99	0xbd717d36	-0.0589573

batch_norm.running_mean f4 [100]
0	0x432ab740	170.71582
1	0x432aa214	170.63312
2	0x432ab09b	170.68987
3	0x432aa5c0	170.64746
4	0x432adf29	170.87172
5	0x432aa659	170.6498
6	0x432ad465	170.82967
7	0x432ad3a4	170.82672
8	0x432a9217	170.57066
9	0x432abc43	170.7354
10	0x432ac641	170.77443
11	0x432aa7e4	170.65582
12	0x432a7d9d	170.49068
13	0x432aa142	170.62991
14	0x432aa5d5	170.64778
15	0x432abc12	170.73465
16	0x432ab421	170.70363
17	0x432aa914	170.66046
18	0x432aad86	170.67783
19	0x432abd81	170.74025
20	0x432aa65b	170.64983
21	0x432aa3c8	170.63977
22	0x432ab1dc	170.69476
23	0x432ab983	170.72466
24	0x432ac0d4	170.75323
25	0x432ab999	170.72499
26	0x432abd1e	170.73874
27	0x432aaef1	170.68336
28	0x432aa229	170.63344
29	0x432aa98c	170.6623
30	0x432aca2b	170.78972
31	0x432ab794	170.7171
32	0x432a8a56	170.54037
33	0x432aa273	170.63457
34	0x432aa09b	170.62737
35	0x432ab08e	170.68967
36	0x432a99a8	170.60022
37	0x432a8f64	170.56012
38	0x432aa072	170.62674
39	0x432ab287	170.69737
40	0x432aa332	170.63748
41	0x432aa3e2	170.64017
42	0x432aa89d	170.65865
43	0x432ac671	170.77516
44	0x432abf64	170.74762
45	0x432ab158	170.69275
46	0x432ac3bb	170.76457
47	0x432ac5ff	170.77342
48	0x432aadee	170.67941
49	0x432aac5b	170.67326
50	0x432aa60e	170.64865
51	0x432ab5b7	170.70982
52	0x432ac361	170.7632
53	0x432abf83	170.7481
54	0x432aade7	170.6793
55	0x432aba8d	170.72871
56	0x432aa4ad	170.64326
57	0x432ab9ea	170.72623
58	0x432acb97	170.79527
59	0x432aa5ae	170.64719
60	0x432a8d83	170.55278
61	0x432a9c6f	170.61107
62	0x432aab42	170.66898
63	0x432abd6c	170.73993
64	0x432a9d4e	170.61447
65	0x432aacb2	170.67459
66	0x432ab15f	170.69286
67	0x432aa8db	170.65959
68	0x432ab53c	170.70795
69	0x432a9fcc	170.6242
70	0x432aa834	170.65704
71	0x432a9e63	170.6187
72	0x432a9e33	170.61797
73	0x432aade1	170.67921
74	0x432a7d93	170.49052
75	0x432aac21	170.67238
76	0x432a966a	170.58755
77	0x432a955a	170.5834
78	0x432abe5f	170.74364
79	0x432a895f	170.5366
80	0x432a98f8	170.59753
81	0x432aa673	170.65019
82	0x432aa817	170.6566
83	0x432a902a	170.56314
84	0x432a8e9f	170.55711
85	0x432aa8fa	170.66006
86	0x432a98b8	170.59656
87	0x432aa9a1	170.66261
88	0x432a8276	170.50961
89	0x432aa284	170.63483
90	0x432aadd5	170.67903
91	0x432ab6b5	170.7137
92	0x432aa1e3	170.63237
93	0x432aa0ae	170.62766
94	0x432a975c	170.59125
95	0x432a98c4	170.59674
96	0x432a9d17	170.61363
97	0x432aa0c7	170.62804
98	0x432a7e00	170.49219
99	0x432a77ab	170.46745

batch_norm.running_var f4 [100]
0	0x452202e4	2592.1807
1	0x4521c744	2588.454
2	0x4522bd0d	2603.8157
3	0x4522976b	2601.4636
4	0x452199ba	2585.608
5	0x45210647	2576.3923
6	0x4522fa48	2607.6426
7	0x452339f9	2611.6233
8	0x4521a1d5	2586.1145
9	0x452267dd	2598.4915
10	0x45221723	2593.446
11	0x45214760	2580.461
12	0x452280eb	2600.0574
13	0x45225f1e	2597.9448
14	0x4522682c	2598.5107
15	0x4521d8fd	2589.5618
16	0x45227c36	2599.7632
17	0x452297d8	2601.4902
18	0x45238491	2616.2854
19	0x452355ba	2613.358
20	0x4520fc82	2575.7817
21	0x4522f33f	2607.203
22	0x452297b2	2601.481
23	0x45222d7a	2594.8423
24	0x45224910	2596.5664
25	0x45220630	2592.3867
26	0x45231cd9	2609.803
27	0x4522eec5	2606.923
28	0x4521ec67	2590.7751
29	0x45223591	2595.348
30	0x4522b512	2603.317
31	0x45215a03	2581.6257
32	0x45223c10	2595.754
33	0x4522566f	2597.402
34	0x45232b38	2610.7012
35	0x4521f508	2591.3145
36	0x4521e57b	2590.3425
37	0x45230597	2608.3494
38	0x4522c20c	2604.128
39	0x45239eb4	2617.919
40	0x452240a3	2596.0398
41	0x4521b45b	2587.2722
42	0x4523426f	2612.152
43	0x4523c7b0	2620.4805
44	0x452371e0	2615.1172
45	0x45227f77	2599.9666
46	0x4521dd05	2589.8137
47	0x4522a8cf	2602.5505
48	0x4522e1eb	2606.1199
49	0x45226b56	2598.7085
50	0x4522d692	2605.4106
51	0x452263f5	2598.2473
52	0x4523c9ab	2620.6042
53	0x45247135	2631.0754
54	0x45227190	2599.0977
55	0x452251bd	2597.1086
56	0x4522db7d	2605.718
57	0x4524a8dd	2634.554
58	0x45233261	2611.1487
59	0x4523d571	2621.34
60	0x45234930	2612.5742
61	0x4523587c	2613.5303
62	0x4522b4c7	2603.2986
63	0x4523c5a8	2620.3535
64	0x4521b694	2587.4111
65	0x4522cad1	2604.676
66	0x45228cf5	2600.8098
67	0x45225222	2597.1333
68	0x4522bd63	2603.8367
69	0x452212bc	2593.171
70	0x45227d10	2599.8164
71	0x4522990d	2601.5657
72	0x45246d70	2630.8398
73	0x4523a35f	2618.2107
74	0x4522e10c	2606.0654
75	0x4522df05	2605.9387
76	0x4522e41b	2606.2566
77	0x45229b3a	2601.7017
78	0x4523e4c7	2622.2986
79	0x4522d738	2605.4512
80	0x45224a55	2596.6458
81	0x4522f96c	2607.5889
82	0x4522bbed	2603.7454
83	0x45236661	2614.3987
84	0x4523b312	2619.192
85	0x45242e33	2626.8875
86	0x45231f18	2609.9434
87	0x45233fb7	2611.9822
88	0x4522a68d	2602.4094
89	0x4522801a	2600.0063
90	0x45229e90	2601.9102
91	0x452430c6	2627.0483
92	0x452353a9	2613.2288
93	0x45226a37	2598.6384
94	0x452221c4	2594.1104
95	0x45229e43	2601.8914
96	0x4522c56f	2604.3396
97	0x45224fd7	2596.99
98	0x4522f546	2607.3296
99	0x4522c878	2604.5293

batch_norm_2.weight f4 [128]
0	0x3eaabb9b	0.33346257
1	0x3fdfb984	1.747849
2	0x3fe889bb	1.8167032
3	0x3eb5eaf6	0.35530823
4	0x3fdd03ff	1.7266845
5	0x3fe92356	1.8213909
6	0x3feb107f	1.8364409
7	0x3faaa20a	1.33307
8	0x3e0651cf	0.13117145
9	0x3fad55da	1.3541825
10	0x3fcdec9e	1.6087835
11	0x3ff3e0a7	1.9052933
12	0x3fe521f3	1.7900985
13	0x3ff5814e	1.9180086
14	0x3fd25f63	1.643536
15	0x3e971c67	0.29513857
16	0x3fdb2064	1.711926
17	0x3f88a44d	1.0675141
18	0x3eb2850a	0.34867126
19	0x3fc92190	1.5713367
20	0x3fb66344	1.4249043
21	0x3ffefec5	1.99215
22	0x3fe82585	1.813645
23	0x3fc9f27e	1.5777128
24	0x3fe3d78a	1.7800152
25	0x3feae46e	1.8350961
26	0x3e68ea7e	0.22745702
27	0x3def31ac	0.11679396
28	0x3fe87eed	1.8163735
29	0x3fcbe7b4	1.5930085
30	0x3fc81657	1.5631818
31	0x3fc88fe9	1.5668918
32	0x4001128b	2.0167568
33	0x3ffb504b	1.9633878
34	0x3fd47689	1.6598674
35	0x3fec27eb	1.8449682
36	0x3fc2f7e8	1.5231905
37	0x3fb42941	1.407509
38	0x3fe88134	1.816443
39	0x3e2e1a77	0.17002283
40	0x3fa37919	1.2771331
41	0x3fdac3fa	1.7091057
42	0x3fcc8462	1.59779
43	0x3fc793c6	1.5591972
44	0x3fc35c02	1.5262454
45	0x3dc4eb83	0.09615233
46	0x3fe75975	1.8074175
47	0x3ff701dd	1.9297444
48	0x3e6c7ae7	0.23093759
49	0x3fd87450	1.6910496
50	0x3fdf69a3	1.7454113
51	0x3fdd056a	1.7267277
52	0x3fbe9be0	1.4891319
53	0x3fdeadc7	1.7396783
54	0x3e62d6a1	0.22152187
55	0x3e91dd02	0.28488928
56	0x3fe5c0aa	1.7949421
57	0x3ff376cb	1.9020628
58	0x3fbe4b9b	1.4866823
59	0x3e8cff9c	0.27538764
60	0x3e363f64	0.17797619
61	0x3fd92f5c	1.6967578
62	0x4004bef2	2.0741544
63	0x3fdb1d82	1.711838
64	0x3fc5a62f	1.544134
65	0x3fffecae	1.9994104
66	0x3fd34880	1.65065
67	0x3fea75d8	1.8317213
68	0x3e9a5efa	0.30150586
69	0x3fd8edb5	1.6947542
70	0x400f7594	2.2415514
71	0x3fe02961	1.7512628
72	0x3fb402af	1.4063319
73	0x3fc609a3	1.5471691
74	0x3fd3d585	1.6549536
75	0x3f002807	0.50061077
76	0x3fbab888	1.4587564
77	0x3fe3665e	1.7765615
78	0x3fc00da3	1.5004162
79	0x3fb7cd2b	1.4359487
80	0x3fcb04bc	1.586082
81	0x3e157308	0.14594662
82	0x3fb947ff	1.4475096
83	0x3ed44e3c	0.41465938
84	0x3f2c356d	0.6726902
85	0x3ec1fa40	0.37886238
86	0x3ffdac02	1.9818118
87	0x3fcc712b	1.5972036
88	0x3fe80fab	1.8129781
89	0x3fe63165	1.7983824
90	0x3f7282be	0.94730747
91	0x3e58f19d	0.21185918
92	0x3e9862c2	0.29762846
93	0x3ff724ba	1.9308083
94	0x3fd5b40f	1.6695575
95	0x3fe92e24	1.8217206
96	0x3fcca778	1.5988607
97	0x3fe785fa	1.8087761
98	0x3ff14adb	1.8850969
99	0x3fc4a294	1.5362115
100	0x3fdd04b8	1.7267065
101	0x3fd679e4	1.6755948
102	0x3fcfe54d	1.6241852
103	0x3fcac105	1.5840155
104	0x3fd2f824	1.6481977
105	0x3ef81016	0.48449773
106	0x40031fed	2.0488236
107	0x3fd77a4b	1.6834196
108	0x3fc26af8	1.5188894
109	0x3fe72fe6	1.8061492
110	0x3fd2e280	1.6475372
111	0x3fcc809c	1.5976748
112	0x3fdca6d4	1.7238412
113	0x3fe49d75	1.7860552
114	0x3e973a85	0.29536834
115	0x3ffb3386	1.9625099
116	0x3fed38ab	1.8532919
117	0x3fe90d51	1.8207189
118	0x3ffd2c3e	1.9779127
119	0x3fc3b6af	1.5290126
120	0x3e60f114	0.21966964
121	0x3ea9a405	0.3313295
122	0x3fba4e49	1.4555141
123	0x3e436a4b	0.19083516
124	0x3fea80d1	1.8320562
125	0x3fe09bd7	1.7547559
126	0x3e4b772b	0.19869678
127	0x3f67a341	0.9048348

batch_norm_2.bias f4 [128]
0	0xbf614bfe	-0.8800658
1	0xbf49719a	-0.7868897
2	0xbf08e697	-0.5347685
3	0xbf180f01	-0.59397894
4	0xbf507669	-0.8143068
5	0xbf41e7bf	-0.7574424
6	0xbf4555a6	-0.77083814
7	0xbec0bfb4	-0.37646258
8	0xbf686c08	-0.9078984
9	0xbeb1c8df	-0.34723565
10	0xbf088616	-0.533296
11	0xbe9ccb27	-0.30623743
12	0xbed6289c	-0.41827857
13	0xbf5493aa	-0.8303782
14	0xbf39afe2	-0.72534
15	0xbf3a51c5	-0.7278102
16	0xbee3d6f9	-0.4449995
17	0xbdaf7f7d	-0.08569238
18	0xbf756412	-0.9585582
19	0xbf4b45d6	-0.79403436
20	0xbeb72518	-0.35770488
21	0xbf7b9bbb	-0.982845
22	0xbf4fb2d5	-0.8113225
23	0xbf1aa500	-0.6040802
24	0xbed1546e	-0.40884727
25	0xbf427223	-0.7595541
26	0xbf55af99	-0.83471066
27	0xbf4ef186	-0.80837286
28	0xbf01113f	-0.5041694
29	0xbf476c7b	-0.77899903
30	0xbe835e8c	-0.2565807
31	0xbf3548d9	-0.7081428
32	0xbf7758c4	-0.9661982
33	0xbf49df59	-0.78856426
34	0xbf46d3a4	-0.7766669
35	0xbf52f7cc	-0.8240936
36	0xbeb485b5	-0.3525826
37	0xbed6bf13	-0.41942653
38	0xbf568fa3	-0.8381292
39	0xbf2a2370	-0.66460323
40	0xbecd2076	-0.40063828
41	0xbf4286d4	-0.7598698
42	0xbe9831f1	-0.29725602
43	0xbe6d2b98	-0.23161161
44	0xbea4e28b	-0.3220409
45	0xbf6bac4e	-0.9205979
46	0xbeed22bf	-0.46315572
47	0xbf17f841	-0.5936318
48	0xbf7c7eba	-0.9863087
49	0xbf348451	-0.705144
50	0xbf63ec2b	-0.8903224
51	0xbee7ab13	-0.45247707
52	0xbebfa1b9	-0.37428072
53	0xbf3f5b39	-0.7474857
54	0xbf059dbc	-0.5219381
55	0xbf2a0a4f	-0.6642198
56	0xbf5bd1b0	-0.8586683
57	0xbf673edc	-0.9033029
58	0xbee45414	-0.44595397
59	0xbf3581f8	-0.7090144
60	0xbf7a7a0d	-0.97842485
61	0xbf07bffb	-0.53027314
62	0xbf0ffe31	-0.5624724
63	0xbecfb630	-0.40568686
64	0xbec35a13	-0.3815466
65	0xbf7ce61c	-0.9878862
66	0xbf2e0455	-0.6797536
67	0xbf5765cd	-0.8413971
68	0xbf849fd2	-1.0361273
69	0xbee57b95	-0.44820848
70	0xbf90f33d	-1.132423
71	0xbf377125	-0.7165702
72	0xbec26776	-0.3796956
73	0xbecaa74a	-0.39580756
74	0xbf3127b0	-0.69201183
75	0xbf3a6029	-0.7280298
76	0xbeca5419	-0.39517286
77	0xbee289cd	-0.4424576
78	0xbea4dda6	-0.32200354
79	0xbeedce60	-0.46446514
80	0xbf1a983b	-0.60388535
81	0xbf4dc336	-0.80375993
82	0xbeadfb3e	-0.33980745
83	0xbf530de6	-0.8244308
84	0xbf3ffe88	-0.7499776
85	0xbf3365f4	-0.70077443
86	0xbf6c276c	-0.92247653
87	0xbf1e0bdb	-0.6173684
88	0xbec3a327	-0.38210413
89	0xbf33348b	-0.7000205
90	0xbeff31d6	-0.4984271
91	0xbf5a869a	-0.85361636
92	0xbeee4289	-0.46535137
93	0xbf657b01	-0.89640814
94	0xbf38dfb3	-0.7221634
95	0xbef8e658	-0.48613238
96	0xbf38f447	-0.7224774
97	0xbf1b4dd6	-0.60665643
98	0xbf1b669b	-0.6070344
99	0xbec34940	-0.38141823
100	0xbf2796b7	-0.6546435
101	0xbee4231c	-0.44558036
102	0xbf07c105	-0.530289
103	0xbed7f5db	-0.4217976
104	0xbec6cb1c	-0.38826835
105	0xbf08bd4d	-0.5341385
106	0xbf00e3eb	-0.50347775
107	0xbee1289c	-0.43976295
108	0xbeb6feea	-0.3574136
109	0xbecf8e70	-0.4053836
110	0xbf34abcd	-0.7057465
111	0xbee198cf	-0.44061896
112	0xbef14762	-0.47124773
113	0xbf481ae8	-0.78166056
114	0xbf320be3	-0.6954939
115	0xbf740fba	-0.95336497
116	0xbf560a2b	-0.83609265
117	0xbef6f7ac	-0.48235834
118	0xbf5974ab	-0.84943646
119	0xbe9dde0e	-0.30833477
120	0xbf43c8f0	-0.7647848
121	0xbf4bdae0	-0.7963085
122	0xbe9b4ca3	-0.30331907
123	0xbf6634fe	-0.8992461
124	0xbf4c8243	-0.79886264
125	0xbec3bbeb	-0.38229308
126	0xbf573fca	-0.8408171
127	0xbdeadd38	-0.114679754

batch_norm_2.running_mean f4 [128]
0	0x3c1ce17c	0.009575244
1	0x3f50e6e4	0.8160231
2	0xbd516387	-0.051120307
3	0x3df07407	0.117408805
4	0x3f2a10ae	0.664317
5	0xbf667f39	-0.90037876
6	0x3efced3f	0.49399754
7	0xbe6a7c39	-0.2289895
8	0x3d3abeba	0.045592047
9	0xbe429cb0	-0.19005084
10	0x3f9ab3a4	1.2086072
11	0xbd2a299c	-0.041543588
12	0xbd618df3	-0.055067014
13	0x3f2a9ac6	0.66642416
14	0x3e8fde25	0.2809917
15	0xbe3e3a98	-0.18577039
16	0xbd9a309a	-0.07528801
17	0xbdf707c1	-0.12062026
18	0x3ef7a8f7	0.48371097
19	0xbe3e7fa4	-0.18603379
20	0xbd7e23ac	-0.062045738
21	0xbed1143d	-0.40835753
22	0xbf88e25f	-1.0694083
23	0x3f36a877	0.71350807
24	0xbe9d3621	-0.3070536
25	0xbfa50019	-1.2890655
26	0x3daf3530	0.085550666
27	0xbdc954e2	-0.09830643
28	0xbe9af0d0	-0.3026185
29	0xbfad8877	-1.3557271
30	0xbd836c27	-0.06417113
31	0x3e9aa346	0.30202693
32	0xbe3d1483	-0.18464856
33	0xbd92aea0	-0.07162213
34	0xbf6c4856	-0.92297876
35	0xbf80449d	-1.0020939
36	0x3e5d002a	0.21582094
37	0xbd485951	-0.048913304
38	0x3f453cc1	0.7704583
39	0xbea1d5ef	-0.3160853
40	0xbea75194	-0.32679427
41	0x3e168275	0.14698203
42	0xbeb60120	-0.35547733
43	0xbe2948bb	-0.1653165
44	0xbe712d6a	-0.2355248
45	0xbe055ce9	-0.13023724
46	0x3c87d2fc	0.016580097
47	0x3e724511	0.23659159
48	0x3e709641	0.23494817
49	0xbec9b7f6	-0.39398164
50	0xbe0d91a0	-0.13825083
51	0xbe43a9a6	-0.19107684
52	0x3e134792	0.1438277
53	0x3d018b48	0.03162697
54	0xbe5e4d11	-0.21709086
55	0xbd88e16d	-0.066836216
56	0x3f3e87e5	0.7442611
57	0xbf3cb02f	-0.73706335
58	0x3e22ad7b	0.1588649
59	0xbe494c5b	-0.19658034
60	0x3ddcc2f6	0.10779373
61	0x3f1a8179	0.6035381
62	0xbd9c5776	-0.07633869
63	0xbf14eb43	-0.5817148
64	0x3e8f7686	0.28020114
65	0xbfa50b29	-1.2894031
66	0xbe98df17	-0.29857704
67	0x3ec492fc	0.3839339
68	0x3e30df5f	0.1727271
69	0x3de08356	0.1096255
70	0x3f1be65d	0.6089838
71	0xbecaf3f0	-0.39639235
72	0x3eac27bc	0.33624065
73	0xbd7c1686	-0.061544918
74	0x3e601357	0.21882378
75	0xbe85e39e	-0.2615022
76	0xbd6be2db	-0.057589393
77	0xbf20f224	-0.6286948
78	0xbe272bcf	-0.16325305
79	0xbe39ef25	-0.18157633
80	0xbd9a0780	-0.07520962
81	0xbe97c65c	-0.29643524
82	0xbf0f0dd6	-0.55880487
83	0xbdfdceaa	-0.12392934
84	0x3e5767ee	0.2103574
85	0x3dcefd9f	0.10106968
86	0xbe5d25db	-0.21596472
87	0xbe919f30	-0.28441763
88	0xbe5d3b15	-0.2160457
89	0x3e4fb0c1	0.2028227
90	0x3dc7c26b	0.09753879
91	0xbe57ea5d	-0.21085496
92	0x3e45e956	0.19327292
93	0x3ea08395	0.3135039
94	0xbd833904	-0.06407359
95	0xbd3ddcde	-0.046353213
96	0xbf632662	-0.8873044
97	0xbe594960	-0.21219397
98	0x3ea7b042	0.32751662
99	0xbe039c89	-0.12852682
100	0x3ea334ad	0.31876126
101	0xbe317163	-0.1732841
102	0x3d535555	0.05159505
103	0x3e051152	0.12994888
104	0x3e3e0e8a	0.18560234
105	0xbdc1ace2	-0.09456803
106	0xbdfc13c4	-0.123084575
107	0xbd994c64	-0.074852735
108	0xbe891b94	-0.26778853
109	0xbe86f323	-0.26357374
110	0xbd9b3fa5	-0.075804986
111	0x3f0e28aa	0.555308
112	0x3e30d5dd	0.17269082
113	0xbf37c683	-0.7178728
114	0xbe145750	-0.14486432
115	0xbe63b013	-0.22235136
116	0xbeaad0fb	-0.33362564
117	0x3df6127b	0.120152436
118	0xbda03b42	-0.078238025
119	0x3e15a3f7	0.14613329
120	0xbefcec39	-0.49398974
121	0xbcac6c80	-0.02104783
122	0xbf5cb862	-0.86218846
123	0x3e34b815	0.17648347
124	0xbf01e583	-0.5074083
125	0xbe47abf7	-0.19499193
126	0xbe0a110a	-0.13483062
127	0xbe53b7a4	-0.20675522

batch_norm_2.running_var f4 [128]
0	0x458c2a58	4485.293
1	0x4438b8f4	738.8899
2	0x4596eed4	4829.8535
3	0x44a6c34b	1334.1029
4	0x43dfc9db	447.577
5	0x43ba19e6	372.20233
6	0x43bc17ca	376.18585
7	0x45af0fe8	5601.9883
8	0x452125aa	2578.354
9	0x45b42173	5764.181
10	0x44805b3d	1026.8512
11	0x45927600	4686.75
12	0x45c72071	6372.055
13	0x44012442	516.5665
14	0x43fe77e8	508.93677
15	0x45ad1db7	5539.7144
16	0x457b7d85	4023.845
17	0x4570e748	3854.455
18	0x450cf281	2255.1565
19	0x43a30603	326.04697
20	0x458ae3ab	4444.4585
21	0x4393fe97	295.98898
22	0x441bb481	622.8204
23	0x438d9159	283.13553
24	0x45cfe472	6652.5557
25	0x4430bf42	706.9884
26	0x44d07b5f	1667.8553
27	0x43c254c7	388.66232
28	0x45a57b97	5295.4487
29	0x4413c7d1	591.12213
30	0x45c4cfd1	6297.977
31	0x43ee72ca	476.8968
32	0x43b74781	366.55862
33	0x44100688	576.10205
34	0x43ec6b90	472.84033
35	0x43c1a8c4	387.31848
36	0x45b3d288	5754.3164
37	0x45b9e9ce	5949.2256
38	0x4439d965	743.3968
39	0x442b4f56	685.2396
40	0x45974442	4840.532
41	0x4393dd45	295.72867
42	0x45b310e4	5730.1113
43	0x45a8b551	5398.6646
44	0x459ef35c	5086.42
45	0x457ea08d	4074.0344
46	0x45c85e93	6411.822
47	0x45faa6d2	8020.8525
48	0x45845bfb	4235.4976
49	0x43d47992	424.94977
50	0x43d2dc42	421.72076
51	0x45937691	4718.821
52	0x45d2c573	6744.681
53	0x43edf801	475.93753
54	0x4535dcc3	2909.7976
55	0x45af0b29	5601.395
56	0x43d2124d	420.14297
57	0x43bbc258	375.5183
58	0x45b4a0a1	5780.0786
59	0x45acb949	5527.1606
60	0x45614bb9	3604.7327
61	0x4594a1d6	4756.2295
62	0x4604a41b	8489.026
63	0x459dccf6	5049.62
64	0x45cf4038	6632.0273
65	0x4426c356	667.0521
66	0x43dce317	441.77414
67	0x441bc0dd	623.0135
68	0x459324cf	4708.601
69	0x458c00a3	4480.0796
70	0x442e6e1f	697.72064
71	0x43c34de0	390.6084
72	0x4599d898	4923.074
73	0x45af437d	5608.436
74	0x43ab7a92	342.95758
75	0x45a8c69c	5400.826
76	0x45a88227	5392.269
77	0x45e9d747	7482.9097
78	0x459380a3	4720.0796
79	0x45f189fe	7729.249
80	0x441c37b7	624.87054
81	0x44270d2b	668.20575
82	0x459274af	4686.5854
83	0x458f97ca	4594.9736
84	0x459a99cb	4947.224
85	0x454f0dea	3312.8696
86	0x4429cdc6	679.2152
87	0x44b0f895	1415.7682
88	0x45a703d0	5344.4766
89	0x446027cf	896.622
90	0x450b69ef	2230.6208
91	0x45368bcd	2920.7375
92	0x45aa188f	5443.07
93	0x43e5eb6f	459.83932
94	0x43c438c0	392.44336
95	0x45ac99fb	5523.2476
96	0x43a5f3a1	331.90335
97	0x45b4fcd7	5791.605
98	0x458c36db	4486.857
99	0x45cc9986	6547.1904
100	0x43c4d953	393.69785
101	0x45f16b81	7725.438
102	0x45e55409	7338.5044
103	0x45a2bc10	5207.508
104	0x45b15090	5674.0703
105	0x44150d09	596.2037
106	0x45e95993	7467.197
107	0x45b70ed1	5857.852
108	0x457efaf6	4079.685
109	0x45a5607f	5292.062
110	0x43b69220	365.1416
111	0x45aa05e6	5440.7373
112	0x45af4fdf	5609.984
113	0x44015a3a	517.4098
114	0x4558e55b	3470.3347
115	0x44019388	518.3052
116	0x4423d73d	655.3631
117	0x45ab7b4d	5487.4126
118	0x4401a0cd	518.5125
119	0x459a66fa	4940.872
120	0x4550e8a8	3342.541
121	0x45603c4d	3587.7688
122	0x45c5ed9b	6333.7007
123	0x45941401	4738.5005
124	0x4406e895	539.6341
125	0x4580a034	4116.0254
126	0x44c1441f	1546.1288
127	0x45829f46	4179.909

batch_norm_3.weight f4 [128]
0	0x3e1e623b	0.1546716
1	0xbe4cd397	-0.2000259
2	0x401dade5	2.4637387
3	0x3ed5e456	0.4177577
4	0x3ff11895	1.8835627
5	0x3ff1970b	1.887422
6	0x3ff7ac61	1.9349481
7	0x400018cc	2.0015135
8	0x3fd623d0	1.6729679
9	0x3e2c39e3	0.16818957
10	0x3ff0d6dd	1.8815571
11	0x400d1c5b	2.2048557
12	0x4015783f	2.3354642
13	0x4014e968	2.326746
14	0x40257332	2.585156
15	0x3ffc0f8a	1.9692242
16	0x3e3774fd	0.17915721
17	0x40054751	2.0824778
18	0x40156b37	2.3346689
19	0x3fdc3b89	1.7205669
20	0xbdf47579	-0.11936469
21	0x402695ac	2.6028852
22	0x3fecda5b	1.8504137
23	0x3e9cfcb8	0.3066156
24	0xbe5a2683	-0.21303754
25	0x3eb2838c	0.34865987
26	0x4020cf36	2.5126472
27	0xbe394ac5	-0.18094929
28	0x3e612035	0.21984942
29	0x3e6d0bff	0.23149107
30	0x3ff16088	1.8857584
31	0x3ff8b37a	1.9429772
32	0xbd3362b2	-0.043795295
33	0x3fc9857d	1.5743862
34	0x400bf63e	2.1869044
35	0x4003b6e5	2.058038
36	0x3ff5f0bd	1.9214092
37	0x3f015f76	0.50536287
38	0x3f303ef9	0.6884609
39	0x3ff91867	1.9460572
40	0x3ff70ffc	1.9301753
41	0x3fc102a7	1.5078934
42	0x3ebaa891	0.3645673
43	0x3feb7eef	1.8398112
44	0x4022a6da	2.5414338
45	0x3f7c8568	0.9864106
46	0x401d3bc9	2.456774
47	0x401621e7	2.3458192
48	0x3ff533a7	1.9156388
49	0x3d822270	0.06354225
50	0x4013ff45	2.3124554
51	0x3e640003	0.2226563
52	0x3f61deed	0.8823078
53	0x3d99a191	0.075015195
54	0x40210f28	2.51655
55	0x3fce39bd	1.611137
56	0x401d2ceb	2.4558666
57	0x3eb9a1a5	0.36256137
58	0x3ff9f2c7	1.9527215
59	0x3da1a756	0.07893245
60	0x3e1fe191	0.1561339
61	0x3ffd544f	1.9791354
62	0x3ee177a0	0.4403658
63	0x3f8c6f1c	1.0971408
64	0x3da878c6	0.08226161
65	0x3e1c5ce5	0.15269811
66	0x400c186d	2.1889908
67	0x4027d70b	2.6225002
68	0x400a4208	2.1602802
69	0x3ec2a9bc	0.38020122
70	0x3f148022	0.58008015
71	0xbe66f4b4	-0.22554284
72	0x3e938ab2	0.28816754
73	0x40167463	2.3508537
74	0x40156575	2.3343174
75	0xbcf18065	-0.029480169
76	0x401d76bf	2.4603727
77	0x4003d92d	2.0601304
78	0x3e074f5f	0.13213871
79	0x3ff17b9b	1.8865846
80	0x3ff59d2c	1.918859
81	0x3fe7078b	1.8049177
82	0x3fef7c26	1.8709762
83	0x3d09fad8	0.03368649
84	0x400aab18	2.1666927
85	0x4002cffe	2.0439448
86	0x4002ceab	2.043864
87	0x400a9ab3	2.165692
88	0x3fe6ee2b	1.8041433
89	0x3e231ecd	0.15929718
90	0x3ee41beb	0.4455255
91	0x3ff48bc5	1.9105154
92	0x4026affa	2.6044908
93	0x40020525	2.031564
94	0x3d456b82	0.04819823
95	0x400fae7f	2.2450254
96	0x40113130	2.2686272
97	0xbdf527d7	-0.119704895
98	0x3ed0a1fd	0.40748587
99	0x3fdabf74	1.7089677
100	0x4007f299	2.124182
101	0xbe0945e4	-0.13405567
102	0x4013b6d1	2.3080332
103	0x3a9ec8c7	0.001211428
104	0x3e3f9290	0.18708253
105	0x40220918	2.531805
106	0xbddab131	-0.10678328
107	0x40120a41	2.2818758
108	0x3ffa8578	1.9571981
109	0x4005bc23	2.089608
110	0xbed3668d	-0.41289178
111	0x400dd834	2.216321
112	0x3fe731e7	1.8062104
113	0x3f4ca360	0.7993679
114	0x4010ef64	2.2646112
115	0x3fef7891	1.8708669
116	0x400762bb	2.115401
117	0x3f205e3a	0.6264378
118	0x400963a5	2.1467068
119	0x3fe771f4	1.8081651
120	0x4003768b	2.0541103
121	0x3eda8fe5	0.42687908
122	0x400351e2	2.0518727
123	0x3ff2f26b	1.898023
124	0x3fe86316	1.8155239
125	0x3fef554f	1.8697909
126	0x3e24eb21	0.1610532
127	0x3f152a0e	0.58267295

batch_norm_3.bias f4 [128]
0	0xbf85dad8	-1.0457411
1	0xbf64b924	-0.89345
2	0x3dd51aad	0.104054786
3	0xbf48cef9	-0.78440815
4	0x3da07707	0.07835203
5	0xbda18c02	-0.078880325
6	0x3c8c1cb3	0.017103529
7	0x3bd592bd	0.0065177367
8	0x3b12a76b	0.002237762
9	0xbf5ae737	-0.85509056
10	0x3d9bfc05	0.07616428
11	0x3d994685	0.07484154
12	0x3f29afcc	0.6628387
13	0x3f0f55d5	0.55990344
14	0x3dd5468a	0.10413845
15	0xbd3ae90c	-0.045632407
16	0xbf6d85c0	-0.9278221
17	0xbe7d7e20	-0.24755144
18	0x3e2b57c5	0.167327
19	0x3ed1ee3c	0.4100207
20	0xbf9aad08	-1.2084055
21	0xbe497d07	-0.196766
22	0x3db9d06f	0.09072959
23	0xbf58e53a	-0.8472477
24	0xbf5ccb00	-0.86247253
25	0xbf44554a	-0.7669264
26	0xbb0fbe0a	-0.002193334
27	0xbf96bc93	-1.1776298
28	0xbf5e1f84	-0.8676684
29	0xbf0e818e	-0.55666435
30	0xbc2813d9	-0.010258638
31	0xbce0f425	-0.027460167
32	0xbf9e4f3f	-1.2367934
33	0x3ddefe3e	0.108883366
34	0x3d8014fa	0.06254001
35	0xbeb44ced	-0.3521494
36	0x3e17d1a4	0.14826065
37	0xbf2a988e	-0.6663903
38	0xbf0e3739	-0.55553013
39	0x3d330aaa	0.043711342
40	0xbb82f0a8	-0.0039959736
41	0x3df21580	0.11820507
42	0xbf8b38fb	-1.0876764
43	0x3a3c2604	0.00071772956
44	0xbf143718	-0.57896566
45	0xbef9697d	-0.48713294
46	0xbd9deb03	-0.077108406
47	0x3f67518f	0.90358824
48	0xbd24c1c8	-0.040223867
49	0xbf86189e	-1.0476263
50	0xbd73bbb9	-0.0595052
51	0xbf670a75	-0.9025033
52	0xbf3af570	-0.7303076
53	0xbf5d861a	-0.8653275
54	0x3e356381	0.17713739
55	0xbda01cc7	-0.07817989
56	0xbeadafe5	-0.3392326
57	0xbf4b25d0	-0.7935457
58	0x3f0e652a	0.55623114
59	0xbf7438ab	-0.9539897
60	0xbf627b64	-0.8846953
61	0xbdd78739	-0.105238385
62	0xbf284a37	-0.6573824
63	0xbf89cf5e	-1.0766408
64	0xbf3876e0	-0.7205639
65	0xbf6e8245	-0.93167526
66	0xbe8d30e0	-0.2757635
67	0x3e3a8be0	0.1821742
68	0x3e181e87	0.14855395
69	0xbf4d571b	-0.8021104
70	0xbecb5bb8	-0.39718413
71	0xbf957b75	-1.1678301
72	0xbf6a1d42	-0.91450894
73	0xbe98aba3	-0.29818448
74	0x3d886c88	0.06661326
75	0xbf8f04d2	-1.1173346
76	0x3f2aa317	0.66655105
77	0x3d2e04d0	0.04248506
78	0xbf93156c	-1.1490912
79	0x3e16fbf0	0.14744544
80	0xbd636a2c	-0.055521175
81	0x3e5aa58c	0.21352214
82	0x3e203721	0.1564603
83	0xbf97123a	-1.1802437
84	0x3cc691b1	0.024239393
85	0xbe5bf686	-0.2148076
86	0xbc105d52	-0.008811312
87	0x3dab00bc	0.083497494
88	0x3d403cf7	0.04693314
89	0xbf57bd2a	-0.84273016
90	0xbf812f7c	-1.0092616
91	0x3d7d0e08	0.06178096
92	0xbde7f1d7	-0.11325424
93	0xbd77890f	-0.060433444
94	0xbfa145db	-1.2599443
95	0x3ddfec81	0.109337814
96	0x3c2ff24b	0.0107389195
97	0xbf8b1efd	-1.0868832
98	0xbf4ed081	-0.807869
99	0x3df076a3	0.11741378
100	0x3cbc1e8b	0.022963783
101	0xbf9bb49b	-1.2164491
102	0x3ef2519e	0.47327894
103	0xbf8c024f	-1.0938205
104	0xbf8d1f0f	-1.1025103
105	0x3dc9d525	0.09855107
106	0xbf89a7fa	-1.0754387
107	0x3f17f7f2	0.5936271
108	0x3dd083e4	0.10181406
109	0xbe0ac0d5	-0.13550122
110	0xbf760d5a	-0.9611412
111	0xbda92c1a	-0.08260365
112	0x3cd5439c	0.026033215
113	0xbf30d738	-0.690784
114	0xbee3bf0b	-0.44481692
115	0xbd8c535e	-0.068518385
116	0x3e124408	0.14283764
117	0xbf51435a	-0.81743395
118	0x3e4a95b7	0.19783674
119	0x3b6ad552	0.0035832715
120	0xbc128652	-0.008943157
121	0xbf3755c9	-0.7161527
122	0xbd9bc30e	-0.07605563
123	0xbbd8d5f3	-0.0066173016
124	0xbd00a5e4	-0.031408206
125	0x3ea735ae	0.32658142
126	0xbf8e1c40	-1.1102371
127	0xbee65135	-0.4498383

batch_norm_3.running_mean f4 [128]
0	0xbed7f3de	-0.42178243
1	0x4027bdc8	2.6209583
2	0x3e78e3df	0.24305676
3	0x40528c27	3.2898042
4	0x3fc7e123	1.5615581
5	0xbfbb56d3	-1.4635872
6	0x3dd9ca5e	0.106343016
7	0x3e81abe7	0.25326464
8	0xbeceeea5	-0.40416446
9	0xc11d80b6	-9.843924
10	0x3f775af4	0.9662316
11	0x3fad3e84	1.3534703
12	0x4116d232	9.426317
13	0x41102763	9.009616
14	0xbeb22a3e	-0.34797853
15	0x3c077a96	0.008268973
16	0x3f2f8a00	0.68569946
17	0xc0b02fb5	-5.5058236
18	0x3fac493f	1.3459853
19	0x40eb80a8	7.359455
20	0x411aea83	9.682254
21	0xc097022d	-4.7190156
22	0x3fdc5ad2	1.7215216
23	0x40f605c7	7.6882052
24	0x3e6eb1c1	0.23309995
25	0xc0fdede6	-7.9352903
26	0xbf459821	-0.77185255
27	0xbf9061d8	-1.127986
28	0x40b46054	5.636759
29	0xc0dbe2db	-6.8714423
30	0xbfd27141	-1.6440812
31	0xbe98cd81	-0.29844287
32	0x40252816	2.5805717
33	0x401062fa	2.256041
34	0x3f8954d0	1.0729008
35	0xc0d6d8bb	-6.7139564
36	0x402b58ea	2.677302
37	0xbfc3108c	-1.5239425
38	0x40cfc5a4	6.492876
39	0x3fdecd5e	1.7406423
40	0x3c970b41	0.018437983
41	0x4014fc36	2.3278937
42	0x40e3da2f	7.1203837
43	0xbfe15b9c	-1.7606082
44	0xc12897b8	-10.537041
45	0xc1580f5b	-13.503749
46	0xc0398111	-2.8985026
47	0x4152a661	13.16562
48	0xbf82cb17	-1.0218228
49	0x3fbf73ec	1.4957252
50	0xbf8e2a11	-1.1106588
51	0xbf22fcae	-0.6366681
52	0x4118246d	9.508893
53	0xc0a06407	-5.0122104
54	0x3f98257c	1.1886439
55	0xc0385c97	-2.8806512
56	0xc0bba0d5	-5.863383
57	0xbfe836dd	-1.8141743
58	0x4118a20f	9.539565
59	0x3f32efeb	0.69897336
60	0xc02837f9	-2.6284163
61	0xbf29f799	-0.6639343
62	0x40bf0c04	5.9702168
63	0x41245b26	10.272253
64	0xbf4e5037	-0.8059115
65	0xc03d8a5c	-2.9615698
66	0xc099b571	-4.8033986
67	0x40550980	3.3287048
68	0x40065cc2	2.0994115
69	0x40c7ea8e	6.247382
70	0xbfa6aaa2	-1.3020823
71	0xbe534483	-0.20631604
72	0x4137e3d9	11.493127
73	0xc0c2769a	-6.0769777
74	0xbfa971d7	-1.3237866
75	0x3fac073f	1.3439711
76	0x413a8a36	11.658743
77	0x3f6e40d2	0.9306766
78	0x3f8e226e	1.1104257
79	0x3ff02995	1.876269
80	0xbf0aae1b	-0.54171914
81	0x3f8108c8	1.0080805
82	0x405efba1	3.4841082
83	0x40c63e19	6.1950803
84	0x3f88a1c4	1.0674367
85	0xc065ccd8	-3.5906277
86	0xbf6f9f92	-0.9360286
87	0x3f6a42ea	0.9150835
88	0x3f78f9fa	0.97256434
89	0xbfb70346	-1.4297874
90	0x4122a239	10.164605
91	0x3ed30326	0.4121334
92	0xbfcb713b	-1.589393
93	0xbe9b025c	-0.30275238
94	0x4016978f	2.3530004
95	0x3f5ff420	0.8748188
96	0x3f119c8d	0.568795
97	0xc01f887d	-2.4927056
98	0xc025a897	-2.588415
99	0x402344eb	2.5510814
100	0x3dd8e1bc	0.105899304
101	0xbfc9ede7	-1.5775727
102	0x40c012b3	6.0022826
103	0x4070a227	3.759897
104	0x40ec8ab0	7.3919296
105	0x3e65cdc8	0.2244178
106	0x41148218	9.281761
107	0x40eecdea	7.462636
108	0x3fc78edc	1.5590472
109	0xc0715152	-3.7705884
110	0xc0f6eb53	-7.716226
111	0xbfc63e09	-1.5487682
112	0x3f063bce	0.52435005
113	0x410ec9fc	8.924313
114	0xc1187227	-9.527869
115	0xbf93c7a7	-1.1545304
116	0x400f142a	2.2356057
117	0xc03ae29c	-2.9200811
118	0x3fed7240	1.8550491
119	0x3e808f39	0.2510927
120	0xc00aca7e	-2.1686091
121	0x4089d3b9	4.307095
122	0xbf9d4aa3	-1.2288402
123	0xbebbae76	-0.3665654
124	0xbfc97a56	-1.5740459
125	0x40b85a68	5.761036
126	0x407cf7b2	3.9526181
127	0xc041ede6	-3.0301452

batch_norm_3.running_var f4 [128]
0	0x4342a246	194.63388
1	0x432839d4	168.22589
2	0x44bd4479	1514.1398
3	0x43dd856a	443.0423
4	0x44b747dc	1466.2456
5	0x449da83f	1261.2577
6	0x449a5b99	1234.8624
7	0x44bcf882	1511.7659
8	0x44bc7c07	1507.8759
9	0x435d844b	221.51677
10	0x4490e066	1159.0125
11	0x44a3777e	1307.7341
12	0x449bb45a	1245.636
13	0x44d5eb3f	1711.3514
14	0x44a38717	1308.2216
15	0x44a99cfb	1356.9056
16	0x43fda0d6	507.25653
17	0x4476af57	986.7397
18	0x44855939	1066.7882
19	0x44413785	772.8675
20	0x43508a07	208.53917
21	0x44d46768	1699.2314
22	0x44767a8c	985.9148
23	0x43376f5a	183.43497
24	0x4371ef6a	241.93521
25	0x441ca15d	626.5213
26	0x44b35dbb	1434.9291
27	0x44121083	584.258
28	0x43fbe502	503.78912
29	0x430c23c7	140.13976
30	0x4492343c	1169.6323
31	0x447ca848	1010.6294
32	0x4424ba24	658.90845
33	0x44a22a22	1297.3167
34	0x44bd7647	1515.6962
35	0x445dd151	887.27057
36	0x44a5c707	1326.2196
37	0x43d8478e	432.55902
38	0x441f7df2	637.9679
39	0x4499715e	1227.5427
40	0x44bfa1a0	1533.0508
41	0x442e0265	696.0374
42	0x43c78377	399.02707
43	0x443803ca	736.0592
44	0x449b9d55	1244.9166
45	0x43c45fb5	392.7477
46	0x44b57309	1451.5948
47	0x4480d068	1030.5127
48	0x447f65be	1021.5897
49	0x43f264aa	484.78644
50	0x449413e3	1184.6215
51	0x42bc6b8b	94.210045
52	0x436b603d	235.37593
53	0x430fac4e	143.67307
54	0x44cd1787	1640.7352
55	0x44560c67	856.1938
56	0x448a640a	1107.1262
57	0x43bd117e	378.13666
58	0x44be070e	1520.2205
59	0x42ff9391	127.788216
60	0x439115e6	290.17108
61	0x44b294be	1428.6482
62	0x43e4cbf2	457.59332
63	0x437366b3	243.40117
64	0x43dbce5b	439.61215
65	0x4346bc26	198.73495
66	0x4437be77	734.976
67	0x44bd97df	1516.746
68	0x44a88066	1348.0125
69	0x43e8039a	464.02814
70	0x4422584f	649.3798
71	0x443b16e3	748.3576
72	0x432a172d	170.09053
73	0x44909f91	1156.9865
74	0x44c5db85	1582.86
75	0x43f6649b	492.78598
76	0x44c5354d	1577.6656
77	0x44ae1f84	1392.9849
78	0x440399d2	526.40344
79	0x4431a869	710.6314
80	0x448aecc3	1111.3988
81	0x448d209b	1129.0189
82	0x449bf783	1247.7347
83	0x437489b0	244.53784
84	0x44813076	1033.5144
85	0x44a5ea3f	1327.3202
86	0x448fc890	1150.2676
87	0x44bcef60	1511.4805
88	0x44bae8a8	1495.2705
89	0x4377dcc8	247.86243
90	0x441e646f	633.5693
91	0x449ef75e	1271.7302
92	0x4496d0ba	1206.5227
93	0x44af3bcf	1401.869
94	0x442ac5b8	683.08936
95	0x446add96	939.4623
96	0x449551bc	1194.5542
97	0x43c37c7b	390.9725
98	0x434f21e0	207.13232
99	0x44a3182a	1304.7551
100	0x44cb1d8b	1624.9232
101	0x43a4e08a	329.7542
102	0x449f51b6	1274.5535
103	0x434b2bae	203.17062
104	0x4300ff23	128.99663
105	0x44b6a28e	1461.0798
106	0x439a1fbd	308.24796
107	0x4499e13f	1231.039
108	0x44b0aa56	1413.323
109	0x4485c791	1070.2365
110	0x43113029	145.18813
111	0x44b4b90e	1445.783
112	0x4487cb20	1086.3477
113	0x4346f83d	198.96968
114	0x44b427eb	1441.2474
115	0x44b12653	1417.1976
116	0x448823c2	1089.1174
117	0x43064cbc	134.29974
118	0x447ce000	1011.5
119	0x449bec8c	1247.3921
120	0x44984f4b	1218.4779
121	0x43f59256	491.14325
122	0x44b85d18	1474.9092
123	0x44a38f4d	1308.4781
124	0x44ca708b	1619.517
125	0x447bfef5	1007.9837
126	0x441af7f8	619.8745
127	0x43bc60d9	376.75662

batch_norm_4.weight f4 [128]
0	0x3f155003	0.58325213
1	0x3f85e37e	1.046005
2	0x3f872033	1.0556701
3	0x3d41bb43	0.047297727
4	0x3f9a81d7	1.2070874
5	0x3f911657	1.1334943
6	0x3dcf1648	0.10111672
7	0x3f13223a	0.574741
8	0xbd2c6f5a	-0.04209838
9	0x3c8ea4b3	0.01741252
10	0x3f4a54a6	0.79035413
11	0x3fa120b8	1.258811
12	0xbf841f30	-1.0322018
13	0x3fb0dc99	1.3817321
14	0x3f8ff8c5	1.1247793
15	0x3fa235d0	1.2672672
16	0x3fa42e96	1.2826717
17	0x3f84e645	1.0382773
18	0xbda84395	-0.08216015
19	0x3c8cf038	0.017204389
20	0xbd1dbf6b	-0.03851263
21	0x3faf6262	1.3701899
22	0x3f6d92c0	0.9280205
23	0x3f88d25e	1.0689199
24	0x3f7c13f0	0.9846792
25	0x3e35474b	0.17702977
26	0xbe3d7eab	-0.18505351
27	0x3f859eb7	1.0439061
28	0x3f809bd3	1.0047554
29	0x3f824c0f	1.0179461
30	0xbf39ed22	-0.7262746
31	0x3f82ce13	1.0219139
32	0x3d009f34	0.031401828
33	0x3fbab8a6	1.45876
34	0x3f88fb6a	1.0701725
35	0x3f85ce34	1.0453553
36	0x3f67f21e	0.90603817
37	0x3f0d4adc	0.5519235
38	0x3f82754d	1.0192047
39	0x3f8a4cfc	1.0804744
40	0xbe8288a2	-0.25494868
41	0x3f812d86	1.0092018
42	0x3f9f601e	1.2451208
43	0x3f800c1c	1.0003695
44	0x3f910422	1.1329386
45	0xbe160f45	-0.14654262
46	0xbd0dab53	-0.034587216
47	0x3ca2d733	0.019878006
48	0x3fd25752	1.6432898
49	0xbd075382	-0.033038624
50	0xbf3da933	-0.740863
51	0x3f7a496f	0.977683
52	0x3f0006c9	0.50010353
53	0xbdd42aee	-0.10359751
54	0x3fa53cdd	1.2909199
55	0x3e2b7295	0.16742928
56	0x3f9fc1b6	1.2480991
57	0x3fb20948	1.3909082
58	0x3f0a4925	0.5401786
59	0x3e2736e8	0.16329539
60	0x3f81f49d	1.0152775
61	0x3f883b47	1.064309
62	0x3f84c44a	1.0372403
63	0xbdff0561	-0.12452198
64	0x3f7f62e6	0.9976028
65	0xbdb9f58c	-0.090800375
66	0xbe0548fc	-0.13016123
67	0xbf66d00d	-0.9016121
68	0xbe099400	-0.13435364
69	0xbe3da042	-0.18518165
70	0xbe48d6ed	-0.19613238
71	0x3f811ab9	1.008628
72	0xbe7eca15	-0.24881776
73	0x3eac1705	0.33611313
74	0xbdfafa61	-0.12254787
75	0x3faf1260	1.3677483
76	0x3f8f6d59	1.1205245
77	0x3f2fcc26	0.6867088
78	0x3f8385d6	1.0275218
79	0x3f831ad1	1.0242559
80	0x3f80413f	1.0019912
81	0x3f8ea570	1.1144238
82	0x3e6475a7	0.22310506
83	0x3f8537d1	1.0407659
84	0x3f8ae6fe	1.0851743
85	0xbeaff023	-0.34362897
86	0xbe05d18e	-0.1306822
87	0xbdcc31f2	-0.09970464
88	0x3fa53cf8	1.2909231
89	0x3cb5dc48	0.022199765
90	0xbe151629	-0.14559235
91	0xbdb2799b	-0.08714601
92	0x3f82a6c8	1.0207148
93	0xbf2132ce	-0.62968147
94	0x3f8379df	1.0271567
95	0x3f889ea5	1.0673414
96	0x3fc82649	1.5636684
97	0x3cffae77	0.031211121
98	0x3f86074b	1.0470976
99	0x3f873008	1.0561533
100	0x3f139ac2	0.57658017
101	0xbdad3961	-0.0845821
102	0x3f75c52d	0.9600399
103	0xbd2fd39c	-0.042926416
104	0x3f81dfbb	1.0146402
105	0x3fa6a5e6	1.3019378
106	0x3f97deef	1.1864909
107	0xbdb47c70	-0.08812797
108	0x3e0cc2d9	0.13746203
109	0xbeddc921	-0.43317512
110	0x3f0087bd	0.5020712
111	0xbd50f59e	-0.05101549
112	0xba92a81c	-0.0011189017
113	0x3f83e741	1.0304948
114	0xbdd74fa8	-0.1051324
115	0xbecf98ba	-0.4054621
116	0xbe1e1d67	-0.15440904
117	0x3f218d18	0.63105917
118	0xbf64b5c8	-0.89339876
119	0x3f821eec	1.0165687
120	0x3d4bb03f	0.04972863
121	0x3ec1d9c7	0.37861463
122	0x3f916dd9	1.1361648
123	0x3fafa6b8	1.3722754
124	0x3f891196	1.0708492
125	0x3f3deb39	0.74187046
126	0xbed4bbb4	-0.41549456
127	0xbddec136	-0.10876696

batch_norm_4.bias f4 [128]
0	0xbe9eeffb	-0.31042466
1	0x3daa4bff	0.08315276
2	0x3e3e9870	0.18612838
3	0xbf6e1972	-0.93007576
4	0xbda06712	-0.07832159
5	0x3d530a0d	0.051523257
6	0xbf67bab4	-0.9051926
7	0xbec127e0	-0.37725735
8	0xbf852c22	-1.0404093
9	0xbf7fdecf	-0.99949354
10	0xbe1ee561	-0.15517189
11	0x3daec6a3	0.08533981
12	0xbf638848	-0.88879824
13	0xbdd33a8f	-0.103139035
14	0x3e057c94	0.13035804
15	0xbcfb8d25	-0.030706951
16	0x3dd4fa8e	0.10399352
17	0x3d262977	0.040566888
18	0xbf898838	-1.0744696
19	0xbf7768ce	-0.96644294
20	0xbf7df599	-0.9920288
21	0xbdb66283	-0.08905508
22	0x3da13529	0.078714676
23	0x3dd8e6f2	0.10590924
24	0x3dd9b011	0.10629285
25	0xbf4f8d05	-0.81074554
26	0xbf9029b3	-1.1262726
27	0x3d86a8b4	0.06575146
28	0x3d063e84	0.032774463
29	0x3e12c275	0.14331992
30	0xbf875242	-1.0571978
31	0x3d489743	0.04897238
32	0xbf63742a	-0.8884913
33	0xbd992cdf	-0.074792616
34	0x3d5506a7	0.052008297
35	0x3da86a3a	0.08223386
36	0x3da099f7	0.078418665
37	0xbeb713f4	-0.3575741
38	0xbce45db7	-0.027876718
39	0x3d94b78e	0.07261573
40	0xbf8cdcd4	-1.1004891
41	0x3e14f5d5	0.14546902
42	0xbe141426	-0.14460811
43	0x3e025780	0.12728691
44	0xbbdabea0	-0.0066755563
45	0xbf86360e	-1.0485246
46	0xbf791a15	-0.97305423
47	0xbf77687a	-0.96643794
48	0xbe585900	-0.21127701
49	0xbf640517	-0.89070266
50	0xbf7eb42a	-0.9949366
51	0x3d6a2db7	0.057172503
52	0xbf31a0ce	-0.69385993
53	0xbf895e6c	-1.073194
54	0xbd052a17	-0.032510843
55	0xbf4be148	-0.79640627
56	0x3dc331a1	0.0953095
57	0xbd02230a	-0.031771697
58	0xbec1f121	-0.3787928
59	0xbf4f5f62	-0.8100492
60	0x3d4b3901	0.04961491
61	0x3d2c9a67	0.042139437
62	0x3d88c020	0.0667727
63	0xbf82f242	-1.0230181
64	0x3d6ed8f2	0.058312364
65	0xbf887964	-1.0662045
66	0xbf8a5f29	-1.081029
67	0xbf6a0e43	-0.9142801
68	0xbf8bf4ef	-1.0934123
69	0xbf8e4fcc	-1.1118102
70	0xbf8fbb4e	-1.1229036
71	0xbc08267f	-0.008309959
72	0xbf8cf88d	-1.1013352
73	0xbf30ac23	-0.6901266
74	0xbf867daf	-1.0507106
75	0xbe4be41f	-0.1991124
76	0x3dff05de	0.12452291
77	0xbee420b9	-0.44556215
78	0x3d51e4ba	0.05124352
79	0x3def8d48	0.11696869
80	0x3dfd9321	0.12381578
81	0x3d239c92	0.03994424
82	0xbf450ac7	-0.7696957
83	0x3d943126	0.07235937
84	0x3d34ac0c	0.04410939
85	0xbf8e1fd5	-1.1103464
86	0xbf8ca6ad	-1.0988365
87	0xbf88397c	-1.0642543
88	0x3d88c1e7	0.06677609
89	0xbf75265a	-0.95761645
90	0xbf841c63	-1.0321163
91	0xbf7ebb48	-0.9950452
92	0x3e3f7a7e	0.18699071
93	0xbf8a7767	-1.0817689
94	0x3dad4794	0.08460918
95	0x3e0a3f7b	0.13500778
96	0xbd79f21d	-0.061021913
97	0xbf802524	-1.0011334
98	0x3dbb0753	0.09132256
99	0x3ccddf92	0.02513102
100	0xbee29b65	-0.44259182
101	0xbf88384c	-1.064218
102	0x3d81da4a	0.063404635
103	0xbf83895f	-1.0276297
104	0x3d0a07fd	0.033699024
105	0xbe44d159	-0.19220485
106	0x3e6df4aa	0.23237863
107	0xbf864210	-1.0488911
108	0xbf597efb	-0.8495938
109	0xbf94e81e	-1.1633337
110	0xbed7470e	-0.42046398
111	0xbf858668	-1.0431643
112	0xbf73e52b	-0.9527156
113	0x3dfdb54d	0.12388096
114	0xbf8a44a2	-1.0802195
115	0xbf8d9e35	-1.1063906
116	0xbf8cea38	-1.1008978
117	0xbf08a702	-0.53379834
118	0xbf47faaf	-0.7811689
119	0x3cef6a5d	0.029225523
120	0xbf739050	-0.9514208
121	0xbf296032	-0.6616241
122	0x3d3664c9	0.04452971
123	0xbc67bf48	-0.014144726
124	0x3d8d929f	0.069127314
125	0xbecf56d1	-0.40495923
126	0xbf8edcc6	-1.1161125
127	0xbf8a05e2	-1.0783045

batch_norm_4.running_mean f4 [128]
0	0xbefdf9bd	-0.49604598
1	0x400b755d	2.1790383
2	0x40997cef	4.7965007
3	0xbf333eee	-0.700179
4	0xc0f5a0dd	-7.6758866
5	0x3e6ffceb	0.23436324
6	0xbfcb44d0	-1.5880375
7	0xbff7f471	-1.9371473
8	0xc10f7afb	-8.967525
9	0xc18528f7	-16.645002
10	0x40c423cb	6.1293693
11	0x3fe936d1	1.8219854
12	0xc1017889	-8.091928
13	0xc0c6a912	-6.2081385
14	0x400a49eb	2.1607616
15	0xc02f16c4	-2.7357645
16	0x4061259a	3.51792
17	0xc015926c	-2.337062
18	0xc1140840	-9.252014
19	0xc069c448	-3.652605
20	0xc0501606	-3.2513442
21	0xc0bf966a	-5.987111
22	0x3e77c744	0.24197108
23	0x403eabfe	2.9792476
24	0x40332f09	2.7997458
25	0xc089d4e1	-4.307236
26	0xc1a16d1a	-20.178272
27	0xbfa7efcb	-1.3120054
28	0xbff7c604	-1.9357305
29	0x405edaa0	3.4820938
30	0xc15dd36d	-13.864118
31	0xbee5fd40	-0.44919777
32	0xbf3985f8	-0.72470045
33	0xc0816a5a	-4.0442324
34	0x3f829029	1.0200244
35	0x3f8c9122	1.0981791
36	0x3fef0fc6	1.8676689
37	0x3f0ac5b0	0.542079
38	0xc064787d	-3.569854
39	0xbec4cbe7	-0.38436815
40	0xc0efc8fa	-7.4932833
41	0x4076ce92	3.856358
42	0xc12571ff	-10.340331
43	0x40477cde	3.1169963
44	0xbff36150	-1.9014072
45	0xc1146d5e	-9.276701
46	0xc08fce74	-4.493952
47	0x40a1f3af	5.0609965
48	0xc1250ef8	-10.3161545
49	0xc1761d4c	-15.382153
50	0xc12f5ed4	-10.960651
51	0x3ec9dc62	0.3942595
52	0x407b5e16	3.9276175
53	0xc11384d7	-9.219932
54	0xc05cef82	-3.4521184
55	0xc122b4a2	-10.1691
56	0x3f86d3b1	1.0533353
57	0xc0822720	-4.067276
58	0x403615fc	2.8450918
59	0xc0e0daab	-7.026693
60	0xbf403af3	-0.7508995
61	0x3e977f08	0.29589105
62	0x3f6bf7b2	0.9217483
63	0x400d3db7	2.2068918
64	0xbee3ecf2	-0.44516712
65	0xc17a3ec7	-15.6403265
66	0xc12a4960	-10.642914
67	0xc1a9294c	-21.145164
68	0xc151f9ac	-13.123455
69	0xc105b521	-8.356721
70	0xc1555108	-13.332283
71	0xc00e63c5	-2.2248394
72	0xc066c35a	-3.6056733
73	0x409c0332	4.87539
74	0xc093a81c	-4.614271
75	0xc139337a	-11.5750675
76	0x408300fc	4.09387
77	0x408b5d45	4.3551354
78	0x3efcd338	0.49379897
79	0x4059eb8f	3.4050024
80	0x408a1ebd	4.316252
81	0xbfb18903	-1.3869938
82	0xc060470d	-3.5043366
83	0x3facbcbe	1.34951
84	0xbf28b40d	-0.65899736
85	0xc0b6c63f	-5.7117
86	0xc11badd8	-9.729942
87	0xc159a09d	-13.601712
88	0xbe0ead6e	-0.13933346
89	0xc0820215	-4.062754
90	0x40f9e81c	7.8095837
91	0xbfc38682	-1.5275424
92	0x40ccea61	6.4036107
93	0xc19151b7	-18.1649
94	0x3f900e7d	1.1254421
95	0x40a203aa	5.0629473
96	0xc0a83a9c	-5.2571545
97	0xc1379493	-11.473773
98	0x3fb4fe50	1.414011
99	0xc00c38f4	-2.1909761
100	0x40f791a7	7.73653
101	0xc112fffa	-9.187494
102	0xbe398a1d	-0.18119092
103	0xc1af7b05	-21.935068
104	0x3ee360b0	0.44409704
105	0xc13445c3	-11.267032
106	0x41217878	10.091911
107	0xc17f2cb1	-15.948411
108	0x40449cb2	3.072064
109	0xc19186e3	-18.190863
110	0x417ebff9	15.921868
111	0xc1433cd5	-12.202352
112	0xbf98f1fb	-1.1948847
113	0x404a09d6	3.1568503
114	0xc0810719	-4.0321164
115	0xc1538a0e	-13.221205
116	0xc142afde	-12.167936
117	0x3f9c49e2	1.2210047
118	0xc01e9b9f	-2.4782484
119	0xc01c83fd	-2.445556
120	0xc0f77d97	-7.734081
121	0x40597546	3.3977828
122	0x3e67dcfa	0.2264289
123	0xc0608113	-3.507878
124	0x3f978159	1.1836349
125	0x402bf902	2.6870732
126	0xc15a3c0d	-13.639661
127	0xc1895f64	-17.171577

batch_norm_4.running_var f4 [128]
0	0x44e63197	1841.5497
1	0x4533049e	2864.2886
2	0x4516f506	2415.314
3	0x452b870b	2744.4402
4	0x45a6af3f	5333.906
5	0x452bd7b6	2749.482
6	0x4499068b	1224.2045
7	0x44f6000a	1968.0012
8	0x438a2da8	276.3567
9	0x43cb513a	406.63458
10	0x44fe0b57	2032.3544
11	0x452f6807	2806.5017
12	0x440fb8ab	574.88544
13	0x4545378a	3155.4712
14	0x451118ec	2321.5576
15	0x450386e9	2104.432
16	0x45638680	3640.4062
17	0x4543206f	3122.027
18	0x43a29320	325.1494
19	0x4527bdd5	2683.8645
20	0x44282c9c	672.697
21	0x455cdb9b	3533.7253
22	0x452c8a99	2760.6624
23	0x4530dfc0	2829.9844
24	0x45266686	2662.4077
25	0x44bfeddc	1535.4331
26	0x442118be	644.3866
27	0x454a5539	3237.3264
28	0x4552ca11	3372.6292
29	0x451da238	2522.1387
30	0x43ebf6d2	471.92828
31	0x454f7b8e	3319.7222
32	0x441bbf15	622.98566
33	0x4528d668	2701.4004
34	0x45417132	3095.0747
35	0x452c6e20	2758.8828
36	0x4500b86e	2059.5269
37	0x45003879	2051.5295
38	0x450a954f	2217.3318
39	0x453b28f6	2994.56
40	0x451058f0	2309.5586
41	0x45155a3c	2389.6396
42	0x4588fa1e	4383.2646
43	0x452830a1	2691.0393
44	0x4540f0cf	3087.0505
45	0x4414134d	592.3016
46	0x447c426d	1009.0379
47	0x44cd305d	1641.5114
48	0x4565f255	3679.1458
49	0x44336ae0	717.6699
50	0x43e00c10	448.09424
51	0x452a7d56	2727.8335
52	0x4507c7ef	2172.4958
53	0x44c5ed01	1583.4064
54	0x454803e2	3200.2427
55	0x44ade69e	1391.2068
56	0x451b2b00	2482.6875
57	0x456b0c35	3760.763
58	0x44fceff4	2023.4985
59	0x44c4cfbb	1574.4916
60	0x4532a5ee	2858.3706
61	0x452175a6	2583.353
62	0x451e0383	2528.2195
63	0x4511eac2	2334.6724
64	0x4531c0b5	2844.0442
65	0x43c08a8b	385.08237
66	0x448d79ee	1131.8103
67	0x4460f59e	899.83777
68	0x44de029b	1776.0814
69	0x44cf9b97	1660.8622
70	0x44cc0d61	1632.4181
71	0x4534d06a	2893.026
72	0x437ffcc9	255.98744
73	0x45534ffd	3380.9993
74	0x440e0757	568.1147
75	0x45586fd5	3462.9895
76	0x45255c58	2645.7715
77	0x44e71468	1848.6377
78	0x4542dbdc	3117.7412
79	0x453678e5	2919.556
80	0x4525d770	2653.4648
81	0x4542461b	3108.3816
82	0x44f68844	1972.2583
83	0x453802ae	2944.1675
84	0x453ac237	2988.1384
85	0x441543f0	597.0615
86	0x44ce878e	1652.2361
87	0x4443cc07	783.1879
88	0x458b1be5	4451.487
89	0x44fcddf5	2022.9362
90	0x43a56b6f	330.83932
91	0x43ece0e4	473.75696
92	0x44fc8c19	2020.378
93	0x43e114e1	450.16312
94	0x453e3d25	3043.8215
95	0x45325261	2853.1487
96	0x4565b68a	3675.4087
97	0x43a313af	326.15378
98	0x451d50c6	2517.0483
99	0x4533f21d	2879.132
100	0x44803578	1025.6709
101	0x43a55e1e	330.7353
102	0x4542d925	3117.5715
103	0x4400b6ad	514.8543
104	0x45232614	2610.38
105	0x454896e4	3209.4307
106	0x456d95ed	3801.3704
107	0x4418b063	610.75604
108	0x451535ac	2387.3545
109	0x43e7a8bc	463.31824
110	0x44f1bb62	1933.8557
111	0x443d5b89	757.43024
112	0x4404f255	531.78644
113	0x452b2b86	2738.7202
114	0x44ac7c56	1379.8855
115	0x441eb81f	634.8769
116	0x43b60368	364.0266
117	0x44f9231d	1993.0973
118	0x43ccec76	409.84735
119	0x455fdb57	3581.7087
120	0x44edcecd	1902.4625
121	0x4527d28e	2685.1597
122	0x4539d821	2973.508
123	0x457f0e26	4080.8843
124	0x45287eae	2695.9175
125	0x448b7fbe	1115.992
126	0x43b18812	355.06305
127	0x43b1fc8e	355.97308
