snapshots/first_level/BEST_SNAPSHOT_FC_0.pth (torch_old, 197013 bytes, 24 tensors)

batch_norm.weight f4 [100]
00000000: 91f4 4640 8ec2 5740 8559 d73f 800d 4b40
00000010: ec10 4540 1f68 ec3f 6076 3940 f57c 7040
00000020: 0d73 0540 f3c2 1640 6ec0 0640 9e49 ba3f
00000030: 2e07 fc3f 0a0b 2540 8725 7f3f 5d12 af3f
00000040: 3f05 8b3f be95 b83f 1dbb 823f cdae 8f3f
00000050: 69c8 f03f 878c 0240 83a5 923f d6a9 cb3f
00000060: 38d8 5e3f 82b3 db3f da00 8a3f 534d c53f
00000070: f837 8a3f 3f88 fe3f 2459 5b3f b399 a03f
00000080: 6024 873f 8a32 a63f f1d4 8e3f 3c8e 443f
00000090: c6c6 123f 1180 8c3f f921 c83f fee9 f83f
000000a0: 989e 8b3f 78d1 5c3f c25d 293f a3db 0840
000000b0: 1839 1840 a7e4 0140 182d 693f afb5 7a3f
000000c0: bf61 2e3f 5499 6b3f a3a2 0d40 d616 4140
000000d0: 9f48 2e40 36cf ef3f f0c8 3b3f cdcf 1e3f
000000e0: ecfc ad3f 8df8 0240 0927 1740 aa4a bc3f
000000f0: 2250 653f 0f3e 8a3f ec77 ca3f f10a 2e40
00000100: a2cd 0240 17f7 5e3f 0ea9 d13e 07c7 0d3f
00000110: 967e 943e a16f 833f 848c 463f 34b2 673f
00000120: 7e19 da3f 266f a13f 3bd6 573f 91be 8b3f
00000130: 41fc 8e3f 318b 8b3f 104c cb3f 1ca9 793f
00000140: 32e4 333f 1d9b 9c3f ecfb 993f 544f 0240
00000150: e27c 2840 c9ca 923f 87d0 9e3f be88 8d3f
00000160: 0a78 c83f c4e9 c93f 5fba 5a3f 43af 113f
00000170: 6b48 b43f 4e66 ae3f 05c6 903f 8066 cc3f
00000180: be4c ec3f f2a4 f13f 5b49 3640 72ef 4340
3.1086771 3.3712497 1.6824194 3.172699 3.0791578 1.8469275 2.89785 3.7576268
2.0851471 2.3556488 2.105495 1.4553716 1.9689691 2.5787988 0.9966664 1.3677479
1.0860976 1.4420698 1.0213352 1.122522 1.881116 2.039827 1.145676 1.5911205
0.87048674 1.7164156 1.078151 1.5414222 1.079833 1.9885329 0.8568289 1.2546905
1.0557976 1.2984173 1.1158735 0.7677953 0.57334554 1.0976583 1.5635368 1.9446409
1.0907774 0.86257124 0.6615869 2.1384056 2.3784847 2.0295808 0.9108443 0.9793348
0.681179 0.92030835 2.2130516 3.0170188 2.7231824 1.8735111 0.7335348 0.6203583
1.3592811 2.0464203 2.3617575 1.4710286 0.895754 1.0800189 1.5817847 2.7194178
2.0438008 0.8709578 0.4094929 0.55381817 0.29002827 1.0268441 0.7755816 0.9050629
1.703903 1.2612045 0.84311265 1.0917531 1.1170732 1.0901853 1.5882587 0.97523665
0.70270073 1.2234837 1.2030005 2.0360918 2.6326222 1.1468135 1.2407387 1.1057355
1.5661633 1.5774465 0.8544063 0.56908053 1.40846 1.3624971 1.1310431 1.596878
1.846092 1.8878462 2.8482273 3.0614896

batch_norm.bias f4 [100]
00000000: 6261 80bc 3ddd 67bc 7078 c6bd 05c1 c23c
00000010: ca2f 8e3d 5d25 94bd 22d2 913d e6d9 df3a
00000020: 295a 903a b725 70bc 15d0 af3d 4f33 a1bd
00000030: f2e9 fbbc 0ae3 b53c 4bcd 6cbd e9de 873d
00000040: 2044 37bc 7f2a efbb 1717 36bc e399 25bd
00000050: f602 61bc ffc5 69bd 5d27 1d3c 4b04 89bc
00000060: 3482 21bd 008b dc3c ae75 15bd 5fe0 6d3c
00000070: 78e3 85bd ac82 82bd f74e 20bb c455 c8bc
00000080: 969f 2abd a947 dd3c e7d0 a8bc c7f2 073c
00000090: aa11 f7bb 0493 1cbd db69 fabb 9602 74bd
000000a0: 297e 583d 8d69 943c 7164 183c bf5e 2abc
000000b0: 3358 b73d 223d 763d 78a3 40bd 8e37 00bb
000000c0: f963 5cbd b591 acbd 24a3 c33c 8900 9f3c
000000d0: b916 8d3b 452a 3c3c 90f9 6c3d ac6e ab3d
000000e0: da4f 0b3d 631b d23c 56db 0fbd 5877 873b
000000f0: c406 0f3d 9e50 8a3d 05b5 763c d39c 22bd
00000100: a36b 3fbb afa7 ba3c 1a4a 84bd 500d bd3c
00000110: 02d8 eabb f8c3 80ba 713a 5c3d adcd 35bd
00000120: e5af 113d 961b 56bc a224 ac3c 2343 60bc
00000130: fa46 a3bc ee6a 90bd 8e2d d03b 1c9b b2bc
00000140: 8b7d 94bd 5b2a e23c 0b8d 923c 4f4c 51bd
00000150: bc31 15bd cee9 94bd ea5e 0bbd b753 9cbd
00000160: 5152 30bd c88b 993b c604 263d b2e7 7dbb
00000170: 8f69 c3bc a983 48bc 2f4a b03d 8597 7a3c
00000180: 5aec 10bd f2b6 20bb b106 58bd 5195 e1bd
-0.015671436 -0.014151868 -0.096909404 0.02377368 0.06942709 -0.07233689 0.07120158 0.0017078489
0.0011013198 -0.014657429 0.085846104 -0.078711145 -0.030751202 0.022202987 -0.05781297 0.066343136
-0.011185676 -0.007298767 -0.0111139035 -0.04042996 -0.013733616 -0.05707359 0.0095919045 -0.01672568
-0.039430812 0.02692175 -0.03648918 0.014518826 -0.06537527 -0.0637258 -0.002446113 -0.024454959
-0.0416561 0.02701171 -0.020607425 0.008297629 -0.0075399475 -0.038226143 -0.0076420135 -0.05957278
0.05285469 0.018116737 0.009301291 -0.010398566 0.089523695 0.060116895 -0.047030896 -0.0019564363
-0.05380628 -0.08426229 0.023881502 0.019409435 0.0043056873 0.011484687 0.05785519 0.08370718
0.0340117 0.025647825 -0.035121284 0.0041341 0.03491856 0.06753658 0.015057807 -0.03970034
-0.0029208444 0.022785036 -0.06459446 0.023077637 -0.0071668634 -0.0009824028 0.05376667 -0.0443856
0.035568137 -0.0130681 0.021013562 -0.013687882 -0.019931305 -0.07051645 0.006353087 -0.021802478
-0.07250508 0.027608087 0.01788952 -0.051098164 -0.036424384 -0.07271157 -0.034026064 -0.07633155
-0.043047253 0.0046858527 0.040531896 -0.0038742837 -0.023854045 -0.0122384215 0.086078994 0.015294914
-0.035381652 -0.0024523106 -0.052740756 -0.11014808

batch_norm.running_mean f4 [100]
00000000: a599 2a43 0a95 2a43 56a0 2a43 bca2 2a43
00000010: 0cb7 2a43 b1be 2a43 f7b3 2a43 8fb6 2a43
00000020: dcd9 2a43 c7aa 2a43 94b1 2a43 2c95 2a43
00000030: 46c3 2a43 1cc0 2a43 c3ae 2a43 bdba 2a43
00000040: 03cb 2a43 aabf 2a43 d996 2a43 c396 2a43
00000050: 4ec9 2a43 9e85 2a43 1ac9 2a43 95b7 2a43
00000060: f3a3 2a43 c9ad 2a43 5cb5 2a43 34cc 2a43
00000070: 45a5 2a43 d9b1 2a43 2fca 2a43 fcb3 2a43
00000080: e2a9 2a43 e9a7 2a43 92ac 2a43 f3db 2a43
00000090: e9ba 2a43 c87f 2a43 91bd 2a43 e4af 2a43
000000a0: 99a7 2a43 b6a1 2a43 4494 2a43 5c9f 2a43
000000b0: 6c94 2a43 e4a5 2a43 3aca 2a43 4499 2a43
000000c0: c6b4 2a43 ad8a 2a43 5dc3 2a43 9290 2a43
000000d0: ed9d 2a43 b5a9 2a43 4ac9 2a43 0eb6 2a43
000000e0: 75bd 2a43 12b0 2a43 c1a3 2a43 cfb3 2a43
000000f0: d69e 2a43 3c83 2a43 49a5 2a43 efb9 2a43
00000100: c5a2 2a43 b5b2 2a43 b8c5 2a43 fca3 2a43
00000110: 5fc7 2a43 3da8 2a43 bfc9 2a43 87b0 2a43
00000120: dba6 2a43 3bae 2a43 f289 2a43 f795 2a43
00000130: b2ac 2a43 c0bc 2a43 d4af 2a43 d19c 2a43
00000140: b59b 2a43 c38b 2a43 48a4 2a43 7885 2a43
00000150: da90 2a43 b2b6 2a43 6192 2a43 2dbf 2a43
00000160: 2c7a 2a43 3b96 2a43 b1ce 2a43 19c9 2a43
00000170: c8b0 2a43 50ba 2a43 03a9 2a43 77a3 2a43
00000180: c2b4 2a43 4aa1 2a43 cdcc 2a43 a299 2a43
170.60017 170.58218 170.62631 170.63568 170.71503 170.74489 170.70299 170.71312
170.85101 170.6671 170.69366 170.5827 170.76279 170.75043 170.68266 170.72945
170.79301 170.74869 170.58925 170.58891 170.78635 170.52194 170.78555 170.71712
170.64043 170.67885 170.70844 170.79767 170.64558 170.69472 170.78978 170.70306
170.6636 170.6559 170.6741 170.85918 170.73012 170.49915 170.7405 170.68707
170.65468 170.63168 170.57916 170.6225 170.57977 170.64801 170.78995 170.5987
170.70615 170.5417 170.76314 170.56473 170.6169 170.66292 170.78629 170.71115
170.74007 170.68777 170.63966 170.70238 170.62045 170.51263 170.64565 170.7263
170.63582 170.69807 170.77234 170.64056 170.7788 170.65718 170.78807 170.68956
170.65178 170.68059 170.53885 170.5858 170.67459 170.7373 170.68683 170.61256
170.60823 170.54594 170.64172 170.52136 170.56583 170.71365 170.5718 170.74678
170.47723 170.58684 170.80739 170.78554 170.69055 170.72778 170.6602 170.63853
170.70609 170.63004 170.8 170.60013

batch_norm.running_var f4 [100]
00000000: 7195 2145 22c9 2145 526a 2245 6923 2345
00000010: 2cbf 2145 d3a9 2145 add2 2145 fa01 2245
00000020: 923b 2145 937c 2245 446f 2245 685f 2145
00000030: 1467 2245 9730 2245 84a8 2245 b80e 2245
00000040: 70ef 2145 ea90 2245 8aa4 2345 33a0 2245
00000050: 7ad8 2245 2926 2345 aece 2145 1d14 2245
00000060: 5c47 2145 3446 2245 3b44 2245 aae8 2245
00000070: c2d8 2145 0b92 2245 e772 2245 56d7 2145
00000080: 7aa2 2245 2055 2245 eb7a 2245 05c8 2245
00000090: 57c5 2145 b65a 2245 9f0d 2245 2192 2245
000000a0: eea6 2245 6084 2245 eb5f 2445 c3c6 2245
000000b0: ac80 2245 b5ea 2145 c642 2245 beb0 2145
000000c0: e297 2345 166c 2245 6fa1 2245 e904 2245
000000d0: 6d9a 2245 6c5d 2245 891f 2345 0f54 2245
000000e0: cf0e 2345 a2af 2245 dc27 2345 e634 2345
000000f0: 8090 2245 3665 2245 91e4 2145 1045 2345
00000100: 0ad6 2245 2d16 2345 9162 2245 ca62 2245
00000110: db1e 2345 26df 2145 84aa 2245 0b22 2245
00000120: 3183 2345 e0e7 2145 6389 2245 62a1 2245
00000130: 9d86 2445 fb87 2445 2f26 2345 0899 2445
00000140: f60c 2345 0634 2245 ad8b 2245 6604 2545
00000150: 653e 2345 9968 2245 5d9f 2245 a78c 2245
00000160: dd07 2345 c088 2245 e815 2345 3331 2345
00000170: dc2f 2245 17d4 2145 01ed 2145 748c 2245
00000180: 322e 2445 f0f2 2345 dc97 2345 b43d 2245
2585.34 2588.5708 2598.645 2610.2131 2587.9482 2586.614 2589.1672 2592.1235
2579.7231 2599.786 2598.954 2581.963 2598.4424 2595.0369 2602.5322 2592.92
2590.9648 2601.0571 2618.2837 2602.0125 2605.5298 2610.385 2588.9175 2593.257
2580.46 2596.3877 2596.2644 2606.5415 2589.5474 2601.1277 2599.1814 2589.4585
2602.1548 2597.3203 2599.6824 2604.5012 2588.3337 2597.6694 2592.8513 2601.133
2602.433 2600.2734 2629.9949 2604.4226 2600.042 2590.6692 2596.1733 2587.0464
2617.4927 2598.7554 2602.0896 2592.307 2601.6516 2597.8389 2609.971 2597.2537
2608.9255 2602.977 2610.4912 2611.3062 2601.0312 2598.3257 2590.2854 2612.3164
2605.3774 2609.386 2598.1604 2598.1743 2609.9285 2589.9468 2602.6572 2594.1277
2616.1995 2590.4922 2600.5867 2602.0864 2632.4133 2632.4988 2610.3865 2633.5645
2608.81 2595.2515 2600.7297 2640.275 2611.8997 2598.5374 2601.9602 2600.7908
2608.4915 2600.5469 2609.3691 2611.075 2594.9912 2589.2556 2590.8127 2600.7783
2626.8872 2623.1836 2617.4912 2595.8564

batch_norm_2.weight f4 [128]
00000000: b50b e23f 0b40 ed3f 4a6c 773f c376 d73f
00000010: b990 b53f 7401 ec3f 9f3b f53f 9659 e83f
00000020: a5d6 ae3f 7ed9 88be db3c 9b3f 4a9e 0340
00000030: f890 ac3f 176c 933f 6590 d83e 2862 913e
00000040: e8cd b03f 11d4 b43f 4105 243f cc0f 913f
00000050: 1aa0 c13f 3c83 ae3f f45f 973f ace3 0340
00000060: 5703 413f 2eab e43f c77e d23f ffa9 0440
00000070: 07e7 0240 cef1 1e40 c320 0a3f ab8e 8b3f
00000080: 7a55 913f ef5f ec3f 6308 ff3f d129 8e3f
00000090: ee79 823d 58f3 0b40 704f f03f 813c 983f
000000a0: d88b 0440 4d1a 9f3e 5dc2 af3f 2172 0a3e
000000b0: 605c 7d3e 2475 fa3f ea30 813f 9bd9 e73f
000000c0: e2d2 8c3f eca8 e73f 5578 ad3f 6c45 193f
000000d0: 3250 cc3f 3d44 bb3f e0f7 c83f f5bd 0540
000000e0: 0e8f 313f 4a6b e93f 18c5 ae3f ee99 a13e
000000f0: c43f 0040 4ce0 c13f fa2b 9e3f c282 ab3f
00000100: 0ab3 ba3f da57 ec3f 21f3 e33f 8137 253e
00000110: 6b78 0140 21ed b73e 4c7a c23f 14a4 9e3f
00000120: f593 fb3f 0627 473f e405 1340 1f7d 883f
00000130: 7232 ca3f e9b3 943f 1701 8b3f 362e 1640
00000140: 9fcf f63f 30e4 aa3f 965c b83f 397d ed3f
00000150: 4868 983f 423d f23f 4f7c d73f c1a5 a03e
00000160: 1724 1b3f 03b2 ec3f 5345 ab3f b7ae 6c3f
00000170: a1e5 323e a81e f43f 092f a83f 97db ff3f
00000180: cad7 983d c43e 1940 508b 6d3f d511 9e3e
00000190: 430b a53f 8567 6e3f 9ec9 e53f 19ea d03e
000001a0: c584 a93f aee6 8a3e dc7d 423f 17d4 0440
000001b0: c212 f03f 3b75 d43f 7fd2 963f e605 963f
000001c0: 18c5 fb3f d444 f63f d04a af3f 81c4 8e3e
000001d0: 07c5 0240 f8d6 f23f e606 1e3f 1254 0240
000001e0: a44a 943f 199d ad3f 6aa1 0040 a853 923f
000001f0: fcf4 eb3f b639 ac3e 4472 bebf 91f0 0040
1.7659823 1.8535169 0.9664961 1.6833118 1.4184791 1.8437943 1.915882 1.815234
1.3659254 -0.26728433 1.2127947 2.0565362 1.3481741 1.1517361 0.42297664 0.283952
1.3812838 1.4127218 0.64070517 1.1332946 1.5126984 1.36338 1.1826158 2.060771
0.7539572 1.786474 1.6444939 2.0728757 2.0453508 2.4835086 0.5395624 1.0902914
1.135421 1.8466777 1.9924434 1.1106511 0.063709125 2.1867275 1.8774242 1.1893464
2.0710354 0.31074753 1.373119 0.13520099 0.2474227 1.9566998 1.0093052 1.8113283
1.1001856 1.8098426 1.3552347 0.59871554 1.5961974 1.46302 1.5700645 2.089719
0.6935891 1.8235867 1.3653898 0.31562752 2.003892 1.5146575 1.235717 1.3399279
1.4585888 1.846431 1.7808572 0.16134454 2.0229747 0.35923102 1.5193572 1.2393823
1.9654528 0.7779392 2.2972345 1.0663184 1.5796645 1.1617404 1.0859708 2.3465705
1.9282111 1.3350887 1.4403255 1.855384 1.1906824 1.8924944 1.6834811 0.3137646
0.60601944 1.8491825 1.3380531 0.92454094 0.17470409 1.9071856 1.3139354 1.9988889
0.074630335 2.394456 0.927907 0.3087298 1.2894062 0.9312671 1.7952154 0.40803602
1.3243643 0.2712912 0.75973296 2.075445 1.8755724 1.6598276 1.1782988 1.172055
1.9669523 1.9239755 1.3694706 0.27884296 2.0432756 1.8971853 0.61729276 2.0363812
1.1585279 1.3563567 2.009852 1.143178 1.8434138 0.3363778 -1.4878621 2.014683

batch_norm_2.bias f4 [128]
00000000: a663 33bf 3538 53bf 6d7e b7bd 26c6 0ebf
00000010: bc33 c0be faaf 4abf 8793 0bbf 7ef1 4bbf
00000020: 6574 b2be a5ad 32bf 05d0 a6be 307a 21bf
00000030: 08d5 5ebe d040 9dbe d669 45bf 687b 15bf
00000040: c12a cbbe 8ec8 cebe 8d1c 1abf c97f 1abe
00000050: c0fb d9be 16fe c3be ab29 9bbe e99e 7ebf
00000060: 6735 893e 13c4 08bf fad2 eabe c3ee 59bf
00000070: 0b28 7ebf da92 8ebf 0468 19bf 34dc 88be
00000080: b3bd 80be 5526 02bf 8f6d 62bf 7903 82be
00000090: 261a 94bf a984 6abf b04f 4abf dc77 88be
000000a0: 5c82 6fbf 307f 42bf 0ffb abbe 2565 3bbf
000000b0: e563 3ebf d51e 56bf 6d46 8abc f6d5 34bf
000000c0: cdd0 8dbe 1599 2cbf 452d b1be ad86 a2be
000000d0: 39ea cfbe 4724 aabe ada4 cbbe f466 62bf
000000e0: 6c79 26be f860 ffbe b871 b4be dc9a 47bf
000000f0: d839 6abf c259 d4be 5135 aabe 0c8c b6be
00000100: ba9b dfbe f3c5 44bf e8dd 4bbf 068c 75bf
00000110: 3712 28bf 9415 28bf 3110 aebe 07dd 96be
00000120: 4aa2 0bbf 6683 2bbe acfd 85bf 8f95 69be
00000130: 4925 edbe a55f 94be 9e39 8ebe f201 8fbf
00000140: 0a4f 15bf 18f4 b8be 812e 9abe f4f5 3cbf
00000150: 3b5e 99be a0a4 46bf 4f74 f9be ac81 31bf
00000160: 069d 4d3e cdc4 4fbf e67b a9be f984 3cbe
00000170: 7e81 7dbf e580 2fbf 7074 92be 34fe 50bf
00000180: 2094 99bf 7e82 87bf d1f2 51be 10a4 41bf
00000190: 20d7 b5be b199 22be 3684 00bf 9a7a 87bf
000001a0: e16a cfbe 5f58 35bf ee50 1cbf b081 64bf
000001b0: bbd0 56bf 3cee 31bf 7dee febd a907 b0be
000001c0: cff2 69bf d95f 57bf bb75 d3be 6acd 3abf
000001d0: 867d 2bbf 6260 4dbf fbb0 1abe 092d 64bf
000001e0: 98a4 89be 68e4 bebe 85e0 44bf 76af 8ebe
000001f0: c91d f6be 35c1 25bf c36a b9be 14b4 61bf
-0.70073926 -0.8250764 -0.08959661 -0.557711 -0.3753947 -0.7917477 -0.54521984 -0.7966536
-0.34854427 -0.6979621 -0.3258058 -0.6307707 -0.21760952 -0.3071351 -0.7711462 -0.5839143
-0.39681056 -0.40387386 -0.60199815 -0.15087809 -0.42574883 -0.3827979 -0.30305228 -0.9946123
0.26798555 -0.53424186 -0.45864087 -0.85129946 -0.9927985 -1.1138566 -0.5992434 -0.26730502
-0.2514473 -0.5083974 -0.88448423 -0.25393274 -1.157048 -0.91608673 -0.79027843 -0.26653945
-0.9355829 -0.7597532 -0.3358998 -0.7320121 -0.74371177 -0.83640796 -0.016879285 -0.7063898
-0.27698365 -0.67421085 -0.3460485 -0.31743374 -0.40608385 -0.33230802 -0.39774075 -0.88438344
-0.16257256 -0.4987867 -0.3524301 -0.7797067 -0.9149451 -0.4147473 -0.33243802 -0.35653722
-0.43673497 -0.76864547 -0.7963548 -0.95916784 -0.65652794 -0.65657926 -0.33996728 -0.29465505
-0.5454451 -0.16749343 -1.046804 -0.22810958 -0.4631751 -0.2897922 -0.27778333 -1.1172469
-0.5832373 -0.3612373 -0.30113605 -0.73812795 -0.29954705 -0.7759495 -0.4872155 -0.6933849
0.20079431 -0.8115967 -0.3310234 -0.184101 -0.99025714 -0.6855605 -0.2860446 -0.81637883
-1.1998329 -1.0586698 -0.20502783 -0.75640965 -0.3551569 -0.15878941 -0.5020174 -1.058429
-0.4051123 -0.7083797 -0.6106099 -0.8926039 -0.8391225 -0.6950414 -0.12447832 -0.34380844
-0.9138612 -0.84130627 -0.4130076 -0.72969687 -0.6698841 -0.80225194 -0.15106575 -0.8913122
-0.26883388 -0.37283635 -0.7690509 -0.2786824 -0.480696 -0.64747936 -0.36214265 -0.881654

batch_norm_2.running_mean f4 [128]
00000000: aaab a63f a99e 843e 3eaf adbe 83e4 9c3e
00000010: 85e5 08bf b793 8f3e faf4 c23e 99ea 573f
00000020: b844 16bf 5ef1 e73e 0d6c eebe 7c58 21bf
00000030: 0a35 dabe fd21 e2be bdf4 0cbf 1600 123f
00000040: 369a 2fbf 1d63 ddbe a041 0dbf c153 14bf
00000050: 6f4d 2dbf ae6d a7be 2e5d 07bf 0096 3ebf
00000060: 170f c7be 3d49 d6be a01a 07bf de01 143f
00000070: 7801 94bf 2216 5b3f 87c7 0fbd 3133 04bf
00000080: 9089 dcbe 9868 333f 8808 693e 0b7f 14bd
00000090: 6e72 eebd cd6c b13e baae 9f3d 453d 03bf
000000a0: 6184 ffbd d950 d6be 5eb2 0dbf ba6b b93e
000000b0: 643b 79be 3982 543f 7340 febe 14d6 513f
000000c0: 2394 d3be 2cbf 0c3f 912b d2be 4b4a dbbe
000000d0: 1e3e d2be 0f57 c0be 7e07 9cbe ae90 ff3e
000000e0: a726 b3be e097 b1bd 0920 afbe d452 b0be
000000f0: 7266 9e3f c4ef 0abf 2b93 4abf f0d6 c2be
00000100: 2cf5 e1be 15ac 473f 3f93 debe f51c 473d
00000110: bba7 bf3e 0e48 bc3d 7e58 dbbe 71bf 95be
00000120: e1ba d23e 2345 9dbe 062c 42be ecda 97bd
00000130: c0dc bebe d222 1ebe 9e9a 80be acea 1abf
00000140: 9c76 023f bd49 44be 9237 07bf 0880 35be
00000150: def0 05bf fd89 c7bd c4a0 3ebf 0c1e ab3e
00000160: b4bb c4be 4b78 86be d20e 11bf 1986 95be
00000170: 82e9 8e3e d518 273e 9ad0 95be 2750 533f
00000180: f9e1 483f 32bf 573f 6487 20be caee d2be
00000190: 9493 c7be af60 0dbf c755 14bf 4214 523f
000001a0: 3d68 60be 6e22 223e de69 1fbe 8d33 45bf
000001b0: 9667 2bbf 24f4 88be 031e abbe 9dd3 5fbe
000001c0: 487c 1d3e 1d5c 1a3f 245b 98be fa9f 973e
000001d0: 02af 8f3c 18b3 783e af0a efbe c495 b8be
000001e0: e9dc cebe 4bcd e6be 6404 a43f 4855 ebbe
000001f0: da53 f0be 898d e73d 48db 733e 92a7 8dbe
1.3021138 0.25902298 -0.33922762 0.3064309 -0.5347522 0.28042385 0.38077527 0.8434234
-0.58698606 0.45301336 -0.4656681 -0.6302564 -0.4261859 -0.44166556 -0.5506094 0.5703138
-0.6859468 -0.4323968 -0.5517826 -0.579403 -0.6769628 -0.32700866 -0.52876556 -0.7444763
-0.388787 -0.4185275 -0.52775 0.5781535 -1.1562948 0.85580647 -0.035102393 -0.5164061
-0.43073702 0.7008147 0.2275716 -0.03625397 -0.116429195 0.3465332 0.07796998 -0.51265365
-0.12476421 -0.41858557 -0.5535029 0.36215 -0.24339062 0.83011204 -0.49658546 0.8196728
-0.41323957 0.54979205 -0.41048864 -0.4283012 -0.41063017 -0.3756642 -0.30474466 0.4991507
-0.34990427 -0.08671546 -0.34204128 -0.34438193 1.2375014 -0.54272103 -0.7913081 -0.3805461
-0.44132364 0.7799695 -0.43471715 0.0486116 0.37432656 0.09193431 -0.42840952 -0.2924762
0.41158202 -0.3071681 -0.18962106 -0.07414803 -0.37277794 -0.1544297 -0.25117964 -0.6051433
0.50962234 -0.19168754 -0.5281917 -0.17724621 -0.5232066 -0.09743116 -0.7446406 0.3342136
-0.38424456 -0.2626365 -0.5666324 -0.2920387 0.27912527 0.16318066 -0.29260713 0.8254418
0.78469807 0.84276116 -0.15676647 -0.41197807 -0.3897978 -0.5522565 -0.57943386 0.8206216
-0.21914764 0.15833446 -0.15567729 -0.77031785 -0.66954935 -0.26748765 -0.33421335 -0.21858068
0.15379441 0.60296804 -0.29757035 0.2961424 0.017539505 0.24287069 -0.46687838 -0.36051762
-0.40402916 -0.450785 1.281384 -0.45963502 -0.46938974 0.113062926 0.23814118 -0.27666909

batch_norm_2.running_var f4 [128]
00000000: 2ce8 1444 ea50 0d44 d7cb 9045 f2ac 2144
00000010: 9a1b a445 ad9c dc43 ae03 a145 0c8a 0644
00000020: 2d05 ad45 bd70 bb44 d1bd a445 c39e a245
00000030: 5357 9045 f578 b245 0fef 5745 5e84 6245
00000040: b489 bc45 3973 9f45 616f a345 ddf1 9845
00000050: 3cb2 9c45 2766 9f45 4cff 9e45 5a9f be43
00000060: 5138 a345 2010 b445 f865 a345 af11 2144
00000070: dedf f843 7c55 f043 0906 2344 4a24 9f45
00000080: 84b7 a845 a20e 9e45 993f e143 2b88 8845
00000090: 4fce 3c44 bf4a 2d44 a4d2 0044 a2aa 9945
000000a0: 1fc6 2044 78a3 9845 6e0c ac45 2447 8d45
000000b0: 4f21 0a44 0a31 4844 8eb9 a545 f800 0344
000000c0: 2ec2 d145 0521 fa43 7884 9f45 7076 a645
000000d0: b4a5 a645 793d af45 aadd 9645 1349 c943
000000e0: cb01 a745 6818 9a45 a657 a845 80ba ea44
000000f0: 229d f143 552e a445 75d4 b045 4bb5 a345
00000100: e8f3 9b45 ba7a 3244 1592 f443 d8e4 7644
00000110: 3467 8245 6563 7b45 5477 b145 c57d a345
00000120: 9eaa b045 3ffb 9445 6df7 2744 a6d3 ab45
00000130: f615 a745 1d67 7e45 2194 aa45 e636 4a44
00000140: b7eb 8e45 bb25 8d45 7d11 a745 6854 0544
00000150: 6d21 a745 9859 ee43 d83c b445 3b22 8b45
00000160: b428 a345 099a 0344 644b ae45 94c3 7b45
00000170: af9f 7a44 5b3b e543 d1b3 9d45 4f4e 1144
00000180: 1446 3545 5c96 0a44 27f1 8a45 fc19 4945
00000190: c110 8545 a747 a745 81d0 a145 a4ed e044
000001a0: 479d c445 28e4 6e45 8c2c 0d45 87de 3844
000001b0: 48d4 e943 0784 d443 419e a845 3881 8645
000001c0: 9d73 0644 75e8 f643 f4e0 6745 62b5 a544
000001d0: c08a 0045 ea7c e243 0418 a845 10da 0c44
000001e0: 6b8c 9a45 c478 8b45 e0e8 8d44 0d77 8f45
000001f0: 1c98 a645 ddf9 4c45 406c 7145 5cc0 8743
595.6277 565.2643 4633.48 646.7023 5251.45 441.22403 5152.46 538.157
5536.647 1499.5231 5271.727 5203.845 4618.9155 5711.1196 3454.9412 3624.273
6033.213 5102.403 5229.9224 4894.233 5014.2793 5100.769 5087.912 381.24493
5223.0396 5762.0156 5228.746 644.2763 497.74896 480.66785 652.0943 5092.536
5398.9395 5057.829 450.49686 4369.021 755.2236 693.1679 515.29126 4917.329
643.09564 4884.4336 5505.5537 4520.8926 552.52045 800.76624 5303.1943 524.01514
6712.2725 500.25797 5104.5586 5326.8047 5332.713 5607.684 4827.708 402.5709
5344.224 4931.051 5386.956 1877.8281 483.2276 5253.7915 5658.557 5238.6616
4990.4883 713.9176 489.14127 987.5757 4172.9004 4022.2122 5678.916 5231.721
5653.327 4767.406 671.866 5498.456 5346.745 4070.4446 5458.516 808.8578
4573.4644 4516.7163 5346.186 533.31885 5348.178 476.69995 5767.6055 4452.279
5221.088 526.4068 5577.424 4028.2236 1002.49506 458.4637 5046.477 581.2236
2900.38 554.34937 4446.144 3217.624 4258.094 5352.9565 5178.063 1799.4263
6291.6597 3822.2598 2258.7842 739.477 467.65845 425.03146 5395.7817 4304.1523
537.80646 493.81607 3710.0596 1325.6682 2056.6719 452.9759 5379.002 563.4072
4945.5522 4463.0957 1135.2773 4590.8813 5331.0137 3279.6165 3862.7656 271.5028

batch_norm_3.weight f4 [128]
00000000: ca81 c43e 761b 2040 2fe6 eb3f 33d4 2f40
00000010: 2653 1c40 7776 fe3f 0143 2b40 b038 ea3f
00000020: d46a 003f 080a 8bbd 961c 0c40 10e2 1240
00000030: c796 e23e 4714 cf3f 20d4 fc3f cac6 0040
00000040: 4d9d a03c 6e36 813e c860 e63f 75f9 4d40
00000050: 2284 1e40 53b3 a03d 9997 0940 dc2a 31be
00000060: c360 f63f ed4e 693c 0c56 4c3e 87ff 743f
00000070: d382 1c3f f9f5 983e 1846 efbd 8da7 a33e
00000080: 16e4 933e 5bcc fd3e b593 063f aa9d 3b40
00000090: cba9 2d3f 4f4c 1b3f db7b 1c40 1d1d 9b3e
000000a0: 47ec 0840 9b9d da3f 1de4 e2bc 0250 a43e
000000b0: 906c 1640 c3da 0740 378b 4840 4bd2 e63f
000000c0: c65a e43d 6e38 4bbc ca9b 093d 0a54 f93f
000000d0: 87ad c63e 091c 36be b6eb e43f e60d 0c40
000000e0: a5f8 3a3f ea4a 653e a1aa a23e 9e81 da3d
000000f0: 1501 753f b4af d33f 44c2 2d40 9d28 1e40
00000100: 530b 1d40 3a86 eb3f cfb9 0840 3c71 fb3e
00000110: 6ffa 473e e06d 3740 20fe 5240 bc39 1b40
00000120: 62e9 4bbd a6fb e53d 6f08 2a40 468b 19be
00000130: 9594 783e 9390 1c3e 6331 2a40 28e4 1c40
00000140: a6bc d4bd e12c 0c40 c44d db3f 06ab 083f
00000150: 00e5 bf3e 6f83 c93e a013 fd3f edda fb3f
00000160: c07a 1bbe 2fe2 0840 4c9d db3e 3ae2 1540
00000170: 9504 cd3e 590c 0940 6d12 f43f e21b cc3e
00000180: 6a35 ff3f 4445 9fbc e432 073f e52f fb3e
00000190: f463 3040 71a7 1540 4ef7 0140 aad6 1640
000001a0: d4bc 1c40 04e6 e23f 1dc7 313e 9a5b eb3e
000001b0: 2932 0240 255f 213d 095c d43f bc05 c03e
000001c0: 8970 f83f bd07 fe3f 9a01 cf3f a783 3140
000001d0: 15a3 80be ffdf 2840 16af 3240 0c5b 7abe
000001e0: dddf 0240 184d fc3f 349a ec3f 3785 2e40
000001f0: aba3 0840 bbcf f83f d87f 2c40 e50d 1e40
0.3838027 2.501676 1.8429621 2.7473266 2.442575 1.9879903 2.6759646 1.829855
0.50163007 -0.06789023 2.1892447 2.2950478 0.4425566 1.6178063 1.9752235 2.0121331
0.019606257 0.2523684 1.7998285 3.2183506 2.4768147 0.078467034 2.1498778 -0.17301506
1.9248279 0.014240009 0.199547 0.95702404 0.6113712 0.29875162 -0.11683291 0.3196377
0.28884953 0.49569973 0.52569133 2.931498 0.6783721 0.6066331 2.4450595 0.3029565
2.1394212 1.7079347 -0.027696664 0.3209229 2.3503761 2.1227272 3.133497 1.8032926
0.11150126 -0.012403591 0.033595838 1.9478772 0.38804266 -0.17784132 1.7884433 2.1883483
0.7303565 0.22391859 0.31770805 0.10669254 0.95704776 1.6537995 2.714982 2.4712288
2.4538162 1.8400338 2.1363409 0.49109828 0.19529127 2.8660812 3.2967606 2.4253988
-0.049783118 0.11229639 2.6567647 -0.14994535 0.2427543 0.15289526 2.6592643 2.4514256
-0.10387544 2.1902392 1.7133107 0.5338596 0.374794 0.39358088 1.9771614 1.9676186
-0.15183544 2.1388052 0.42893445 2.3419328 0.40042558 2.1413786 1.9068123 0.39865023
1.9938176 -0.019442208 0.5281203 0.49059978 2.7561007 2.3383448 2.0307193 2.356852
2.4490252 1.7726445 0.17361112 0.45968324 2.0343115 0.039397378 1.6590587 0.37504375
1.9409343 1.9846112 1.6172364 2.7736604 -0.25124422 2.6386716 2.7919364 -0.24448794
2.0449135 1.9711027 1.8484559 2.7268808 2.1349895 1.9438394 2.695303 2.469598

batch_norm_3.bias f4 [128]
00000000: e4a9 5cbf 6c79 d03e 094b 223e a363 1ebf
00000010: 359b 363c fdb2 d2bc bc78 2abe d9cf 413e
00000020: 20b5 fdbf af9a 89bf be6f 0a3e cfd4 e2bd
00000030: 3090 53bf 0ad9 5e3e c589 453e 1b98 b63c
00000040: 0bd3 99bf b0ff 7dbf e4bf 8e3d 5974 dcbd
00000050: 3afd 443e 4651 08bf 2289 4c3e 75b8 89bf
00000060: 63d1 a53c 3b28 8bbf 748d 15bf 6b1f 80bf
00000070: ec41 20bf 6ccf 5abf fade 88bf f170 2cbf
00000080: 11df 28bf 57a7 d6be 8eac 3bbf c2de 25be
00000090: ccce 44bf a3c6 34bf 1be0 8d3e 19f7 13bf
000000a0: 0f6d ed3d 8330 aa3e b755 96bf 2137 61bf
000000b0: a9f7 6bbc 3082 df3d 6e02 58bd 983e 833e
000000c0: 92d3 31bf 0c3f 85bf 40e6 81bf ddca 66bd
000000d0: d3b7 7dbf 3dac 87bf 2fab 67bd 45ca 8c3e
000000e0: 8c0b 35bf 1ba2 75bf 145f 56bf 62d1 38bf
000000f0: 84dd 6dbe 6427 0a3e 46b3 7dbc ca32 143c
00000100: de3f 5a3e a244 1d3e 42ee a23e e18a 19bf
00000110: 1766 61bf 8ff4 96be e893 e33d 5b44 603e
00000120: 32c8 aebe 3dc2 84bf daf0 dc3e c969 8dbf
00000130: 9ba5 4ebf ec96 29bf 334c 343e 61f1 2a3e
00000140: 70fd 6dbf abf0 613e 0cff ad3d 933c 78bf
00000150: 67a0 35bf b8bd 52bf b60a 433e 6495 ccbd
00000160: b8ff 22bf 565c 4fbd b357 38bf aca4 b03c
00000170: c404 34bf 5dcc 30bd f102 ad3e 0bb2 90bf
00000180: 3f3e 443e 4a30 8dbf 325b 60bf 1859 6cbf
00000190: a42b 4f3c 0710 9d3e 8cbf 0c3e 0ad9 bc3d
000001a0: 87e3 353f 990b 0f3e 60d6 80bf 8bd8 f7be
000001b0: 30e4 b43d 33eb 88bf f021 bcbe 2d42 51bf
000001c0: 4bd2 8a3e c873 993e 17e5 d6bf 6bf9 cd3e
000001d0: b061 77bf d320 acbd ef7b ab3e 8ecc aebf
000001e0: 993d 833e 011d 12be dc98 9d3d bb95 cf3e
000001f0: 6188 d63c 4db2 713e 5bfd f7bd 1a65 e4bd
-0.8619673 0.40717638 0.15848936 -0.61870784 0.011145403 -0.025720114 -0.16647619 0.18926944
-1.98209 -1.0750331 0.13519189 -0.11075746 -0.8264189 0.21762481 0.19290836 0.022289326
-1.201753 -0.99218273 0.06970194 -0.10764379 0.19237223 -0.53249013 0.19974187 -1.0759417
0.020241445 -1.0871652 -0.58418965 -1.0009588 -0.6260059 -0.8547275 -1.0693047 -0.67359835
-0.6596537 -0.41924545 -0.7331017 -0.16198257 -0.76878047 -0.70615596 0.2771004 -0.57798916
0.11593067 0.33240137 -1.1744908 -0.87974745 -0.0144023085 0.10913503 -0.052736692 0.25633693
-0.69463456 -1.0409865 -1.0148392 -0.05634581 -0.9910862 -1.0599438 -0.056559738 0.2749807
-0.70720744 -0.9595048 -0.8373883 -0.7219449 -0.23229033 0.13491589 -0.015484637 0.009045312
0.21313426 0.15358213 0.318224 -0.5997754 -0.880464 -0.29483458 0.11112195 0.21901076
-0.34137112 -1.0371777 0.43152505 -1.1047908 -0.80721444 -0.66245914 0.17607193 0.16693641
-0.9296484 0.22064464 0.08495912 -0.9696743 -0.7094788 -0.8232074 0.19047055 -0.099894315
-0.63671446 -0.050625168 -0.7200882 0.021562897 -0.7031977 -0.043163646 0.33791307 -1.1304334
0.1916437 -1.1030362 -0.87639153 -0.92323446 0.012644682 0.3067629 0.13744944 0.092210844
0.71050304 0.13969268 -1.0065422 -0.48407397 0.08832586 -1.0696777 -0.36744642 -0.817416
0.27113566 0.29971147 -1.6788663 0.40229353 -0.96633434 -0.08404698 0.3349299 -1.3656175
0.25632933 -0.14268877 0.07695171 0.40543923 0.026188077 0.23603173 -0.121088706 -0.11152096

batch_norm_3.running_mean f4 [128]
00000000: 9f27 3441 e47c 9840 a265 3740 ba39 e2c0
00000010: b071 85bf 206a 5fbe a7c5 85c0 9f50 4640
00000020: 4dcc 0641 89d8 13bf 1af6 ec3f 0665 9f41
00000030: d98e f53f cdc9 5040 2d13 0f40 5d73 1e3f
00000040: 48d3 813f 4add b13f c51b 893f 3038 20c0
00000050: 2d55 c63f e222 fbc0 1be9 4340 a940 7e3f
00000060: 4324 683e ffd6 7ac0 d0d2 b6bd d987 5a41
00000070: abbc 7240 8799 0440 a0cd a4bf 6f70 1640
00000080: b476 11c0 f4b7 bc40 8a9f 693e 3420 69c0
00000090: e3ce 6640 fea8 7540 5eba 3940 77d5 47bf
000000a0: 0235 f23f 5b68 c040 0180 d6bf 4673 4840
000000b0: eac3 19bb 0636 b23f 6def 0bc0 170e 6940
000000c0: 068d 113f a1f6 2fc0 ad3b 5fc0 8356 44bf
000000d0: 4329 6440 7656 10c0 85d0 8bbf 1b0d 6540
000000e0: 1490 d440 9f35 81be 6b18 4040 d194 e73e
000000f0: 1be5 10c0 17cd 3740 7844 c9bf a51a 43be
00000100: 7746 3640 58ed 2a40 fdb2 ab40 2fa4 2b40
00000110: 727f 1ec1 4c5d a5c0 efe4 48bd cca3 fe3f
00000120: 17cd fdbe 787d 96c0 7086 ad40 10de edbf
00000130: 1195 b440 b012 0cbf 0f38 bb3f 77f1 dc3f
00000140: 0fcc d1c0 d737 2440 4a4f bd3f 4f11 4640
00000150: accc a1bf 20fc abbe ab62 3b40 cf65 ebbf
00000160: e3b0 fd3e bb3e 25bf d267 24bf 333d 6c3d
00000170: 3855 8b40 6b52 3cbf ead5 9d40 2d1b 0040
00000180: bfaf 4840 5f6f a6be d284 4840 ba57 dd3f
00000190: 3ea9 97bf 36a7 8b40 093d 0940 c94a a83f
000001a0: 40e8 2041 e936 1b40 ba3b 4640 b6de aabf
000001b0: 64ca 9e3f 1600 8fbf 852c 8a41 322b 55bf
000001c0: 3d91 6e40 1670 7540 d31e 4141 fee6 9b40
000001d0: b958 c7c0 f6cf 1cc0 29b0 5640 1ea5 94bf
000001e0: 70ff 4340 cce2 24c0 de9e c53f d519 9c40
000001f0: 99c2 5c3e 1597 5040 84ef 47c0 24dc acbf
11.259673 4.7652454 2.8655782 -7.0695467 -1.042532 -0.21817827 -4.1803775 3.0986707
8.424878 -0.5775228 1.8512604 19.924328 1.9184219 3.262317 2.2355454 0.6189478
1.0142603 1.3895657 1.07116 -2.5034294 1.5494744 -7.848008 3.0611026 0.99317414
0.22670083 -3.9193723 -0.08926928 13.658166 3.7927654 2.0718706 -1.2875252 2.3506124
-2.27287 5.897455 0.22814766 -3.6425905 3.6063774 3.8384395 2.902 -0.78060097
1.8922427 6.0127387 -1.6757814 3.1320357 -0.002346272 1.3922737 -2.1864884 3.641485
0.5685581 -2.749428 -3.4880173 -0.76694506 3.5650184 -2.2552772 -1.092301 3.578925
6.6425877 -0.25236222 3.0014904 0.45230725 -2.2639835 2.8718927 -1.572402 -0.19053133
2.8480508 2.6707363 5.365599 2.681896 -9.906115 -5.167639 -0.049046453 1.9893737
-0.49570534 -4.702816 5.422661 -1.8583393 5.6431966 -0.54716015 1.4626483 1.7261189
-6.5561595 2.5659082 1.4789822 3.0948064 -1.2640586 -0.33590794 2.9278972 -1.8390445
0.49549016 -0.64548844 -0.6422092 0.05767555 4.3541527 -0.7356326 4.9323626 2.0016587
3.1357267 -0.32506844 3.1331067 1.7292397 -1.1848524 4.3641615 2.1443503 1.3147823
10.056702 2.4252264 3.0973954 -1.3349216 1.2405515 -1.1171901 17.271738 -0.83269036
3.7276146 3.8349662 12.070025 4.8719473 -6.2295804 -2.450193 3.354502 -1.161289
3.0624657 -2.5763426 1.5439107 4.8781533 0.21558608 3.2592213 -3.1239939 -1.3504682

batch_norm_3.running_var f4 [128]
00000000: 0fce 2443 fb45 b344 b208 8444 eb1e 3744
00000010: 32d9 8144 07c6 8744 eb1d bc44 4556 6444
00000020: a6b7 1643 e083 5944 123c 8144 e2f6 1044
00000030: 1844 2e44 7b2d 4c44 807a 3944 d4a5 c744
00000040: 7e64 4f44 c39d 2244 aaf2 fa43 1fbf ae44
00000050: 6ce7 a644 0ace 4244 9343 6844 1b42 2f44
00000060: f997 8344 256d 5e44 408a 5844 cdb5 3a43
00000070: 4e66 3844 0858 bd43 2646 7b44 6997 4844
00000080: 9f18 3b44 2062 a843 ffae 6644 ab82 bc44
00000090: 4b2b 4244 7b85 0d44 b208 9844 c0f6 6744
000000a0: cffa 8544 2bc6 6a44 6515 6444 c2a7 2c43
000000b0: 7cc1 8a44 9943 6d44 b126 e944 6a23 2b44
000000c0: e993 4b44 9df2 5b44 2d8e 7244 1c36 9e44
000000d0: d1e6 3f44 1ec1 7c44 bbe5 9f44 5f09 5444
000000e0: 7c44 d543 8f6c 2e44 de88 0b44 deee f243
000000f0: c932 4043 f8d5 9944 2e0c c844 36c0 9844
00000100: b317 aa44 3d0e 6744 1df7 a244 1dbb 2c44
00000110: ca7b 0d44 cd50 d244 9310 e444 8cad a444
00000120: 467b 0644 409c 5344 a8d2 d144 59f0 8344
00000130: b2cb 7843 514e 7044 2976 c744 3d87 9c44
00000140: 46ec 8644 7dad 5c44 02d8 5244 2b6a 3344
00000150: bc84 3344 dce7 2944 e22e 5444 c400 9944
00000160: 427e 6044 af28 9844 fd5f 6744 599e 8844
00000170: 968b 0543 ca9e 9444 b587 4844 1153 4744
00000180: 105a 8844 2115 6244 610f 0944 b261 3344
00000190: 036f 9044 ffed ad44 e84e 8644 a6f1 7644
000001a0: e3f2 ae44 d006 8c44 4ffd 3344 f456 6444
000001b0: c5a9 8844 231c 5444 dff9 c743 87e7 4f44
000001c0: 1b15 5144 852a 3444 daa8 5743 d481 d944
000001d0: ef31 9244 09ba c944 4082 a744 8fb3 6b44
000001e0: 1965 4044 10d0 a644 fddf 8444 8c40 be44
000001f0: 4402 8844 f789 4444 77ce ae44 6ba9 9644
164.80492 1434.1869 1056.2717 732.4831 1038.7874 1086.1884 1504.9349 913.34796
150.71738 870.06055 1033.8772 579.85754 697.06396 816.71063 741.91406 1597.1821
829.5702 650.465 501.8958 1397.9725 1335.2319 779.21936 929.05585 701.0329
1052.7491 889.7054 866.16016 186.71016 737.5985 378.68774 1005.09607 802.3658
748.3847 336.7666 922.7343 1508.0834 776.67645 566.08563 1216.2717 927.85547
1071.8378 939.0964 912.3343 172.6553 1110.0464 949.0562 1865.2091 684.55334
814.3111 879.79083 970.2215 1265.6909 767.6065 1011.01746 1279.1791 848.1464
426.53503 697.6962 558.13855 485.86615 192.19838 1230.6865 1600.3806 1222.0066
1360.7406 924.2225 1303.7223 690.92365 565.9342 1682.525 1824.518 1317.4233
537.92615 846.4414 1678.583 1055.5109 248.79568 961.2237 1595.6925 1252.2262
1079.3835 882.71075 843.3751 717.6589 718.074 679.6228 848.73254 1224.0239
897.9728 1217.2714 925.4998 1092.9484 133.54526 1188.9622 802.1204 797.2979
1090.8145 904.33014 548.2403 717.5265 1155.4691 1391.4374 1074.4658 987.77576
1399.5902 1120.2129 719.95795 913.35864 1093.3053 848.43964 399.95212 831.6176
836.3298 720.66437 215.65958 1740.0571 1169.5604 1613.8136 1340.0703 942.8056
769.57965 1334.502 1062.9996 1522.0171 1088.0708 786.1557 1398.452 1205.2943

batch_norm_4.weight f4 [128]
00000000: 1bb2 763f 5c7f b93d 3400 b9bd 1e94 8b3d
00000010: ab1a 813f f72d 7d3f 5342 163f 8caf 083e
00000020: f92c 073d 4cf5 a43f 9c97 593f 74f4 9c3f
00000030: be52 6d3f 6cbf 9abb 1106 863f 648a 433d
00000040: 64d9 3e3d 619b 8a3f 066e 653f f8b7 6e3f
00000050: 2d02 803f dff0 693f 9c39 5b3f 2b99 733f
00000060: 0b1a 5e3f 275c 143d a825 f33d e4fa de3b
00000070: 400e 1f3d 0396 163c cc31 cf3e 88d4 5e3f
00000080: b92f 803e a52d 6e3f e666 713f 6578 023e
00000090: eddb 743f 021a 863f ab34 513f 4824 673d
000000a0: 1d92 823f 05d1 853f 2993 6d3f d27b 143d
000000b0: 99bd 673f e5e9 613f 3737 833f 355d 753f
000000c0: e796 8eba 0ce7 7b3f f955 543e 50cc 0f3f
000000d0: d9fd 783f 588c 5d3f ee2d 183d 13f9 9f3f
000000e0: 0064 723f 11ba 683f 4b6f 843f 4a32 6e3f
000000f0: 837f dbbc 3797 e63d f35b 583d 42ab 6c3f
00000100: 873d d73b 72c3 51bc c629 653f c7cc 0c3f
00000110: ce6f 7e3f f46b 6f3f eaf1 f93d 4d47 6f3f
00000120: 98d1 0e3e bea3 713f a7e2 0c3d b3fe 713f
00000130: 561d aa3e 3b44 32bb cf95 5e3f e638 743f
00000140: 43e0 573f 1ced 063f 5c20 513f fc88 823c
00000150: c44c 833f 35b9 b93d 1be5 0e3f b6fa cc3d
00000160: 7c60 75bc 2f94 a03f 5f2f 6a3f 6756 933f
00000170: 04ab e63e d963 8f3f 68fb ce3e 9b3b 1b3d
00000180: 364a 693f 0776 b8ba 5b29 c63e aab4 4f3f
00000190: 5865 753f 489b 603f 385d 243e e78c 993f
000001a0: 0a7a 513f ca48 853f f73c 493d 996c cb3b
000001b0: dd13 7a3f 1881 3b3e 1ee5 773c d977 b33f
000001c0: 9b67 033e b71b 913f 2ec9 883f 3f4e 2c3e
000001d0: 722d 8d3f cf65 673d 0b0d 913f ec86 813f
000001e0: c488 a23f b924 603f e12f 633f 1666 4b3e
000001f0: 8fbd 673f 1aec 4f3f 5b95 c13f 2d3a 5c3f
0.9636552 0.09057495 -0.09033242 0.068153605 1.0086263 0.9889826 0.5869495 0.13348216
0.033001874 1.2887359 0.8499696 1.2262101 0.9270438 -0.0047225263 1.0470601 0.0477394
0.04659404 1.0828668 0.8962101 0.93249464 1.0000664 0.91383165 0.8563478 0.9515559
0.8675849 0.036220696 0.11872417 0.006804811 0.03883195 0.009191039 0.4046768 0.87043047
0.2503641 0.930384 0.94297636 0.1274124 0.9564808 1.0476687 0.8172099 0.056431085
1.020084 1.0454413 0.92802674 0.036250897 0.9052368 0.8824752 1.0251225 0.9584535
-0.0010878713 0.98399425 0.20735921 0.5617113 0.9726234 0.8654227 0.037153177 1.2497886
0.9468384 0.90908915 1.0346464 0.93045485 -0.0267942 0.11259311 0.052822065 0.9244882
0.006568614 -0.012802945 0.89516866 0.54999965 0.9938935 0.935241 0.122043446 0.9346817
0.13947141 0.94390476 0.03439584 0.94529265 0.33225507 -0.0027201313 0.8694734 0.9539932
0.8432657 0.5270555 0.8169 0.01593446 1.0257802 0.090685286 0.5581834 0.10008757
-0.014976617 1.2545222 0.9147853 1.1510743 0.4505235 1.1202346 0.40426183 0.03789864
0.9112886 -0.0014073261 0.38703427 0.81135046 0.95857763 0.8773694 0.16051185 1.1996125
0.8182684 1.0412838 0.049130406 0.006208014 0.9768656 0.18310964 0.015130309 1.402095
0.12832491 1.1336583 1.0686395 0.16826724 1.1029494 0.056493577 1.1332105 1.01193
1.2697988 0.87556034 0.8874493 0.19863161 0.9052362 0.8121964 1.5123705 0.8602627

batch_norm_4.bias f4 [128]
00000000: ef49 823c 9982 69bf a752 80bf dff8 74bf
00000010: 2216 df3c 4538 d43b 8a4e 0ebf 040a 65bf
00000020: e523 81bf 80b2 cd3d 8542 383c ed83 7fbe
00000030: 3b38 05bd 840d 81bf ebf6 11bd c119 77bf
00000040: 782a 77bf 1005 d5bd 89af af3c 7d53 79bc
00000050: ae73 53bb 5964 3abc b28d 9e3d b19f 36bd
00000060: 50d7 b2bd 7537 79bf 67e1 5fbf 0a0b 7dbf
00000070: ed02 7abf d8ed 77bf 1ff9 e8be e000 ca3c
00000080: 4379 5ebf ff32 57bd dfd9 8dbd ca68 63bf
00000090: 2880 aebc 9b9a 9c3d 8611 bcbb 3b95 75bf
000000a0: 91e7 efbd 5b37 b9bd d22f 5fbd 8e22 75bf
000000b0: 38f0 00bd 0ade 2f3c a635 f0bc f23c f2bc
000000c0: 5eec 7ebf e91f 00bc 9eaa 51bf ff32 cebe
000000d0: 2d41 3c3a 8b7c af3c 0d13 73bf fcff 07be
000000e0: 2c0f 2c3d c9ac 9bbd e81a fbbc 1db1 0f3c
000000f0: 0e76 81bf 22e6 61bf cfe8 6fbf 89d5 3c3d
00000100: 2637 7ebf 1bb9 84bf 1867 34bd 5be9 1fbf
00000110: 9731 49bd 5c48 0dbb e90d 67bf dd77 81bc
00000120: e2c6 5dbf 5c4e 8abd 1f33 7ebf 01bd 613d
00000130: fdf7 52bf d2cb 83bf 3a73 4d3c 215c 023d
00000140: 9195 9f3c d19e 19bf 86ec ccbc 5aab 81bf
00000150: 8e8d 903b ca96 6abf 6692 02bf b95b 67bf
00000160: de84 82bf 3920 1abd eded 85bd ea2f 00be
00000170: 71ce 34bf c576 fe3a 3097 d7be 00a5 78bf
00000180: be09 9abd 6759 80bf b9c9 03bf 99f3 a23c
00000190: 9973 b23c 77f2 07bf f80b 5abf 9693 2ebe
000001a0: 4991 35bd b209 aebd 1b90 72bf d237 7dbf
000001b0: 15b2 35bd 4082 58bf 8ca8 7dbf 0dbd d4bd
000001c0: 60c6 61bf b4a5 0dbe 7ad9 d9bd adc3 51bf
000001d0: d53c ba3d 4b01 78bf df0d 2abe 957a cabd
000001e0: fcea 13be f534 a5bc 25b5 02bd 8c4c 49bf
000001f0: a6cc 8dba 5a7b a3bc ee5d ecbc 1ab1 9238
0.015904395 -0.912149 -1.0025223 -0.9569225 0.027232233 0.0064764344 -0.5558859 -0.8946841
-1.0089079 0.10043812 0.011246328 -0.2495267 -0.03252433 -1.008225 -0.03563587 -0.9652367
-0.9654918 -0.10401356 0.021446006 -0.015217659 -0.0032264995 -0.011376464 0.0774187 -0.044585887
-0.08732474 -0.97350246 -0.8745331 -0.9884497 -0.97660714 -0.96847296 -0.45502564 0.02465862
-0.8690378 -0.052538868 -0.06926321 -0.8883177 -0.021301344 0.07646676 -0.0057393936 -0.9593083
-0.1171409 -0.09043761 -0.054488964 -0.9575585 -0.03147909 0.010734091 -0.029322457 -0.029570077
-0.9957942 -0.007820108 -0.81900966 -0.40273282 0.0007181343 0.021421691 -0.94950944 -0.13281244
0.042006657 -0.076013155 -0.030652478 0.008770254 -1.0114152 -0.8824178 -0.9371461 0.04610208
-0.993029 -1.036899 -0.04404363 -0.6246545 -0.04911956 -0.0021558022 -0.902556 -0.015804226
-0.86631596 -0.06753227 -0.99296755 0.05511189 -0.8240965 -1.0296576 0.012539679 0.031826142
0.019480499 -0.6000796 -0.025015127 -1.0130417 0.004411406 -0.91636336 -0.51004636 -0.9037433
-1.0196798 -0.037628386 -0.06539521 -0.12518278 -0.70627505 0.0019414058 -0.42107534 -0.9712677
-0.075213894 -1.0027283 -0.5147968 0.019891547 0.021783637 -0.53104347 -0.8517451 -0.17048487
-0.044328008 -0.08497943 -0.9475114 -0.989133 -0.044359285 -0.84573746 -0.9908531 -0.10387621
-0.8819332 -0.13832742 -0.106371835 -0.819392 0.09093634 -0.9687697 -0.16606854 -0.09886662
-0.14445108 -0.020166853 -0.031911034 -0.78632426 -0.0010818436 -0.01995628 -0.028853383 6.99481e-05

batch_norm_4.running_mean f4 [128]
00000000: 5a36 1fc0 8151 9ac1 9f73 cebf 6031 34c1
00000010: c4b9 00c0 3d34 02c0 b956 d2bf be00 48c1
00000020: 3cae 20c1 e2a9 2740 26c5 06c0 dc48 7dc1
00000030: 66a5 81c0 3ac7 9bc1 9f25 a3c0 dca5 a0c1
00000040: 001a 4fc1 083b 0fc1 0696 e8bf 8179 98c0
00000050: bcfd 24c0 d02f 5fc0 1e56 f83f 7562 cbc0
00000060: 32aa 17c1 ceed 73c1 b31f bbc1 71c9 7ec1
00000070: 5f0c 78c1 37b8 90c1 3ab5 24c1 b483 95bf
00000080: eb67 17c1 378c d1c0 e983 04c1 7346 2c41
00000090: 45c9 69c0 ae70 2b40 859d 90c0 6157 97c1
000000a0: 0a18 22c1 ec8c 05c1 a463 e6c0 6265 a3c1
000000b0: 3fc8 c1c0 ee3d 24c0 202a bac0 b84a 8bc0
000000c0: bea4 07c1 32b5 52c0 2e6f 07c0 2333 a43f
000000d0: ae32 89c0 f2e4 9ebf f0d4 d4c1 e8b7 03c1
000000e0: 38f2 b5bf 0b09 08c1 5de5 aac0 96f1 82c0
000000f0: 7f34 9fc1 f3eb a3c1 c5e8 a5c1 f4a7 43bf
00000100: a397 c1c1 8974 bdc1 3d1d c2c0 14de 0641
00000110: 845a b7c0 b795 2bc0 8f59 a7c1 6bcb aac0
00000120: 4672 1d41 9591 05c1 3f45 91c1 ff78 683f
00000130: b6c9 e0c0 3c6a 77c1 f4f3 01c0 49c9 45bf
00000140: 2255 1bc0 ff5b b03d cb41 a7c0 0a8c 69c1
00000150: 5592 2ac0 b173 d3c1 e1a2 bbbf f670 91c1
00000160: fb2a 69c1 f08d 81c0 e68a 02c1 738c 25c1
00000170: 5936 bfc0 9169 04c0 5f35 78c0 33f7 aec1
00000180: 2104 16c1 3699 71c1 9c9c 8ac1 ad5a 35c0
00000190: db2f afbf 3474 2841 c8cc 64c1 0e30 b840
000001a0: 8176 ecc0 70f5 efc0 8c05 d8c1 69ba 27c1
000001b0: 4de8 bbc0 ed2f 2fc1 ef1a 61c1 a828 e5c0
000001c0: 10e7 1f40 5744 2fc1 1902 18c1 4022 8fc1
000001d0: 4d9f 4f40 eadd 85c1 5325 49c1 40a0 13c1
000001e0: 814b 1dc1 79fa 90c0 1e4b b8c0 80d3 8d40
000001f0: 66d5 c9bf ec5a a2c0 f188 4cc0 ec54 99c0
-2.4876924 -19.289797 -1.6129035 -11.262054 -2.0113382 -2.0344384 -1.6432716 -12.500181
-10.042538 2.6197438 -2.105783 -15.830288 -4.0514402 -19.472279 -5.0983424 -20.080986
-12.943848 -8.951912 -1.8170784 -4.764832 -2.5779867 -3.4872932 1.9401281 -6.3557687
-9.479052 -15.245558 -23.390478 -15.92418 -15.50302 -18.089949 -10.294245 -1.1680818
-9.462871 -6.548366 -8.282205 10.7671995 -3.6529095 2.6787524 -4.5192285 -18.917665
-10.130869 -8.346905 -7.199663 -20.424503 -6.055694 -2.56628 -5.817642 -4.352871
-8.47772 -3.2923093 -2.1161609 1.2828106 -4.2874365 -1.2413619 -26.603973 -8.232399
-1.4214544 -8.502208 -5.3404984 -4.0919905 -19.900633 -20.49021 -20.738657 -0.7642815
-24.199041 -23.681902 -6.066069 8.429218 -5.7297993 -2.6810129 -20.91873 -5.3373313
9.840399 -8.3480425 -18.158812 0.90809625 -7.024623 -15.463436 -2.0305147 -0.7726026
-2.427071 0.08611297 -5.2267814 -14.596689 -2.6651814 -26.43149 -1.4659082 -18.180157
-14.572993 -4.0485764 -8.158911 -10.346789 -5.975384 -2.0689433 -3.8782575 -21.870703
-9.376008 -15.099905 -17.32647 -2.8336594 -1.3686479 10.52837 -14.299995 5.755866
-7.389466 -7.4987106 -27.002708 -10.48301 -5.872107 -10.949201 -14.069076 -7.161213
2.498478 -10.954185 -9.500512 -17.891724 3.244098 -16.733356 -12.571612 -9.226624
-9.830934 -4.5305753 -5.7591696 4.432068 -1.5768249 -5.073599 -3.1958582 -4.7916164

batch_norm_4.running_var f4 [128]
00000000: 3dec 4d45 37e9 0b44 0534 ed43 22e1 cd43
00000010: 4a16 5d45 68b5 3a45 948f b844 71f3 be43
00000020: a538 b643 c2ed 8045 3c06 6a45 dee8 7445
00000030: 8e0e 2645 ed83 3d44 2a31 a045 0569 1744
00000040: 8d1d c844 dc34 9445 7d0e 6745 3383 7b45
00000050: 16b0 4545 75c1 2545 e2fd 2d45 218d 3145
00000060: ae47 4145 f5c1 c943 5e20 1d44 1762 ef43
00000070: a44e b644 6129 e643 a6ff b044 35f9 4345
00000080: 0218 e843 ce49 2845 685d a245 4828 2b44
00000090: 1987 5145 28ca 9d45 81ca 6145 8602 4344
000000a0: 8202 6545 ff93 3945 037d 4c45 b9a6 0844
000000b0: 5163 7245 8630 7445 67a9 7445 847c 2c45
000000c0: d04c ad43 d5e0 7745 284b 6244 1e2c 3a45
000000d0: 055f 2b45 33c9 6f45 80bf 4944 6794 5845
000000e0: aadb 2545 1f40 8545 0822 a845 d98b 4445
000000f0: f654 3844 ab54 0344 0d88 1044 9e6f 5745
00000100: c868 8b44 c08c 3844 7ec2 2545 46be d544
00000110: d7c3 3745 63d3 5c45 757f 2844 f5fc 6845
00000120: 11ca 5144 2dcd 5545 00a0 4644 cce8 5445
00000130: bd9d bd43 7bd2 6644 16cc 3a45 98c4 4d45
00000140: 21d9 5545 df37 f244 bee2 5c45 9381 5044
00000150: a58b 4f45 99e0 3e44 575b e944 dffe d143
00000160: 999a 4544 1b84 7545 7157 5245 2cde 8e45
00000170: e165 ac44 6837 5945 e736 0245 ccf7 0844
00000180: 575f 3d45 df16 8d44 9bf6 af44 6ef5 5845
00000190: 154d 4845 8ef3 1945 b22f b943 b001 0745
000001a0: b5c9 4345 af7c 2845 6b97 3e44 ee07 d844
000001b0: 7551 6e45 7e47 9244 d386 2e44 21b3 6a45
000001c0: c0b6 a044 4fdf 8e45 11f7 a745 682e f743
000001d0: c37a b045 8f5b fa43 2864 8845 2c4a 5345
000001e0: ef5e 6c45 c320 4945 1393 5045 5a29 1e44
000001f0: 1146 3145 ecff 6945 be93 3345 bdfa 1845
3294.765 559.644 474.4064 411.75885 3537.393 2987.338 1476.4868 381.9019
364.44254 4125.7197 3744.3896 3918.5542 2656.9097 758.06134 5126.1455 605.6409
1600.9235 4742.6074 3696.9055 4024.2 3163.0054 2652.091 2783.8677 2840.8206
3092.48 403.5153 628.50574 478.76633 1458.4575 460.32327 1415.989 3135.5754
464.18756 2692.6128 5195.676 684.6294 3352.4436 5049.2695 3612.6565 780.0394
3664.1567 2969.2498 3271.8132 546.60504 3878.2073 3907.0327 3914.5876 2759.7822
346.6001 3966.052 905.1743 2978.7573 2741.9387 3836.575 806.9922 3465.2751
2653.729 4264.015 5380.254 3144.7405 737.3275 525.32294 578.1258 3446.976
1115.2744 738.1992 2652.1558 1709.946 2940.24 3533.2117 673.9915 3727.8098
839.1573 3420.8235 794.5 3406.5498 379.23233 923.28876 2988.7554 3292.287
3421.5706 1937.746 3534.1714 834.0246 3320.7278 763.50934 1866.8544 419.99118
790.4156 3928.2566 3365.465 4571.7715 1379.1837 3475.463 2083.4314 547.8718
3029.9587 1128.7147 1407.7064 3471.3394 3204.8176 2463.2222 370.37262 2160.1055
3132.6067 2695.7927 762.3659 1728.2478 3813.091 1170.2341 698.1066 3755.1956
1285.7109 4571.9136 5374.8833 494.36255 5647.345 500.7153 4364.5195 3380.6357
3781.9333 3218.0476 3337.1921 632.6461 2836.3792 3743.995 2873.234 2447.6711
