tensorboard_exps/20200409_233515/best_snapshot_fc_0.pth (torch_old, 197013 bytes, 24 tensors)

batch_norm.weight f4 [100]
0	0x3feca5fd	1.8488156
1	0x3fc09a81	1.5047151
2	0x400b2bb2	2.174542
3	0x402ae9ed	2.6705277
4	0x3fff3ee2	1.9941065
5	0x3fb5e227	1.4209641
6	0x40431b65	3.048547
7	0x4019bffa	2.4023423
8	0x3fd67969	1.6755801
9	0x3fd952c4	1.6978383
10	0x40379b2d	2.8688462
11	0x40215c50	2.5212593
12	0x40256fce	2.584949
13	0x40535c70	3.302517
14	0x3ffb5c60	1.9637566
15	0x3f84610b	1.0342115
16	0x3ff4899c	1.9104495
17	0x3fe60943	1.7971576
18	0x3fd4cec8	1.6625605
19	0x4000afbf	2.0107267
20	0x400954e9	2.1458075
21	0x3fd3e120	1.6553078
22	0x3f911ad3	1.1336311
23	0x3f9ab8fd	1.2087704
24	0x3fd7f3b5	1.6871248
25	0x3fb414fb	1.4068903
26	0x400addd6	2.1697898
27	0x3f9c6807	1.2219247
28	0x403415cf	2.813831
29	0x4067ad47	3.619951
30	0x401d31f4	2.456174
31	0x3f728937	0.94740623
32	0x3f741ed8	0.95359564
33	0x3f86a6b4	1.0519624
34	0x3f784fe1	0.96996886
35	0x3f324e98	0.69651175
36	0x3fe4f87c	1.7888331
37	0x3fa1888a	1.2619793
38	0x3f62ac3a	0.88544047
39	0x3e9d3e09	0.30711392
40	0x3f5a684d	0.853154
41	0x3f051a30	0.51993084
42	0x3f38ab53	0.7213642
43	0x3f9e94ad	1.2389122
44	0x3f7976d2	0.9744693
45	0x3fd3a003	1.6533207
46	0x400589a7	2.0865266
47	0x3f4e0d1d	0.8048876
48	0x3f37dd79	0.71822315
49	0x3f609ce2	0.87739384
50	0x3f83add3	1.0287422
51	0x3f598e1b	0.8498246
52	0x3f1ef590	0.6209345
53	0x3f4f1bd5	0.80901843
54	0x3f903591	1.1266347
55	0x3fb719f4	1.4304795
56	0x3ffc8036	1.9726627
57	0x3fab0459	1.3360702
58	0x3fe1a32b	1.762792
59	0x3ef5ddb4	0.4802071
60	0x3f8891bf	1.0669478
61	0x3f9062ce	1.1280153
62	0x3faef7ad	1.3669335
63	0x3f585fb4	0.8452103
64	0x3f8ce1f4	1.1006455
65	0x3f109c06	0.5648807
66	0x3ec8bcbc	0.39206493
67	0x3f4fed77	0.8122172
68	0x4006ddb9	2.1072829
69	0x3feafc8e	1.8358324
70	0x3f63e843	0.8902628
71	0x3f22ae53	0.6354725
72	0x3f96bf29	1.1777087
73	0x3f4558ab	0.7708842
74	0x3fb2c7ee	1.3967264
75	0x3f4af4b4	0.7927964
76	0x3fb9ec66	1.4525268
77	0x3f33d1a5	0.7024177
78	0x3fb20ba9	1.3909808
79	0x3f215f8f	0.63036436
80	0x4036d6f6	2.8568702
81	0x4003c3d1	2.0588267
82	0x3fdc7bb2	1.7225249
83	0x3f0e90c0	0.5568962
84	0x3fba8455	1.4571635
85	0x3f30c651	0.69052607
86	0x3f885804	1.065186
87	0x3f845f7e	1.0341642
88	0x3f67708e	0.9040612
89	0x3f45e950	0.7730913
90	0x3f88baa6	1.068196
91	0x3fa1a192	1.2627432
92	0x3fd86c46	1.6908042
93	0x3f36e17f	0.7143783
94	0x3fbbe197	1.467822
95	0x3fcbb8c5	1.5915762
96	0x400a4239	2.160292
97	0x3f81a019	1.0126983
98	0x3fce2357	1.6104535
99	0x3fa69663	1.3014644

batch_norm.bias f4 [100]
0	0x3cbba77c	0.022907011
1	0xbc9292b7	-0.017892225
2	0x3c370672	0.01117097
3	0x3ccfef19	0.025382565
4	0x3cc2096c	0.023686133
5	0xbd88f3b0	-0.06687105
6	0xbc390032	-0.0112915505
7	0xbc0e49ce	-0.008684589
8	0xbd821e87	-0.06353479
9	0xbd80605d	-0.0626838
10	0xbd59bed7	-0.053160515
11	0x3d287fd0	0.041137516
12	0xbcbe7c4e	-0.023252632
13	0xbd9387f4	-0.072036654
14	0xbcdd3a9f	-0.027005492
15	0xbd214a7e	-0.039377682
16	0x3c954937	0.018223388
17	0x3b5b56f0	0.0033468567
18	0xbc0452f5	-0.008076419
19	0xbb3d1c98	-0.0028856155
20	0xbc91dc9f	-0.017805396
21	0xbbb80682	-0.00561601
22	0x3dc463ff	0.09589385
23	0xbc77f94f	-0.015135123
24	0x3ce317ae	0.027721252
25	0xbd860a7d	-0.06544969
26	0xbcce8948	-0.025211945
27	0x3d96ed8f	0.073695295
28	0xbd467e81	-0.048460487
29	0xbcf3cc6e	-0.029760566
30	0x3d38637d	0.045016754
31	0xbd861280	-0.06546497
32	0x3b393797	0.0028261894
33	0xbc4f2cc7	-0.012644953
34	0xbcc505bf	-0.024050592
35	0xbd60be85	-0.054869194
36	0xbc833adb	-0.016019275
37	0x3cfe436f	0.031038014
38	0x3c14cad7	0.009081564
39	0xbd9358ca	-0.071946695
40	0xbb0517ad	-0.0020308301
41	0xbd7510d0	-0.059830487
42	0x3d0b220d	0.03396802
43	0xbd5c759f	-0.05382311
44	0xbd003608	-0.03130153
45	0x3d2ebd5f	0.042661067
46	0x3d1d1876	0.038353406
47	0xbc88c6f8	-0.016696438
48	0xbdb92552	-0.090403214
49	0xbbbf4b0f	-0.005837805
50	0x3d622f70	0.05522102
51	0x3c4aeaa2	0.012385042
52	0xbbca3f7b	-0.0061721182
53	0xbc596178	-0.013267867
54	0xbd05ed3a	-0.03269694
55	0x3d58009e	0.052734964
56	0xbd10eb74	-0.035380796
57	0xbbaf5236	-0.0053503765
58	0x3c71bdd7	0.014754734
59	0xbd840bc8	-0.064475596
60	0xbd69d9d8	-0.057092518
61	0xbc58ad80	-0.013224959
62	0xbc8c6b1f	-0.017140923
63	0xbb001eb2	-0.0019549546
64	0x3c366f9b	0.011135007
65	0xbda9b3fb	-0.08286282
66	0x3d4cb514	0.049977377
67	0xbd6ac4b1	-0.057316486
68	0xbc8487b5	-0.016177991
69	0xbd266970	-0.040627897
70	0x3cb8e7bc	0.022571437
71	0xbd0051de	-0.031328075
72	0xbd55d368	-0.052203566
73	0xbc243708	-0.010022886
74	0xbd213929	-0.039361153
75	0x3c68df85	0.014213447
76	0xbbf6e359	-0.007534426
77	0x3d05ace0	0.03263557
78	0x3d4dd835	0.05025502
79	0xbc71bfbb	-0.014755185
80	0x3d6226d5	0.055212814
81	0xbd2abedc	-0.041685924
82	0x3d67e016	0.05661019
83	0xbcc565eb	-0.02409645
84	0x3d1ece3b	0.038770895
85	0x3c23b09e	0.009990839
86	0xbd623632	-0.055227466
87	0xbd0daaa5	-0.034586567
88	0x3bcf5f93	0.006328532
89	0xbc5fac6b	-0.0136519475
90	0xbcda3093	-0.02663449
91	0x3d92ab93	0.071616314
92	0x3d4253c9	0.047443185
93	0xbb1c92b2	-0.0023891148
94	0x3d1a3cf7	0.037655797
95	0x3cb42cbd	0.02199399
96	0xbd155187	-0.036454704
97	0xbd858fb3	-0.06521549
98	0x3cd476d2	0.025935564
99	0xbc8d10da	-0.01721995

batch_norm.running_mean f4 [100]
0	0x432ae4fb	170.89445
1	0x432abda9	170.74086
2	0x432acf70	170.8103
3	0x432abc4a	170.7355
4	0x432afe8d	170.99434
5	0x432adc75	170.86116
6	0x432aec22	170.9224
7	0x432ae5eb	170.89812
8	0x432af748	170.96594
9	0x432adf12	170.87137
10	0x432ad131	170.81715
11	0x432ab7be	170.71774
12	0x432ad6a0	170.83838
13	0x432ad826	170.84433
14	0x432acd26	170.80136
15	0x432ad91c	170.84808
16	0x432ae215	170.88313
17	0x432ada7b	170.85344
18	0x432ae865	170.90779
19	0x432aba5a	170.72794
20	0x432ada6f	170.85326
21	0x432abf20	170.74658
22	0x432ad682	170.83792
23	0x432ac37b	170.7636
24	0x432aee78	170.93152
25	0x432adda2	170.86575
26	0x432ae485	170.89265
27	0x432af07a	170.93936
28	0x432aee92	170.93192
29	0x432acf3a	170.80948
30	0x432ae85c	170.90765
31	0x432ad2d4	170.82355
32	0x432abca4	170.73688
33	0x432ad0b6	170.81528
34	0x432ad32c	170.82489
35	0x432ac704	170.7774
36	0x432adfb9	170.87392
37	0x432ac291	170.76003
38	0x432ad51d	170.83247
39	0x432ac4d0	170.7688
40	0x432ada5f	170.85301
41	0x432adb1d	170.85591
42	0x432ad3c6	170.82724
43	0x432ade8d	170.86934
44	0x432aea77	170.91588
45	0x432ae12d	170.8796
46	0x432aef54	170.93488
47	0x432ad94d	170.84883
48	0x432ad506	170.83212
49	0x432abb3c	170.73138
50	0x432ac123	170.75444
51	0x432ad015	170.81282
52	0x432ad2ce	170.82346
53	0x432acf39	170.80946
54	0x432ab43b	170.70403
55	0x432adeda	170.87051
56	0x432ad85e	170.84518
57	0x432acf7f	170.81053
58	0x432ad650	170.83716
59	0x432ae212	170.88309
60	0x432abdd5	170.74153
61	0x432ab906	170.72275
62	0x432ac2b1	170.76051
63	0x432ab8d4	170.72198
64	0x432ad167	170.81798
65	0x432aae21	170.68019
66	0x432ad5da	170.83536
67	0x432adf85	170.87312
68	0x432ad1d9	170.81972
69	0x432ac17b	170.75578
70	0x432abfab	170.7487
71	0x432ad11a	170.8168
72	0x432ad750	170.84106
73	0x432abc1f	170.73485
74	0x432aa0e9	170.62856
75	0x432ac87d	170.78316
76	0x432aca60	170.79053
77	0x432aa010	170.62524
78	0x432acda1	170.80324
79	0x432ab24b	170.69646
80	0x432ac7f7	170.78111
81	0x432abf8d	170.74825
82	0x432aa5ce	170.64767
83	0x432ac05a	170.75137
84	0x432ab757	170.71617
85	0x432aca76	170.79086
86	0x432ac5ec	170.77313
87	0x432ae139	170.87978
88	0x432ab634	170.71173
89	0x432ac166	170.75546
90	0x432ae544	170.89557
91	0x432ac507	170.76964
92	0x432ad83e	170.8447
93	0x432ad6d9	170.83925
94	0x432a9ed2	170.62039
95	0x432ab8c0	170.72168
96	0x432ab517	170.70738
97	0x432ab436	170.70395
98	0x432acad5	170.79231
99	0x432ac893	170.7835

batch_norm.running_var f4 [100]
0	0x4521ee95	2590.9114
1	0x4522122b	2593.1355
2	0x45232f9f	2610.9763
3	0x4521b02f	2587.0115
4	0x4522610b	2598.0652
5	0x4521713c	2583.0771
6	0x45229522	2601.3208
7	0x45223f17	2595.943
8	0x4521d544	2589.329
9	0x45229fd3	2601.989
10	0x4522b085	2603.0325
11	0x45232ecd	2610.925
12	0x45224fa5	2596.9778
13	0x4522679f	2598.4763
14	0x4522814d	2600.0813
15	0x4521e9c9	2590.6116
16	0x452323ab	2610.2292
17	0x4522e221	2606.133
18	0x4523c5ea	2620.3696
19	0x4523cdca	2620.8618
20	0x4522d830	2605.5117
21	0x452309f9	2608.6233
22	0x45231c4c	2609.7686
23	0x4522b478	2603.2793
24	0x45228c0d	2600.7532
25	0x45226037	2598.0134
26	0x4522a228	2602.1348
27	0x45236598	2614.3496
28	0x4522ab36	2602.7007
29	0x45226b9e	2598.726
30	0x45231579	2609.342
31	0x45220d1e	2592.8198
32	0x4523ad36	2618.8257
33	0x4523036f	2608.2146
34	0x45237912	2615.567
35	0x4522c6a8	2604.416
36	0x4522c923	2604.571
37	0x4522aba0	2602.7266
38	0x4522c2c8	2604.1738
39	0x4522c8d7	2604.5525
40	0x45228868	2600.5254
41	0x45235b4c	2613.706
42	0x4522e1f2	2606.1216
43	0x45234b1e	2612.6948
44	0x4523862e	2616.3862
45	0x4523039b	2608.2253
46	0x4522a0a8	2602.041
47	0x4522f3f5	2607.2473
48	0x45231781	2609.469
49	0x452263c7	2598.236
50	0x4523857d	2616.343
51	0x452410f6	2625.06
52	0x4522aac7	2602.6736
53	0x452357e0	2613.4922
54	0x45232ecf	2610.9255
55	0x4524933f	2633.203
56	0x4523b5d6	2619.3647
57	0x4523a5dd	2618.3665
58	0x45239b93	2617.7234
59	0x452349a3	2612.6023
60	0x4524d76d	2637.464
61	0x4522eab0	2606.668
62	0x45232e4e	2610.894
63	0x45248630	2632.3867
64	0x4523489d	2612.5383
65	0x4523b2a8	2619.166
66	0x45228f26	2600.9468
67	0x45227f30	2599.9492
68	0x45249364	2633.212
69	0x45221a60	2593.6484
70	0x452347bb	2612.4832
71	0x452394d1	2617.301
72	0x4524385f	2627.5232
73	0x4522ac6a	2602.776
74	0x4523946a	2617.276
75	0x4523299a	2610.6
76	0x4522ad9f	2602.8513
77	0x45224448	2596.2676
78	0x45241cb1	2625.7932
79	0x45230748	2608.455
80	0x45227b27	2599.697
81	0x4524563c	2629.3896
82	0x45235f27	2613.947
83	0x45236f13	2614.9421
84	0x4523dc19	2621.756
85	0x4522ebd6	2606.7397
86	0x45229ecb	2601.9246
87	0x452346ae	2612.4175
88	0x4523cfd4	2620.9893
89	0x45250318	2640.1934
90	0x45232e0a	2610.8774
91	0x4523f522	2623.3208
92	0x4522bc5c	2603.7725
93	0x4522cff5	2604.9973
94	0x45226e2c	2598.8857
95	0x45228b91	2600.723
96	0x45235f91	2613.973
97	0x4524056d	2624.339
98	0x4523e2e8	2622.1816
99	0x4522a4c0	2602.2969

batch_norm_2.weight f4 [128]
0	0x3fb27a4f	1.3943576
1	0x3fb4b71e	1.4118383
2	0x3e17ec41	0.14836217
3	0x3fbd73c1	1.480095
4	0x3fd91d32	1.6962035
5	0x3e8e5ac1	0.27803615
6	0x3fcbf3ac	1.5933738
7	0x3fc0319b	1.5015138
8	0x3fc0b140	1.5054092
9	0x3fdde198	1.7334471
10	0x3fa7fb58	1.3123579
11	0x3ff8ba4a	1.9431851
12	0x3eb86afb	0.3601912
13	0x3fc9cb8c	1.5765243
14	0x3fd2285b	1.6418566
15	0x3fcf5ccc	1.6200194
16	0x3fb3aa5a	1.4036362
17	0x3fd5ed07	1.671296
18	0x3ffa8ef0	1.9574871
19	0x3fc6f1a1	1.5542489
20	0x3ffd7390	1.9800892
21	0x3fcbbb7d	1.5916592
22	0x3fd132a0	1.6343575
23	0x3ff5ce97	1.9203671
24	0x3fcea3c2	1.6143725
25	0x3fc2b050	1.5210056
26	0x3f98994a	1.192178
27	0x40025a5d	2.0367653
28	0x3e85358f	0.26017424
29	0x3ebfcc47	0.3746054
30	0x400afa1b	2.1715152
31	0x3fdd2955	1.7278239
32	0x3fcb33b3	1.5875152
33	0x400984e4	2.148736
34	0x3ff862c6	1.9405143
35	0x3ffa97d8	1.9577589
36	0x3fea52b3	1.8306488
37	0x3eb9bc87	0.36276647
38	0x3fdf28f8	1.7434378
39	0x3fe8dd31	1.8192502
40	0x3eac6e77	0.33678028
41	0x3fe53804	1.790772
42	0x3fbecf43	1.4907001
43	0x3fdcfcd1	1.7264653
44	0x400208de	2.0317912
45	0x3fbe1aa4	1.485188
46	0x401987c2	2.398911
47	0x400109fc	2.0162344
48	0x3fdfdefb	1.7489923
49	0x40058d43	2.086747
50	0x40146f96	2.3193107
51	0x3fcd6c7f	1.6048735
52	0x3ee9d5b8	0.45670867
53	0x3fed653e	1.8546522
54	0x3ff17967	1.8865174
55	0x3fa83daf	1.3143824
56	0x3f9ad872	1.2097304
57	0x3f9b5168	1.2134218
58	0x3fa438e3	1.282986
59	0x3fcfaa6e	1.6223886
60	0x3e9612ca	0.2931121
61	0x3f91a6fc	1.1379085
62	0x3fd83086	1.6889808
63	0x3ed1bab5	0.4096276
64	0x3fbc21bc	1.4697795
65	0x3fd5ad22	1.6693461
66	0x3fe920d5	1.8213145
67	0xbe505adf	-0.20347165
68	0x3fa4b512	1.2867758
69	0x3fd8b0f0	1.6928997
70	0x3f888197	1.0664548
71	0x3dff6626	0.12470655
72	0x3f5fb47f	0.8738479
73	0x3e12fba0	0.143538
74	0x3fa40b04	1.2815862
75	0x3fcc3905	1.5954901
76	0x3ea11d0b	0.3146747
77	0x3fedee68	1.8588381
78	0x3f7d4c34	0.989444
79	0x3fd5e253	1.6709694
80	0x3fd4be6a	1.662061
81	0x3ff775d7	1.9332837
82	0x3fe16a61	1.7610589
83	0x3fe1cd9f	1.7640876
84	0x3ff0ddd3	1.8817695
85	0x3eb7fc7a	0.35934812
86	0x3f9f385c	1.2439075
87	0x3fe90dab	1.8207296
88	0x3ff42289	1.9073039
89	0x3fde29f1	1.735655
90	0x3fe9607b	1.8232569
91	0x3fdde7ea	1.73364
92	0x3feab899	1.8337585
93	0x3fc99f1b	1.575168
94	0x4008b3af	2.135967
95	0x3ff0bf5a	1.8808396
96	0x3e871a91	0.26387456
97	0x3f8f7269	1.120679
98	0xbdcf9386	-0.1013556
99	0x3fb48907	1.4104317
100	0x3fb4c34e	1.4122102
101	0x3fa4c940	1.2873917
102	0x3fcd1663	1.6022457
103	0x3ff75118	1.9321623
104	0x3e694c54	0.22783023
105	0x3feb2511	1.8370687
106	0x4005ff0c	2.0936918
107	0x3ff33e75	1.9003435
108	0x3ee72ab4	0.45149767
109	0x3fa80e81	1.3129426
110	0x40072fc4	2.1122904
111	0x3fd61bd7	1.6727246
112	0x4003da8f	2.0602148
113	0x3fd0f327	1.6324204
114	0x3eb01811	0.3439336
115	0x3fd3c7c6	1.6545341
116	0x3fb9a662	1.4503901
117	0x40116087	2.2715166
118	0x3eb149f0	0.34626722
119	0x3ff28748	1.8947535
120	0x3fa3b166	1.2788513
121	0x3fd835f7	1.6891469
122	0x3fe4c5fa	1.7872918
123	0x3fbdc03d	1.4824291
124	0x3ff24a96	1.8929012
125	0x3fbb2058	1.4619246
126	0x3fce43a4	1.6114392
127	0x3fc8a45d	1.567516

batch_norm_2.bias f4 [128]
0	0xbec62cce	-0.38706058
1	0xbea9aa46	-0.3313772
2	0xbf695837	-0.9115023
3	0xbe5b187b	-0.21396057
4	0xbf82daa9	-1.022298
5	0xbf4c9b29	-0.79924256
6	0xbef92dbd	-0.48667708
7	0xbf111573	-0.56673354
8	0xbea79af8	-0.3273542
9	0xbeddf8a4	-0.4335376
10	0xbeb26e1d	-0.34849635
11	0xbf528e81	-0.82248694
12	0xbf4fd677	-0.8118662
13	0xbf252084	-0.6450274
14	0xbf369cce	-0.71333015
15	0xbebacff7	-0.3648679
16	0xbee5e3e4	-0.4490043
17	0xbecffe4f	-0.4062371
18	0xbf44d694	-0.7688992
19	0xbec73f99	-0.3891571
20	0xbf633985	-0.8875964
21	0xbeb6001d	-0.3554696
22	0xbf235bb6	-0.63811815
23	0xbf016258	-0.50540686
24	0xbedc00f5	-0.4296948
25	0xbe918024	-0.28418076
26	0xbe7fb5b7	-0.24971662
27	0xbf12317f	-0.57106775
28	0xbf49196e	-0.7855443
29	0xbf44df2a	-0.7690302
30	0xbf34f6cc	-0.7068908
31	0xbf3c0feb	-0.7346179
32	0xbef29937	-0.4738252
33	0xbf68bb90	-0.909112
34	0xbf6d60cc	-0.92725825
35	0xbf4b56f5	-0.7942956
36	0xbf4bc18c	-0.79592204
37	0xbf2519c4	-0.6449244
38	0xbf014174	-0.504905
39	0xbf3baae5	-0.7330764
40	0xbf2f944c	-0.6858566
41	0xbf322327	-0.6958489
42	0xbf25d1cb	-0.64773244
43	0xbf31d8d7	-0.69471496
44	0xbf4897eb	-0.7835681
45	0xbeb3bac8	-0.3510344
46	0xbf3609d4	-0.71108747
47	0xbf626907	-0.8844151
48	0xbf45c033	-0.772464
49	0xbf58a39f	-0.84624666
50	0xbf9403e3	-1.1563686
51	0xbf1f24f7	-0.6216578
52	0xbf1450c6	-0.5793575
53	0xbf43dfd0	-0.76513386
54	0xbf38b1af	-0.72146124
55	0xbea026bd	-0.31279555
56	0xbeace3e1	-0.33767608
57	0xbe81152d	-0.25211468
58	0xbe4a401d	-0.1975102
59	0xbf1da498	-0.61579275
60	0xbf44007b	-0.76563233
61	0xbe86c6ce	-0.2632355
62	0xbeeba8b1	-0.4602714
63	0xbf34e3c2	-0.7066003
64	0xbec06bc4	-0.3758222
65	0xbf1343a1	-0.5752507
66	0xbefba885	-0.49152008
67	0xbf8e55a4	-1.1119885
68	0xbe6ef8d7	-0.23337112
69	0xbef0e033	-0.4704605
70	0xbe908e18	-0.2823341
71	0xbf66d485	-0.9016803
72	0xbe8137b1	-0.25237802
73	0xbf6ca9cc	-0.9244659
74	0xbea89c60	-0.32931805
75	0xbeede4ec	-0.46463716
76	0xbf4a4aee	-0.79020584
77	0xbf27fe12	-0.65622056
78	0xbe614833	-0.22000198
79	0xbf005fd3	-0.50146216
80	0xbf208e34	-0.62716985
81	0xbf235601	-0.63803107
82	0xbf4cc4f2	-0.79988015
83	0xbf340913	-0.70326346
84	0xbf30447a	-0.68854487
85	0xbf41afcd	-0.75658876
86	0xbe3a01b4	-0.18164712
87	0xbf0546e4	-0.52061296
88	0xbf52f188	-0.823998
89	0xbf4567f6	-0.77111757
90	0xbf5afcde	-0.85542095
91	0xbee26795	-0.44219652
92	0xbf48c3d8	-0.78423834
93	0xbedb0eba	-0.42784673
94	0xbf157fff	-0.5839843
95	0xbf44cd0a	-0.76875365
96	0xbf5cffb6	-0.86327684
97	0xbe53578d	-0.20638867
98	0xbead3104	-0.33826458
99	0xbed7412b	-0.42041907
100	0xbeb0b6d2	-0.3451448
101	0xbeb25053	-0.34826908
102	0xbef57595	-0.4794127
103	0xbf4c5e20	-0.79831123
104	0xbf43a900	-0.7642975
105	0xbf07b55b	-0.530111
106	0xbf584e32	-0.84494317
107	0xbf2ebb42	-0.6825448
108	0xbf39c07b	-0.72559327
109	0xbeda9b72	-0.4269672
110	0xbf5d57c9	-0.86462075
111	0xbeed8952	-0.4639383
112	0xbf759417	-0.9592909
113	0xbef51cb8	-0.47873473
114	0xbf5679b7	-0.8377947
115	0xbf025c98	-0.50922537
116	0xbf11d08d	-0.5695885
117	0xbf88818e	-1.0664537
118	0xbf269ab4	-0.6507981
119	0xbf6a89ae	-0.9161633
120	0xbec85e09	-0.39134243
121	0xbecbc550	-0.39798975
122	0xbee1c3ac	-0.44094598
123	0xbe899d82	-0.2687798
124	0xbf321c2c	-0.69574237
125	0xbebc0c75	-0.36728254
126	0xbed6102e	-0.4180922
127	0xbf326e7a	-0.69699824

batch_norm_2.running_mean f4 [128]
0	0xbf1b9046	-0.6076702
1	0xbdf7ac95	-0.12093464
2	0xbd0f62c0	-0.035006285
3	0xbf3c0d95	-0.73458225
4	0x3ec84465	0.3911468
5	0xbc92f975	-0.017941216
6	0xbf047929	-0.51747376
7	0x3ebf9f2a	0.3742612
8	0xbedf4641	-0.43608287
9	0xbee2a780	-0.44268417
10	0x3f0f2d05	0.5592807
11	0x3f2aefdd	0.6677225
12	0x3e854d28	0.26035428
13	0x3f2320d5	0.6372197
14	0x3eb67396	0.3563506
15	0xbf0c3d43	-0.5478098
16	0xbf84d2ad	-1.0376793
17	0xbf777b5a	-0.96672595
18	0x3e2c4c3d	0.16825958
19	0x3eeee894	0.46661818
20	0x3f83f078	1.030776
21	0xbf12c747	-0.57335323
22	0x3f54e7ca	0.8316618
23	0xbf177ed0	-0.59177876
24	0x3ef4ed20	0.47837162
25	0xbf142cbf	-0.5788078
26	0xbe9e198a	-0.3087886
27	0xbede7e4f	-0.4345574
28	0x3f07e6f7	0.530868
29	0x3f07a559	0.52986676
30	0x3f0ec864	0.5577452
31	0xbf7095a7	-0.9397835
32	0x3f2cba83	0.67472094
33	0x3fd2d404	1.6470952
34	0x3fae49a2	1.3616221
35	0x3e04309f	0.12909172
36	0xbe50c5df	-0.20387982
37	0x3f0733f5	0.52813655
38	0x3d1d9e18	0.038480848
39	0x3e339f65	0.17541273
40	0x3e8f3943	0.27973375
41	0x3a289162	0.0006430355
42	0x3fa7bf10	1.3105183
43	0x3f6588ca	0.8966185
44	0xbf0e4fc0	-0.5559044
45	0x3f06e8c9	0.5269895
46	0xbefc7cf2	-0.49314076
47	0x3f694ce1	0.9113293
48	0x3f242aab	0.64127606
49	0xbc73b32f	-0.014874264
50	0x3ea12f96	0.31481618
51	0x3e44fc7b	0.19236939
52	0xbeba30f8	-0.36365485
53	0x3fdac597	1.709155
54	0x3eb90f3e	0.3614444
55	0x3ec354a9	0.38150528
56	0xbe9548cf	-0.2915711
57	0xbe800d50	-0.25010157
58	0xbe7cdc30	-0.2469337
59	0xbdca6dd0	-0.09884226
60	0x3f214179	0.6299053
61	0xbee48373	-0.44631538
62	0xbe7292ff	-0.23688887
63	0xbe4ee27d	-0.20203586
64	0xbf49f03c	-0.78882194
65	0xbdccc17c	-0.09997842
66	0x3f1be8ba	0.6090199
67	0xbdce5f42	-0.10076763
68	0xbece65aa	-0.4031194
69	0xbf2878d9	-0.658094
70	0xbe41e6c2	-0.18935683
71	0x3dac6a7e	0.08418749
72	0xbd2dae75	-0.042402703
73	0x3f0ac42c	0.54205585
74	0xbf287ac2	-0.65812314
75	0xbeda3724	-0.42620194
76	0x3ee1622b	0.4402021
77	0xbeba74b1	-0.36417153
78	0xbeef32cf	-0.4671845
79	0xbea2fec3	-0.31834993
80	0xbe2b422e	-0.16724464
81	0xbf05e06f	-0.52295583
82	0xbd8123f1	-0.063056834
83	0x3e39d8d4	0.1814912
84	0x3f4f9b33	0.8109619
85	0x3e791df9	0.2432784
86	0xbef1133b	-0.47084984
87	0x3f127800	0.57214355
88	0xbcf8938e	-0.030343797
89	0x3e9bcd46	0.3043005
90	0x3eee28a5	0.46515384
91	0xbfa4429a	-1.2832825
92	0x3f02d3fc	0.5110471
93	0xbefc1c2c	-0.49240243
94	0xbe46f3de	-0.19428965
95	0xbf31d02f	-0.6945829
96	0x3efbcba4	0.49178803
97	0xbf3dabaa	-0.74090064
98	0x3e8ef407	0.27920553
99	0xbefaf171	-0.4901233
100	0x3f196e51	0.59933954
101	0xbf16b438	-0.5886874
102	0xbf07617d	-0.5288313
103	0x3eee8087	0.46582434
104	0x3f0d46bb	0.5518605
105	0xbf5e1956	-0.8675741
106	0xbf1c2f02	-0.6100923
107	0x3ec55b01	0.38545993
108	0x3ee73c4f	0.451632
109	0x3d17e10f	0.037079867
110	0x3e5d12b9	0.21589173
111	0xbf5d6b1a	-0.8649155
112	0x3e5b86a4	0.2143808
113	0xbf1a9954	-0.6039021
114	0x3e9651a5	0.29359165
115	0xbf08a9e3	-0.53384227
116	0x3db63d58	0.08898419
117	0xbeb68a64	-0.3565246
118	0x3e1f3977	0.15549265
119	0x3ec22622	0.37919718
120	0xbedf0423	-0.43557844
121	0x3e353e49	0.17699541
122	0x3dcaf083	0.09909155
123	0xbf04b44b	-0.51837605
124	0x3e17bcd7	0.1481813
125	0x3f0b691b	0.54457253
126	0x3f0efa04	0.55850244
127	0xbe4e7050	-0.20160031

batch_norm_2.running_var f4 [128]
0	0x45903ede	4615.8584
1	0x45c31b63	6243.4233
2	0x444ab879	810.8824
3	0x45b6a501	5844.6255
4	0x457925b7	3986.3572
5	0x4402665a	521.59924
6	0x458cebe9	4509.489
7	0x4390af08	289.36743
8	0x45856199	4268.1997
9	0x458cfd57	4511.6675
10	0x458c93f1	4498.4927
11	0x43b692cd	365.14688
12	0x44deab05	1781.3444
13	0x43b10c1c	354.0946
14	0x43e28c02	453.0938
15	0x459a3fd9	4935.981
16	0x4592e96c	4701.1777
17	0x45920a94	4673.3223
18	0x44003426	512.8148
19	0x4586b08b	4310.068
20	0x43bb3123	374.38388
21	0x45913a78	4647.3086
22	0x44144058	593.0054
23	0x45cbb555	6518.6665
24	0x459642bf	4808.3433
25	0x45a3ff34	5247.9004
26	0x4550ea4d	3342.6438
27	0x45c4cd4d	6297.6626
28	0x44e80304	1856.0942
29	0x45481878	3201.5293
30	0x45924e62	4681.798
31	0x43ef8d48	479.10376
32	0x458c43ca	4488.4736
33	0x43bf814e	383.0102
34	0x43cb0171	406.01126
35	0x43852430	266.2827
36	0x438c0d91	280.106
37	0x4563b1c6	3643.1108
38	0x45821ac7	4163.347
39	0x43afd414	351.65686
40	0x4516b0dc	2411.0537
41	0x43b27709	356.92996
42	0x4400fe96	515.9779
43	0x43f4aa1e	489.32904
44	0x43833342	262.40045
45	0x458e38d1	4551.102
46	0x45c71bec	6371.49
47	0x43be85d5	381.04556
48	0x43bcb953	377.44785
49	0x43ba2d49	372.3538
50	0x440d35f8	564.84326
51	0x43e70c44	462.09583
52	0x455571bb	3415.1082
53	0x43e1aa95	451.33267
54	0x4581d94a	4155.161
55	0x45907a1f	4623.265
56	0x458d9e32	4531.7744
57	0x45818bd6	4145.4795
58	0x459f75f0	5102.742
59	0x43996fe3	306.8741
60	0x44c57437	1579.6317
61	0x458e504c	4554.037
62	0x45c740e4	6376.1113
63	0x4528a8d6	2698.5522
64	0x45931b0b	4707.3804
65	0x437ea666	254.65
66	0x459a5203	4938.2515
67	0x44229fad	650.49493
68	0x458b408e	4456.0693
69	0x45935575	4714.682
70	0x457404d0	3904.3008
71	0x44a576de	1323.7146
72	0x45137314	2359.1924
73	0x451af2fd	2479.1868
74	0x458580a4	4272.08
75	0x45c46ea6	6285.831
76	0x45592e3a	3474.8892
77	0x442a1296	680.2904
78	0x45358d1a	2904.8188
79	0x45d847ba	6920.966
80	0x43bd64bb	378.78696
81	0x458e930b	4562.3804
82	0x43eb0a8b	470.08237
83	0x4369cd19	233.80116
84	0x440004cb	512.0749
85	0x44d48ccd	1700.4
86	0x458784e3	4336.611
87	0x458c639f	4492.4526
88	0x441e8ed5	634.23175
89	0x43417ff0	193.49976
90	0x43f42b62	488.33893
91	0x458039ba	4103.216
92	0x43a4c79e	329.5595
93	0x45a22642	5188.782
94	0x45a4ef69	5277.9263
95	0x43d8f503	433.91415
96	0x45522aee	3362.683
97	0x459cbacb	5015.349
98	0x456fe4c6	3838.2983
99	0x458d2a48	4517.285
100	0x4591b2c6	4662.3467
101	0x45a3defd	5243.8735
102	0x459b94e0	4978.6094
103	0x43f21876	484.1911
104	0x4573ef7c	3902.9678
105	0x45e4cac7	7321.347
106	0x43d9e6c8	435.80298
107	0x459cd41f	5018.515
108	0x4557fbd8	3455.7402
109	0x4300fe59	128.99355
110	0x4460f9dd	899.9041
111	0x4595c752	4792.915
112	0x43a5c6a9	331.55203
113	0x45f0f11a	7710.1377
114	0x44c0b1ea	1541.5598
115	0x45d9bbcd	6967.475
116	0x4401ff71	519.9913
117	0x43bbce24	375.61047
118	0x44bdc62b	1518.1927
119	0x43b83f80	368.4961
120	0x45bb574a	5994.911
121	0x457ab5fb	4011.3738
122	0x45825096	4170.073
123	0x45a3e177	5244.183
124	0x43c5b100	395.3828
125	0x459e025a	5056.294
126	0x45904d7f	4617.687
127	0x43f5f904	491.94543

batch_norm_3.weight f4 [128]
0	0x3fe42428	1.7823534
1	0x3ece439b	0.40285954
2	0x3ebcc701	0.36870578
3	0x3ffb28bb	1.9621805
4	0x3ee347c4	0.4439069
5	0x4006ef14	2.1083422
6	0x3ff42b14	1.9075646
7	0x3fc6aba9	1.5521137
8	0x40017e8b	2.0233486
9	0x400adf59	2.169882
10	0x3fee3323	1.8609356
11	0x3ee557a6	0.44793433
12	0x3e804a97	0.25056908
13	0x3fe8a655	1.817576
14	0x3ef50055	0.47851816
15	0x3ff00b4d	1.8753449
16	0x3fdc59f1	1.7214948
17	0x3fad83b2	1.3555815
18	0x3f20b665	0.6277831
19	0x3e18d454	0.14924747
20	0xbc5230ac	-0.012828987
21	0x3fe20e9f	1.7660712
22	0x3e89850e	0.26859325
23	0x3ec5be36	0.38621682
24	0x402a7f2d	2.6640122
25	0x3c0bc35a	0.008530462
26	0x3f108329	0.56450135
27	0x3edb5f63	0.42846212
28	0xbd7e3555	-0.06206258
29	0xbb1c1181	-0.0023814144
30	0x3f020952	0.5079547
31	0x401200c4	2.2812967
32	0x3ebe47ce	0.37164158
33	0x3f00a918	0.50258017
34	0x3ed5d5f2	0.4176479
35	0x40156222	2.3341146
36	0x3ffe6f26	1.987767
37	0x3ece6d0e	0.40317577
38	0x3fead0e8	1.8345003
39	0x3fdd45ab	1.7286886
40	0x40051ef4	2.0800142
41	0x3e61c7dc	0.22048897
42	0x3ff81dc5	1.9384085
43	0x3ef5db7f	0.48019025
44	0x4000a293	2.0099227
45	0x3fedeaa3	1.858723
46	0x3eeeb4c7	0.46622297
47	0x3efc3abf	0.4926357
48	0x400a4bcf	2.160877
49	0x3fe3738d	1.7769638
50	0x402acb4f	2.668659
51	0x4012d649	2.294329
52	0x3ff73cb6	1.9315403
53	0x40018f3b	2.024367
54	0x4004f83e	2.0776515
55	0x3efb8343	0.49123582
56	0x3e3e89a9	0.186072
57	0x3ef8536a	0.4850114
58	0x3fefc858	1.8733015
59	0x400ee9ef	2.2330282
60	0x4008feaa	2.1405435
61	0x3fce63fa	1.612426
62	0x3f50949e	0.8147677
63	0x3d8d41f6	0.06897347
64	0x400ed47b	2.2317188
65	0x3ff7fcef	1.9374064
66	0x400aa0d1	2.1660655
67	0x3fb2f4c9	1.3980953
68	0x4009f711	2.1557047
69	0x3ff6adff	1.9271849
70	0x3e939ee6	0.28832167
71	0x3e15c0ea	0.14624372
72	0x3e9d9658	0.30778766
73	0x40144274	2.316556
74	0x3fd95fb4	1.6982331
75	0x3ff81156	1.938029
76	0x4018f872	2.390164
77	0x4006345c	2.0969458
78	0x3fd4984a	1.6608975
79	0x3f1549d5	0.58315784
80	0x3fa4faee	1.2889078
81	0x401c0990	2.4380836
82	0x3fe6846f	1.8009166
83	0x401a9598	2.4153805
84	0x3fe3665e	1.7765615
85	0x3eb5f91b	0.35541615
86	0x3ff15925	1.885533
87	0x3fe916c7	1.8210076
88	0x3d806c29	0.0627063
89	0x3edf6370	0.43630552
90	0x3e2b5623	0.16732077
91	0x3f275870	0.6536932
92	0xbe44774d	-0.19186135
93	0x400ae3cd	2.1701539
94	0x4013977e	2.3061213
95	0x4011fc71	2.2810328
96	0x402eda85	2.7320874
97	0x3f0388e4	0.51380754
98	0x3ffc5d54	1.9715981
99	0x3e98c10b	0.2983478
100	0x3e6619ef	0.2247083
101	0x40117247	2.2726
102	0x3ff50979	1.9143516
103	0x402e3c2b	2.7224224
104	0x3fd1428b	1.6348432
105	0x3f097796	0.536981
106	0x3ff432a4	1.9077954
107	0x3fbfa5c0	1.4972458
108	0x401c9667	2.4466798
109	0xbe0c713a	-0.13715068
110	0x400f71db	2.2413242
111	0x3fe28908	1.7698069
112	0x3d870006	0.06591801
113	0x3fd3088c	1.6486983
114	0x3e422572	0.18959597
115	0x3e4ee7e9	0.20205654
116	0x3e58b783	0.21163754
117	0x4010e7ef	2.264156
118	0x3f07404c	0.52832484
119	0x401abb36	2.4176764
120	0x3efa6af0	0.48909712
121	0x4005ee3a	2.0926652
122	0x401ed42a	2.4816995
123	0x40046f9d	2.0693123
124	0x400c7d63	2.195153
125	0x3ff4f284	1.913651
126	0x403bce73	2.9344757
127	0x3e904f57	0.28185531

batch_norm_3.bias f4 [128]
0	0x3e653fa5	0.2238756
1	0xbf959814	-1.1687036
2	0xbf6b8dd1	-0.9201327
3	0x3eb73950	0.35785913
4	0xbf8041e8	-1.0020113
5	0x3ea7830e	0.32717174
6	0x3eb8c3cd	0.36086884
7	0xbd83fc39	-0.06444592
8	0x3e80c216	0.25148076
9	0x3ea9d822	0.3317271
10	0x3d46bc2f	0.04851931
11	0xbf7a20cf	-0.9770631
12	0xbf599b59	-0.85002667
13	0x3e51e9d4	0.20499355
14	0xbf435f48	-0.7631726
15	0xbac55405	-0.0015054947
16	0x3edc3033	0.43005523
17	0x3ea4d994	0.3219725
18	0xbf21bd40	-0.631794
19	0xbfa65c44	-1.2996907
20	0xbf92b064	-1.146008
21	0x3e56b92d	0.20969076
22	0xbf85db74	-1.0457597
23	0xbf867815	-1.0505396
24	0x3d248e93	0.040175032
25	0xbf676246	-0.9038433
26	0xbf1761cd	-0.5913361
27	0xbf37c1c7	-0.71780056
28	0xbf9f4538	-1.2442999
29	0xbf3a0963	-0.72670573
30	0xbf552093	-0.8325283
31	0xbea901c1	-0.3300915
32	0xbf72ad2a	-0.9479548
33	0xbf27eb39	-0.65593296
34	0xbf3a870c	-0.72862315
35	0x3d3a0894	0.045418337
36	0x3dea311b	0.114351474
37	0xbf38c460	-0.72174644
38	0x3e3a1e4d	0.18175621
39	0xbf7dc71c	-0.9913194
40	0x3e88974e	0.26677936
41	0xbf7faf1a	-0.9987656
42	0x3e33cc42	0.17558387
43	0xbf2e8964	-0.6817839
44	0xbf4d0b05	-0.8009494
45	0x3e752db2	0.23943213
46	0xbf5b4275	-0.8564828
47	0xbf3061e6	-0.6889938
48	0x3e97ffcf	0.29687354
49	0xbe50f98f	-0.20407699
50	0xbed24fcf	-0.41076514
51	0x3dd0094d	0.10158024
52	0x3dd068ff	0.101762764
53	0x3e8df94c	0.2772926
54	0x3e1efc29	0.15525879
55	0xbf35b149	-0.7097364
56	0xbe3dea47	-0.18546401
57	0xbf1b9c81	-0.6078568
58	0x3eb6496d	0.35602894
59	0x3eb2d9a5	0.34931675
60	0x3e89d421	0.26919654
61	0x3e5daeaf	0.21648668
62	0xbf9fa0e9	-1.2470981
63	0xbf80ec56	-1.0072124
64	0xbe69a43d	-0.22816558
65	0x3e95c761	0.29253677
66	0x3e13e706	0.14443597
67	0x3dffa0bd	0.1248183
68	0x3dbdc210	0.0926553
69	0x3e20bff1	0.1569822
70	0xbf62387b	-0.8836743
71	0xbf8ed8c5	-1.1159903
72	0xbf29d37e	-0.66338336
73	0xbe8f4ce3	-0.27988347
74	0x3e62e160	0.22156286
75	0x3e8f3abe	0.27974504
76	0x3e976eab	0.2957662
77	0x3ed34378	0.41262412
78	0x3e138c30	0.14408946
79	0xbf86e93e	-1.053993
80	0xbe84ba02	-0.25923163
81	0x3dc93537	0.09824603
82	0x3df9b78d	0.12193213
83	0xbe18bf6b	-0.1491677
84	0x3ec1887c	0.37799442
85	0xbf1dc696	-0.61631143
86	0xbc85b336	-0.016320806
87	0x3e12e20c	0.14344043
88	0xbf4cffe9	-0.8007799
89	0xbf78bc0d	-0.9716194
90	0xbf78ac29	-0.97137696
91	0xbfb35d3a	-1.4012825
92	0xbf5aedaa	-0.85518897
93	0x3d894919	0.067033954
94	0x3e4ee709	0.2020532
95	0x3d9db973	0.07701387
96	0xbe31d77c	-0.17367357
97	0xbf6b9660	-0.9202633
98	0x3ebae194	0.36500227
99	0xbf3893c4	-0.7210047
100	0xbf7ef79d	-0.9959658
101	0x3dcf96cf	0.10136186
102	0xbdf036b1	-0.117291816
103	0xbd4474d4	-0.04796298
104	0x3e5e421d	0.21704908
105	0xbf902ce5	-1.1263701
106	0x3e404ac9	0.18778528
107	0x3dc00f4c	0.09377918
108	0x3efdbbc1	0.49557307
109	0xbf085ac9	-0.5326353
110	0x3d8aedb2	0.06783618
111	0x3e1c3d08	0.15257657
112	0xbf61d2f2	-0.882125
113	0x3e914d94	0.283795
114	0xbf798802	-0.97473156
115	0xbf1f5092	-0.62232316
116	0xbf557091	-0.8337489
117	0x3df4c541	0.11951686
118	0xbf37cd7d	-0.71797925
119	0x3e9e2161	0.3088484
120	0xbf6c5162	-0.9231168
121	0x3e2a74d1	0.16646124
122	0x3d1a8adb	0.03773008
123	0x3e72405b	0.23657362
124	0x3e0afcba	0.1357297
125	0x3e128323	0.14307837
126	0xbee41fa6	-0.44555396
127	0xbf038cef	-0.5138692

batch_norm_3.running_mean f4 [128]
0	0x408b50c6	4.35361
1	0x4157c7c5	13.486272
2	0x408d4061	4.4141088
3	0x40d01d39	6.503567
4	0x40c7a7dc	6.2392406
5	0x40b36d7b	5.6071143
6	0x40bc9d61	5.8942113
7	0xc03b02c3	-2.9220436
8	0x40853b1c	4.1634655
9	0x408b0a1f	4.3449855
10	0x3ecc5a01	0.39912418
11	0x40d8f725	6.780169
12	0x40bf128c	5.971014
13	0x4033e694	2.8109484
14	0x411f9256	9.973227
15	0xbefcbeed	-0.49364415
16	0x40c8505a	6.2598085
17	0x40ec4f7c	7.3847027
18	0x41110ac2	9.065126
19	0x414bf0b0	12.746262
20	0x413c4b20	11.768341
21	0x40a48840	5.141632
22	0x40ed5954	7.4171543
23	0x41344080	11.265747
24	0xc00775fe	-2.1165767
25	0xbf04093b	-0.51576585
26	0x40a54cf5	5.165644
27	0x41134a7b	9.205684
28	0x3ffe090f	1.9846514
29	0x3fbe1a51	1.4851781
30	0x40396b8e	2.8971896
31	0xc0c94ca4	-6.2906055
32	0x411bf104	9.746342
33	0x40e10d93	7.032907
34	0x411fbe61	9.983979
35	0xbfafae22	-1.3725016
36	0x400202c1	2.031418
37	0x409f8349	4.984776
38	0x404dce54	3.2157183
39	0x419953cd	19.165918
40	0x40a253e8	5.0727425
41	0x40eafaa5	7.3430963
42	0x40706949	3.756426
43	0x410331c6	8.199652
44	0x41678c21	14.471711
45	0x40a30445	5.094271
46	0x41312d8f	11.073623
47	0x40fc15c7	7.8776584
48	0x409d2aa3	4.9114547
49	0xc01e8cc8	-2.4773426
50	0xc0d667a6	-6.7001524
51	0xbeba5ca2	-0.36398798
52	0x4021c469	2.527613
53	0x40816904	4.0440693
54	0x4051f397	3.2804925
55	0x40cf30c1	6.4747014
56	0x4117cfab	9.4882
57	0x40b061fa	5.51196
58	0x40dd7960	6.9210663
59	0x409c24cb	4.8794913
60	0x406634c2	3.59697
61	0x4082541e	4.072768
62	0x4163d2f1	14.238999
63	0x40e34a40	7.1028137
64	0xc0a97e19	-5.296643
65	0x408555ee	4.1667395
66	0x403529a4	2.8306665
67	0x4052ea6d	3.2955582
68	0xbf1598ab	-0.5843608
69	0x4055cca5	3.3406155
70	0x4091339d	4.5375504
71	0x40b880ad	5.7657075
72	0x40d901aa	6.781453
73	0xc0bed1cf	-5.9631114
74	0x408f40f5	4.4766793
75	0x40a5f0de	5.1856527
76	0x4051d24f	3.2784612
77	0x40c83411	6.256356
78	0x4039a2fb	2.9005725
79	0x41243103	10.261966
80	0x4105fda0	8.37442
81	0xbe0c9c9d	-0.13731618
82	0x4012a847	2.2915208
83	0xc089156b	-4.2838645
84	0x40b86ee8	5.7635384
85	0x40815c55	4.042521
86	0x3fa7d9dd	1.3113362
87	0x406d9837	3.7124155
88	0xbf9c5374	-1.2212968
89	0x410e34da	8.887903
90	0x4050e1d9	3.2637846
91	0x406b9971	3.6812403
92	0x3ff8b302	1.9429629
93	0xbe7b0e9d	-0.24517293
94	0x404bafbe	3.1826015
95	0xbf4056a1	-0.75132185
96	0xc0a19886	-5.0498686
97	0x40c5bef3	6.179559
98	0x40abf25f	5.3733363
99	0xc02569c2	-2.58458
100	0x40a2b235	5.084254
101	0xbef62ddd	-0.48081866
102	0xc012919b	-2.290137
103	0xc0153bff	-2.3317869
104	0x408ef369	4.467213
105	0x40c97fb8	6.2968407
106	0x40621d02	3.5330205
107	0x4003924a	2.0558038
108	0x41105658	9.02108
109	0x403a7b70	2.913784
110	0xbeddc134	-0.43311465
111	0x4069dd1e	3.654121
112	0xc03e6414	-2.9748583
113	0x40b487f9	5.641598
114	0x412788ec	10.470928
115	0x40971502	4.7213144
116	0x403e1f5e	2.9706645
117	0x40136c10	2.3034706
118	0x409a3e8a	4.820134
119	0x404fc10b	3.2461574
120	0x409837b0	4.756798
121	0x402d7c01	2.7106936
122	0xbfa095f5	-1.2545763
123	0x407ff7e1	3.9995043
124	0x3f98a9c5	1.192681
125	0x4026e353	2.6076248
126	0xc1023c4a	-8.139719
127	0x40907dfc	4.515379

batch_norm_3.running_var f4 [128]
0	0x449b9b3f	1244.8514
1	0x435f2235	223.13362
2	0x443ff069	767.7564
3	0x449d3630	1257.6934
4	0x4418a8a1	610.6348
5	0x448a2d01	1105.4064
6	0x4480be41	1029.9454
7	0x440957a9	549.3697
8	0x448f5384	1146.6099
9	0x448e0976	1136.2957
10	0x44a1cf63	1294.4808
11	0x44508a39	834.1597
12	0x44586e17	865.72015
13	0x44996583	1227.1722
14	0x43c90945	402.07242
15	0x44a514ed	1320.6539
16	0x443c170e	752.3602
17	0x446a2243	936.53534
18	0x44029a1b	522.4079
19	0x434e1f22	206.12161
20	0x43fad9d8	501.7019
21	0x44c06704	1539.2192
22	0x4469b6f0	934.8584
23	0x43f91af6	498.21063
24	0x44d08437	1668.1317
25	0x438f7a23	286.9542
26	0x4464aa4a	914.66077
27	0x4405cb84	535.17993
28	0x44728e4e	970.2235
29	0x44631806	908.37537
30	0x443a01b2	744.0265
31	0x447d533a	1013.3004
32	0x440c6a81	561.6641
33	0x4455fa52	855.91125
34	0x4422049f	648.0722
35	0x44ba12ac	1488.5835
36	0x4489e99f	1103.3007
37	0x43e12395	450.27798
38	0x44b90511	1480.1583
39	0x4386f97f	269.9492
40	0x449a235e	1233.1052
41	0x4433d246	719.2855
42	0x44a10a32	1288.3186
43	0x44304c9d	705.1971
44	0x43a937fb	338.43735
45	0x44cacd19	1622.4093
46	0x43ce9c99	413.22342
47	0x44270768	668.1157
48	0x44a8a256	1349.073
49	0x440f344e	572.81726
50	0x44897ed9	1099.964
51	0x44b77c1f	1467.8788
52	0x44afb621	1405.6915
53	0x4471a2a0	966.541
54	0x44b1e2ec	1423.0913
55	0x442e6226	697.53357
56	0x43934b48	294.58813
57	0x446088a3	898.13495
58	0x449ffe70	1279.9512
59	0x44668965	922.1468
60	0x4487c831	1086.256
61	0x44743208	976.78174
62	0x43ac5304	344.64856
63	0x434b529d	203.32271
64	0x448bbcff	1117.9061
65	0x4484c02d	1062.0055
66	0x44bbd49b	1502.6439
67	0x44b54073	1450.014
68	0x44937620	1179.6914
69	0x44a70366	1336.1062
70	0x4438199b	736.4001
71	0x44349297	722.29047
72	0x4455666f	853.6005
73	0x448e773e	1139.7263
74	0x447447c8	977.1216
75	0x4484c3e8	1062.1221
76	0x44bab434	1493.6313
77	0x4464302d	912.75275
78	0x44a8cb2a	1350.3489
79	0x440cf070	563.75684
80	0x43f96ef3	498.8668
81	0x44a79dd5	1340.9323
82	0x448ff7fa	1151.7493
83	0x449a47ae	1234.24
84	0x44530914	844.14185
85	0x442855c2	673.33997
86	0x44c834de	1601.6521
87	0x44a87666	1347.7
88	0x44459596	790.3373
89	0x44481134	800.2688
90	0x444c436b	817.0534
91	0x42998e26	76.77763
92	0x44570118	860.0171
93	0x449c924c	1252.5718
94	0x446b9b0d	942.42267
95	0x4470332e	960.7997
96	0x44c7040e	1592.1267
97	0x4401a021	518.502
98	0x448cd201	1126.5626
99	0x43c66015	396.75064
100	0x44440b3c	784.17554
101	0x4495e4b3	1199.1469
102	0x442b858d	686.08673
103	0x44b09c52	1412.885
104	0x449236f8	1169.7178
105	0x447331ef	972.7802
106	0x44b1b5af	1421.6776
107	0x44b80961	1472.2931
108	0x44beed15	1527.4088
109	0x4479b1b2	998.7765
110	0x44897e89	1099.9542
111	0x44ac7c3b	1379.8822
112	0x443346e4	717.10767
113	0x44928026	1172.0046
114	0x44056d0b	533.7038
115	0x443814e5	736.3265
116	0x4419b3fd	614.8123
117	0x449a8e02	1236.4377
118	0x443cb2de	754.7948
119	0x44b6f283	1463.5785
120	0x44552cd6	852.70056
121	0x44861802	1072.7502
122	0x44ae0f2a	1392.4739
123	0x44a4550f	1314.6581
124	0x44919304	1164.5942
125	0x44a08438	1284.1318
126	0x44d41c83	1696.891
127	0x44471776	796.3666

batch_norm_4.weight f4 [128]
0	0xbd7f38e9	-0.062310133
1	0x3f5726b3	0.84043425
2	0x3e110607	0.14162455
3	0x3f6a9074	0.9162667
4	0x3d30c2c7	0.043154504
5	0x3f68b579	0.90901905
6	0x3f607300	0.87675476
7	0xbdeb4007	-0.114868216
8	0x3d6fc6e4	0.058539286
9	0x3d998417	0.07495897
10	0x3f6d085f	0.925909
11	0x3f6a5864	0.91541123
12	0x3f591a17	0.84805435
13	0x3fd54a22	1.6663249
14	0x3e85d52a	0.26139194
15	0xbd8637f1	-0.06553639
16	0x3f732516	0.94978464
17	0x3ee5c8f6	0.44879884
18	0x3f53c363	0.8272001
19	0x3ee4d960	0.44697094
20	0x3fb29a54	1.3953347
21	0xbd6c978a	-0.057761706
22	0x3fa931d7	1.3218335
23	0x3d8563c8	0.065131724
24	0x3fb0c6ba	1.3810647
25	0x3f2d0a3a	0.6759373
26	0x3c5a5e8d	0.013328207
27	0x3edf1356	0.4356944
28	0x3fb53fba	1.4160073
29	0x3f48dbda	0.78460467
30	0x3cb0601c	0.021530204
31	0x3f45cc16	0.77264535
32	0x3f64a422	0.89312947
33	0x3f4c2050	0.79736805
34	0x3f637a03	0.8885805
35	0x3ce3d665	0.027812192
36	0xbbb9b324	-0.005667107
37	0x3f8cc583	1.0997776
38	0x3f015d46	0.5053295
39	0x3f5a63a0	0.85308266
40	0x3f60bfb4	0.87792516
41	0x3f5aec00	0.8551636
42	0x3f92fa3c	1.1482615
43	0x3f7c937b	0.9866254
44	0x3f69aec7	0.91282314
45	0x3edc86de	0.43071645
46	0x3eafc303	0.3432847
47	0x3ded187b	0.11576935
48	0xbcefc572	-0.029268954
49	0xbcebde8c	-0.028792642
50	0x3fc2cfaa	1.5219624
51	0x3f5f5704	0.8724215
52	0x3f8dd46f	1.1080455
53	0x3d9c8d74	0.076441675
54	0x3ea57278	0.32313895
55	0x3da973f0	0.082740664
56	0x3f6db4e3	0.92854136
57	0x3d18ea58	0.037332863
58	0x3f719061	0.9436093
59	0xbc87c32a	-0.016572554
60	0xbe134a78	-0.14383876
61	0xbdb9d40c	-0.09073648
62	0x3f6b9857	0.9202933
63	0x3de182fb	0.11011311
64	0x3faecf10	1.365694
65	0x3ec0a1de	0.37623495
66	0x3f5d42f6	0.864303
67	0x3f61cc72	0.88202584
68	0x3f768eb3	0.9631149
69	0x3d374052	0.044739075
70	0xbb7bd6ba	-0.0038427548
71	0x3f6373fd	0.8884886
72	0x3db94aea	0.09047492
73	0x3f9ed04b	1.2407316
74	0x3fab6b0b	1.3392042
75	0x3eb1bb2e	0.3471312
76	0x3f647506	0.89241064
77	0x3e95c26d	0.29249898
78	0x3f7c1907	0.9847569
79	0x3f068230	0.525424
80	0x3f69eb11	0.9137431
81	0x3f56a29f	0.8384189
82	0x3f732007	0.94970745
83	0x3f652e15	0.8952344
84	0xbc444a12	-0.01198055
85	0x3d73138f	0.059344824
86	0x3f95ca32	1.170233
87	0x3c84632a	0.016160566
88	0x3f6e6ce1	0.93134886
89	0x3f7fd9b3	0.9994156
90	0x3f6d211c	0.92628646
91	0x3f923787	1.1423196
92	0x3f925ecd	1.1435181
93	0x3e54e7a2	0.20791486
94	0x3f1b364a	0.60629714
95	0x3e12efca	0.14349285
96	0x3f60f40f	0.87872404
97	0x3f587b49	0.8456312
98	0xbd7af5ea	-0.06126968
99	0x3d4393e0	0.047748446
100	0x3f6141b5	0.87990886
101	0x3fa8c510	1.3185139
102	0xbcf3eca3	-0.029775923
103	0x3f7de5fb	0.9917905
104	0xbdbe5de3	-0.09295251
105	0x3eb4b6bc	0.35295665
106	0x3f5d5987	0.8646473
107	0x3d451c0e	0.04812246
108	0x3fb85995	1.4402338
109	0xbd45fb8a	-0.04833559
110	0x3f5020b3	0.81299895
111	0x3f632af0	0.8873739
112	0x3f7a1b56	0.9769796
113	0x3f6cb434	0.9246247
114	0x3dbb1c50	0.091362596
115	0x3f68dab5	0.9095872
116	0x3fb7d14d	1.4360749
117	0x3ed800e9	0.42188194
118	0x3cebebf5	0.028799037
119	0x3f6dc27e	0.92874897
120	0xbd8f5b38	-0.069998205
121	0xbd77557d	-0.060384262
122	0xbd351aa9	-0.04421488
123	0x3f138141	0.576191
124	0x3f73e1f8	0.95266676
125	0xbe237833	-0.15963821
126	0xbd4fe353	-0.050753903
127	0x3fb8352a	1.4391224

batch_norm_4.bias f4 [128]
0	0xbf7b1d8b	-0.98091954
1	0x3df0c453	0.11756196
2	0xbf5a4296	-0.8525785
3	0x3e1bc9b0	0.15213656
4	0xbf718ee9	-0.9435869
5	0xbf3abe29	-0.7294641
6	0x3d6acbd4	0.057323292
7	0xbf835dba	-1.0262978
8	0xbf72a45d	-0.9478205
9	0xbf6a0e2c	-0.91427875
10	0x3e0b3201	0.13593294
11	0x3dfa0966	0.12208824
12	0x3d8b26e6	0.06794529
13	0xbe39697c	-0.18106645
14	0xbf54c913	-0.83119315
15	0xbf7dc9eb	-0.9913623
16	0x3dc76627	0.09736281
17	0xbef97a03	-0.487259
18	0x3e146e51	0.14495207
19	0xbeed341b	-0.46328816
20	0xbe256cbb	-0.16154759
21	0xbf827ae6	-1.0193756
22	0xbe61ac28	-0.22038329
23	0xbf6667bc	-0.90002036
24	0xbd331393	-0.04371984
25	0xbe977923	-0.29584607
26	0xbf7833a4	-0.969538
27	0xbee3bfe4	-0.44482338
28	0xbe4fd1c0	-0.20294857
29	0x3e02fa64	0.12790829
30	0xbf74aa49	-0.95572335
31	0x3e32d556	0.17464194
32	0xbd2b1388	-0.041766673
33	0x3df2fbe3	0.1186445
34	0xbf128815	-0.57238895
35	0xbf73089f	-0.9493503
36	0xbf779b2e	-0.9672116
37	0xbe85dc01	-0.26144412
38	0xbf0b9b9e	-0.5453433
39	0xbd145d56	-0.036221825
40	0x3dfd1485	0.123574294
41	0x3e12bc4e	0.14329645
42	0xbe469fe4	-0.19396931
43	0x3d561659	0.052267406
44	0x3dbff77e	0.09373377
45	0xbf0fc13d	-0.56154233
46	0xbf1f868d	-0.62314683
47	0xbf6914dd	-0.9104746
48	0xbf80fa5b	-1.0076402
49	0xbf7e190d	-0.99256974
50	0xbe81bfb3	-0.25341567
51	0x3de5fe29	0.11230118
52	0xbda45d19	-0.080255695
53	0xbf67b408	-0.9050908
54	0xbf4860c3	-0.78272647
55	0xbf6ca945	-0.92445785
56	0x3e186828	0.14883482
57	0xbf715ccb	-0.94282216
58	0x3e0c3172	0.13690737
59	0xbf79c4c7	-0.97565883
60	0xbf87a1b9	-1.0596229
61	0xbf815ae9	-1.0105869
62	0x3e1653f7	0.14680468
63	0xbf79dcdb	-0.97602624
64	0xbe9e4636	-0.30912942
65	0xbeeb363f	-0.45939824
66	0x3d8c7983	0.06859114
67	0xbefbe9fb	-0.4920195
68	0x3dcc4895	0.099747814
69	0xbf60f902	-0.87879956
70	0xbf8224b5	-1.0167452
71	0x3e269069	0.16266026
72	0xbf61a5c6	-0.88143575
73	0xbea67d50	-0.3251748
74	0xbe86ca28	-0.26326108
75	0xbef32173	-0.47486457
76	0x3dc9c049	0.098511286
77	0xbf146cce	-0.5797852
78	0x3e2ba482	0.16761974
79	0xbecca4f1	-0.3996959
80	0x3e2680d1	0.16260077
81	0x3e2062a5	0.1566263
82	0x3df8657d	0.12128732
83	0x3e14d378	0.14533794
84	0xbf795889	-0.9740072
85	0xbf6aae7a	-0.9167248
86	0xbe17e96e	-0.1483514
87	0xbf77b96d	-0.9676731
88	0x3dffe11c	0.12494108
89	0x3e02b096	0.12762675
90	0x3dea9757	0.11454647
91	0xbe40c00a	-0.18823257
92	0xbe145abb	-0.14487736
93	0xbf24aa19	-0.6432205
94	0xbf075807	-0.52868694
95	0xbf60cf87	-0.8781666
96	0x3d7e1736	0.062033854
97	0x3d6f0e46	0.05836322
98	0xbf80c6e6	-1.0060699
99	0xbf808220	-1.0039711
100	0x3df89dc5	0.12139467
101	0xbe919387	-0.28432867
102	0xbf7e302b	-0.9929225
103	0x3daa2b61	0.08309055
104	0xbf8568e6	-1.0422637
105	0xbf2054a5	-0.6262916
106	0x3deae08b	0.114686094
107	0xbf715a7a	-0.9427868
108	0xbe675c12	-0.22593716
109	0xbf843bff	-1.0330809
110	0x3dccc2a5	0.09998063
111	0x3e0e0c16	0.13871798
112	0x3df75084	0.12075904
113	0x3e3074b8	0.17232025
114	0xbf65c3e6	-0.8975204
115	0x3dd297b6	0.10282843
116	0xbec192db	-0.37807354
117	0xbf075fa9	-0.5288034
118	0xbf759f87	-0.95946544
119	0x3e174472	0.14772204
120	0xbf814c67	-1.0101441
121	0xbf2a9273	-0.66629714
122	0xbf825167	-1.0181092
123	0xbf173a2c	-0.5907314
124	0x3dfc0232	0.12305106
125	0xbf88a8b3	-1.0676483
126	0xbf7c0a5e	-0.9845332
127	0xbe826ae3	-0.25472173

batch_norm_4.running_mean f4 [128]
0	0x40984e13	4.7595305
1	0x4083adfa	4.1149874
2	0x4023fafc	2.5621939
3	0x40fc01ee	7.8752356
4	0xc11561d7	-9.336387
5	0x409d72e7	4.920276
6	0x3fa80672	1.3126967
7	0xbf6b98ec	-0.92030215
8	0xc0f34141	-7.6017156
9	0xc132f0aa	-11.183756
10	0x40a9d193	5.306833
11	0x40e0dccb	7.0269523
12	0x3ffd6367	1.979596
13	0xc128fd2b	-10.561809
14	0xc183acd0	-16.459381
15	0x40d6a64a	6.707799
16	0x409ac544	4.8365803
17	0x40335bb1	2.8024714
18	0x40db5e8a	6.8552904
19	0xc0841dc2	-4.1286325
20	0xc1239c9c	-10.225735
21	0xc11b12ad	-9.6920595
22	0xc166e778	-14.431511
23	0xc184a61f	-16.581114
24	0xc044ba6c	-3.0738783
25	0x3fb6f0ed	1.4292275
26	0xc15bc47b	-13.735469
27	0x411f2ba1	9.948152
28	0xc12ac0dc	-10.672085
29	0x40917056	4.544963
30	0xc1864978	-16.785873
31	0x4124b15b	10.2933
32	0xc0a12c3c	-5.0366497
33	0x40d7bb7e	6.741637
34	0xc095d2eb	-4.681997
35	0xc0e9b88d	-7.303778
36	0xc157bbc9	-13.483346
37	0xc1a0a396	-20.079876
38	0xbeb1f529	-0.34757355
39	0xc09a3aee	-4.8196936
40	0x409d6e23	4.9196944
41	0x40be25f4	5.942133
42	0xc17ebe50	-15.921463
43	0x3ffabf95	1.9589716
44	0x40b7e508	5.746708
45	0x40b428e7	5.629993
46	0x40b8a1f4	5.7697697
47	0xc123fb9d	-10.248929
48	0xc19c4b22	-19.536686
49	0xc069bd4c	-3.6521788
50	0xc14d1dad	-12.819745
51	0x4049af11	3.1513102
52	0xc10bfc73	-8.749133
53	0xc1926949	-18.301409
54	0xc188cc37	-17.099714
55	0xc0c86020	-6.261734
56	0x40cb67c9	6.356419
57	0xc14e2b10	-12.885513
58	0x40af73e5	5.4828973
59	0x3fed5b6e	1.8543527
60	0xc163fe10	-14.249527
61	0x3dbdb84a	0.09263666
62	0x40b6f2d8	5.717144
63	0x40134921	2.3013384
64	0xc1919923	-18.199774
65	0xbe21f069	-0.15814365
66	0x3f7516ec	0.957381
67	0xc0a705dd	-5.2194657
68	0x406315c3	3.5482032
69	0x41157908	9.342049
70	0x403ac3d6	2.9182029
71	0x40e78f0e	7.2362127
72	0xc1a941f2	-21.1572
73	0xc1a82ee5	-21.022898
74	0xc188a137	-17.078718
75	0x3f38ba82	0.7215959
76	0x4023faa5	2.5621731
77	0x4142edd0	12.18306
78	0x40bce05c	5.9023876
79	0x413614a5	11.38004
80	0x40e81015	7.251963
81	0x40f27f89	7.5780683
82	0x409bb479	4.8657804
83	0x40a61d83	5.1911025
84	0xc010a137	-2.2598398
85	0xc186c676	-16.846905
86	0xc14d29cd	-12.822705
87	0xc159c656	-13.610922
88	0x408611bb	4.1896644
89	0x406cd492	3.7004743
90	0x4050b282	3.2608953
91	0xc1753cf9	-15.327386
92	0xc152260f	-13.134292
93	0x411c0a3f	9.7525015
94	0xbfc76a64	-1.5579343
95	0x409b9bcc	4.862768
96	0x3f64824b	0.8926131
97	0x3f0bafad	0.54564935
98	0x3e0a5c83	0.13511853
99	0xc12e8f3c	-10.909969
100	0x40acb9a4	5.397661
101	0xc1849c8a	-16.576435
102	0xbfa8a519	-1.3175384
103	0x40111357	2.2668054
104	0xc0ba8ea4	-5.829912
105	0x40316f74	2.7724276
106	0x400d48de	2.2075725
107	0xc18000bf	-16.000364
108	0xc16e0e78	-14.878532
109	0xc1839805	-16.449228
110	0x3fb1d4bf	1.389305
111	0x40c7318e	6.224799
112	0x408ccdca	4.4001207
113	0x40b652f5	5.6976266
114	0x3fbb0036	1.4609439
115	0x409a23c9	4.8168683
116	0xc0bf75f6	-5.9831495
117	0x3ee596b6	0.44841546
118	0xc10a911c	-8.660427
119	0x40d37ef1	6.609246
120	0xc0ced1d0	-6.463112
121	0xc1aeb9f0	-21.84079
122	0xc17d1a3c	-15.818905
123	0x410e748c	8.903454
124	0x40a6f3ea	5.2172747
125	0xbfb41d8a	-1.4071515
126	0x40dd820e	6.922126
127	0xc16b0638	-14.689018

batch_norm_4.running_var f4 [128]
0	0x444ca419	818.564
1	0x452ef7cc	2799.4873
2	0x44882e0e	1089.4392
3	0x45224bb3	2596.7312
4	0x4398751e	304.91498
5	0x454e5bb0	3301.7305
6	0x451f68d8	2550.5527
7	0x448a6828	1107.2549
8	0x438b0ad2	278.08453
9	0x43848a06	265.0783
10	0x4540080b	3072.5027
11	0x453074ad	2823.2922
12	0x452e8a2a	2792.6353
13	0x457bf27e	4031.1558
14	0x440ef30d	571.79767
15	0x449dd3b0	1262.6152
16	0x45498817	3224.5056
17	0x44b2f179	1431.546
18	0x4527e459	2686.2717
19	0x44a24006	1298.0007
20	0x455314c5	3377.298
21	0x43962528	300.29028
22	0x454a6c9e	3238.7886
23	0x43dbde9f	439.73923
24	0x45520475	3360.2786
25	0x44a49362	1316.6057
26	0x440a569c	553.3533
27	0x44f754d0	1978.6504
28	0x4556ee31	3438.887
29	0x454c30df	3267.0544
30	0x43d2bfde	421.49896
31	0x45341cb8	2881.795
32	0x44ade0ef	1391.0292
33	0x4531ae50	2842.8945
34	0x43fe6a88	508.83228
35	0x439665a2	300.794
36	0x43c29db4	389.23206
37	0x458e8982	4561.1885
38	0x44793150	996.7705
39	0x44d7fb34	1727.8501
40	0x451d9647	2521.3923
41	0x4533c258	2876.1465
42	0x458131b5	4134.2134
43	0x45329eda	2857.9282
44	0x453b19e1	2993.6174
45	0x44e13c65	1801.8873
46	0x449c6109	1251.0323
47	0x43eef4dd	477.913
48	0x43e87f66	464.9953
49	0x437776c2	247.4639
50	0x455b8fed	3512.9954
51	0x451aa5b8	2474.3574
52	0x4594dd6e	4763.6787
53	0x43d1ff8d	419.9965
54	0x44193188	612.7739
55	0x43a8d0f5	337.63248
56	0x45389403	2953.2507
57	0x43b9f3e0	371.90527
58	0x45353323	2899.196
59	0x4388cb5f	273.58884
60	0x43c2226d	388.26895
61	0x439b8bc4	311.09192
62	0x45202041	2562.0159
63	0x44b5db04	1454.8442
64	0x45619876	3609.5288
65	0x44b45c9e	1442.8943
66	0x452523e3	2642.243
67	0x444ed1b2	827.2765
68	0x45356c78	2902.7793
69	0x445ecb9f	891.1816
70	0x43814a67	258.58127
71	0x451a51c7	2469.111
72	0x43ea274a	468.30695
73	0x457e14a6	4065.2905
74	0x4578c630	3980.3867
75	0x44bfc670	1534.2012
76	0x4526db8f	2669.7224
77	0x44e0b911	1797.7833
78	0x453153cb	2837.237
79	0x44a192b8	1292.585
80	0x452f5397	2805.2244
81	0x450c3c08	2243.752
82	0x4532cd70	2860.8398
83	0x452a05ef	2720.3708
84	0x44295505	677.3284
85	0x43e13c49	450.47098
86	0x459686b3	4816.8374
87	0x43ced690	413.67627
88	0x451e7a46	2535.642
89	0x45176089	2422.0334
90	0x4520592d	2565.5735
91	0x459ffce5	5119.612
92	0x4584b1ce	4246.2256
93	0x4488b9f7	1093.8114
94	0x44beafa4	1525.4888
95	0x44bc5b41	1506.8517
96	0x450d4fec	2260.995
97	0x4549c107	3228.0642
98	0x43685cda	232.3627
99	0x43a0c3eb	321.5306
100	0x451d8c5d	2520.7727
101	0x455f33a4	3571.2275
102	0x44055928	533.39307
103	0x45511f47	3345.9548
104	0x43cb529c	406.6454
105	0x44a64a68	1330.3252
106	0x450c32cf	2243.1755
107	0x43badbf9	373.71854
108	0x4588a4bc	4372.592
109	0x43e55e7a	458.7381
110	0x451df934	2527.5752
111	0x451c4477	2500.279
112	0x45292aab	2706.6667
113	0x4521dc90	2589.7852
114	0x44946a54	1187.3228
115	0x45363e62	2915.899
116	0x456f97f4	3833.497
117	0x44b654c3	1458.6488
118	0x438a2198	276.26245
119	0x454013b0	3073.2305
120	0x4384a053	265.25253
121	0x4487d806	1086.7507
122	0x43bfdf16	383.74286
123	0x44d18bea	1676.3723
124	0x452a1703	2721.4382
125	0x445f5f1a	893.48596
126	0x4473ac59	974.69293
127	0x45603878	3587.5293
